model/customModel/modelA/ASLclassifier.tflite (tflite, 7424 bytes, 6 tensors)

sequential/dense/BiasAdd/ReadVariableOp f4 [20]
00000000: bb85 973e 8e0e 083f 147e 13be 1248 09bf
00000010: 2828 1b3f f324 3abd f2a0 1dbf 4818 383e
00000020: 54c8 19bf d932 8ebe 4990 9c3e 6ed7 3bbf
00000030: c0df f33c d88c ebbd 2103 333e 556a 10bf
00000040: f2a8 a53e 38f3 293f 0020 d23e 3812 6abe
0.29594216 0.5314721 -0.14403564 -0.53625596 0.6060815 -0.045445394 -0.6157371 0.17978013
-0.600713 -0.2777317 0.3057883 -0.73375595 0.029769778 -0.11501473 0.17481662 -0.5641225
0.32355458 0.6638675 0.4104004 -0.22858512

sequential/dense_2/BiasAdd/ReadVariableOp f4 [24]
00000000: bb2e 18be 0187 a93e 9f7e 08bf 6559 a23e
00000010: c1e0 c0bc 9dcd 5cbe e5bb 9abe e609 90be
00000020: c980 ae3e f438 fd3e 0124 7b3e b0b1 42bd
00000030: f1b3 91bd 02e7 02bf c7fc 72be 96f9 fcbe
00000040: 635f e03e 1554 2c3e a0f4 13be e115 953e
00000050: 8b2e f03d ebe0 9abc ba9e 24bc 1a31 1fbe
-0.14861576 0.33110812 -0.5331821 0.31708828 -0.023544671 -0.2156281 -0.30221477 -0.28132552
0.3408263 0.49457514 0.24525453 -0.047532737 -0.07114399 -0.5113374 -0.2372924 -0.4940917
0.43822774 0.1682895 -0.14448786 0.29118255 0.11727627 -0.018906077 -0.010047609 -0.15546075

sequential/dense_1/BiasAdd/ReadVariableOp f4 [10]
00000000: c474 473f 8cfa c13e a8fb 543f b033 91be
00000010: c3d8 1bbd eae3 be3e 405d 83bd 8304 113f
00000020: 09e9 973c 2954 0f3f
0.77912545 0.37886465 0.83196497 -0.28359747 -0.038048517 0.3728326 -0.064142704 0.5664751
0.018543737 0.55987793

sequential/dense/MatMul f4 [20, 42]
00000000: e048 553d aed2 363e 5ab8 953e 2f84 73bd
00000010: f7bf 03be caf3 a4bd d966 23be 1daa 28be
00000020: e821 debe bf30 76bd 2ee8 bebe edbb 7b3d
00000030: 3bd2 12be a4cc 2f3d a85f 1d3e c0f1 74be
00000040: 64fb 65bd 8d57 e8be da6d 85bf b445 0abd
00000050: 4021 4d3e db34 c7bd fd28 54be 38c7 2bbe
00000060: b142 12bf d40b a1be 4351 87bf 3817 16be
00000070: ce3d eb3e b303 afbc 29df a93e 2697 b53a
00000080: cc24 0d3e 3e4c 373e 78a4 dabe 1266 123d
00000090: bb62 5d3e 248f 1b3e ba64 513f 83f7 873e
000000a0: e14a 333f d3ec de3e f699 ebbd 8878 89be
000000b0: e38b 9dbe 1673 5c3e 717f 96be 7eca 083e
000000c0: 05a9 6abd 621b 363c 35c9 a13e 7540 8e3d
000000d0: 713b ccbd d1ff eb3d ea69 23bd f1db ab3d
000000e0: 6db8 49be bcee 7aba 0024 a9be c681 54be
000000f0: e964 0f3f 345b 9d3d 6451 4ebc a52c 013e
00000100: c52e 2abf c9d0 82bb 164f 12bf a1c2 e8be
00000110: d9fa 223f ce07 813d 1a5e 7fbb 6443 003e
00000120: 1cd2 efbe 2e03 693d 1fd9 ddbe f6ae dbbd
00000130: 1a69 bf3e dbb1 033e 9119 4fbd d8eb a63d
00000140: 6c5b 10bf 04af ac3d e7f9 63bf 3b54 ebbd
00000150: 1088 e03c b8d6 083e 7ff5 923e 9bf1 15bf
00000160: fd58 fd3e 5264 c6bd 3b68 673e d516 143c
00000170: 962a 183f d9f9 b0bd 4afc 9abe 3f94 bdbc
00000180: 2600 f83d 33b4 40be 26fb 1b3e 5755 cdbd
00000190: 1d3a 863d 3195 02bd 9599 26bf 8ac2 40be
000001a0: 754a ea3e 298f 45be 1a4d 0a3f a14f 843d
000001b0: 841b b63e c7e1 b63d 2ca6 81be 075e 96bd
000001c0: 5cb5 003f e656 883d 35f7 403f 6511 413e
000001d0: bd84 323e b0c1 bc3d c574 e73d 1f10 21bd
000001e0: 4899 b53e 5b25 703e bb92 2e3f cc66 513e
000001f0: 0770 293f a940 a23e 58cb 813e 2838 583d
00000200: f373 353f b067 993e 6700 5b3f 3b90 193e
00000210: 118a b23e 08bd 26be 45dc 4b3f 04c2 8fbd
00000220: 6c8c 203f ed9a 423e 87f6 223e 0abe 1e3e
00000230: b0ac 333e 6ea0 c7bd 0556 8b3c 9891 9c3c
00000240: 6d3b 4b3f 03fd f53d fb60 f6be a28a 79be
00000250: e1b2 0ebd 81d8 c93d e2ad d83d 39fe 403e
00000260: a389 7abe 8744 483e e4ca 06bf b6be 8abe
00000270: bcc7 923e 3c7c bdbc 4958 543f 38ef a53e
00000280: 2214 ffbe ba91 4fbe d2c5 80bf 47da 90bd
00000290: ec15 0ebf 230c 21bd 7430 e7bd 3c05 7cbe
000002a0: 140d b93d 3036 8bbd 702b 4bbd b709 93bb
000002b0: 027c f6bd a4b9 28be a345 143d f1f9 ae3d
000002c0: 9d77 38be 6dad 14be 1b90 e3bd dd2c 27be
000002d0: c4fc 44be 3219 89bd 4ba8 e3be 5540 3ebe
000002e0: 6c35 ebbe be3a 9dbe 976c 1fbf f1b2 7ebe
000002f0: e09d 213d 5d73 303b b2d3 0a3e 8338 39ba
00000300: 89af d8bd 9e21 e23d ef79 33bf ea7d 4abd
00000310: de76 933e 13ca 62bd 99c0 b13d 9a08 8a3e
00000320: e78a a2be 249a aa3e 8ede 10bf 5f03 26bd
00000330: 887d ed3e 21dd a83d c022 133f 86d8 943e
00000340: 19c8 dc3e 60fa bd3e c232 2f3e f099 433e
00000350: e153 0ebe fb73 6d3e c24c e63b 5c06 f33e
00000360: 639f 213f eb8f aa3e 8396 863f bf2c 933e
00000370: 811e 623e 0bc3 223e bb3e 9f3e 8507 083e
00000380: 3b12 d13e 4b6b 4f3e 4276 cf3e fec4 ad3c
00000390: 2216 f93e 049a 27ba cbcc 27bd 0652 423e
000003a0: 2fa6 133e 1527 c53d df5b a93e b802 dbbc
000003b0: d814 653f 7c52 2e3d 0e5e da3d b010 2b3e
000003c0: 6683 be3e 295d 4c3d 9989 413f c636 133d
000003d0: ee12 a73e c942 163d 3ded 10bd b90b 33bd
000003e0: 45df 2e3e 3b38 83be 85c4 683d 4440 c5be
000003f0: 9090 f83c a61b 28be 36e9 8f3e bdc5 ec3c
0.052071452 0.17853805 0.29242212 -0.059452232 -0.12866198 -0.080543116 -0.15957202 -0.16471143
-0.43385243 -0.06010508 -0.37286514 0.061458517 -0.14338009 0.04291977 0.15368521 -0.23920345
-0.056147948 -0.45379296 -1.0424149 -0.03375788 0.20032215 -0.09726878 -0.20718761 -0.16775215
-0.57133013 -0.31454337 -1.0571674 -0.14657295 0.4594559 -0.021364069 0.3317807 0.001385425
0.13783568 0.17900178 -0.42703605 0.035741873 0.21619694 0.15191323 0.8179432 0.26556024
0.7003613 0.43540058 -0.11503975 -0.2684977 -0.30770788 0.21528277 -0.29394105 0.13358495
-0.057290096 0.011114927 0.3159882 0.06945888 -0.09972275 0.115234025 -0.03989593 0.0839156
-0.19699259 -0.00095723174 -0.33035278 -0.2075263 0.5601335 0.07683411 -0.012592647 0.12614687
-0.66477615 -0.0039921743 -0.57151926 -0.4546099 0.63664013 0.06300317 -0.0038966 0.12525707
-0.46839988 0.056887798 -0.43329713 -0.107267305 0.37384874 0.12860815 -0.05056149 0.081504524
-0.563895 0.08431819 -0.89053196 -0.11490675 0.02740863 0.13363159 0.28702924 -0.58571786
0.49481955 -0.09687103 0.22598355 0.009038647 0.5943998 -0.08641405 -0.30270606 -0.023141978
0.12109403 -0.1881874 0.15232524 -0.10026043 0.06554053 -0.03188056 -0.650781 -0.18824211
0.4575993 -0.19292893 0.540239 0.064605005 0.35567868 0.08929782 -0.25322092 -0.07342153
0.5027673 0.066571996 0.7537721 0.18854292 0.17433448 0.092166305 0.11301569 -0.039322015
0.35468507 0.2345175 0.6819264 0.2044937 0.66186565 0.31689957 0.2535045 0.05278793
0.7088005 0.2996192 0.8554749 0.14996426 0.3487096 -0.16283047 0.7963298 -0.070194274
0.62714267 0.19004412 0.15914355 0.15502182 0.17546344 -0.097473964 0.01700879 0.019112393
0.7938755 0.12011149 -0.48120865 -0.2436929 -0.03483856 0.09855748 0.105800405 0.18846978
-0.24466567 0.19557391 -0.52653337 -0.27098626 0.2866801 -0.023130529 0.8294721 0.32409072
-0.49820048 -0.20270434 -1.006037 -0.07072883 -0.555022 -0.039318215 -0.112885386 -0.24611372
0.090356976 -0.06797445 -0.049601972 -0.004487242 -0.12035371 -0.16477066 0.036199223 0.08543766
-0.18014379 -0.14519282 -0.1111147 -0.16325708 -0.19237047 -0.06694259 -0.44464335 -0.18579228
-0.45939195 -0.3070888 -0.6227507 -0.24872948 0.039457202 0.002692423 0.13557318 -0.0007065611
-0.10580356 0.11041568 -0.7010793 -0.049436487 0.28801626 -0.055368494 0.08679313 0.26959687
-0.317466 0.33320725 -0.5658959 -0.04053056 0.46384835 0.08245302 0.574749 0.29071444
0.43121412 0.37105083 0.17109206 0.19101691 -0.13899185 0.23188774 0.007028193 0.4746579
0.6313383 0.33312926 1.0514683 0.28745076 0.22081949 0.15894715 0.31102547 0.13284118
0.4083422 0.20255773 0.4051991 0.021212097 0.48649698 -0.00063934946 -0.04096679 0.18976602
0.14418863 0.09626595 0.33077905 -0.026734695 0.8948493 0.042559132 0.10662471 0.16705585
0.37209624 0.049893532 0.7560058 0.035940908 0.3263163 0.036684785 -0.035382498 -0.04371235
0.17077358 -0.25628838 0.05682804 -0.38525593 0.03034237 -0.16416797 0.28107613 0.028902883

sequential/dense_1/MatMul f4 [10, 20]
00000000: 5791 313f 24bf 3f3e cf18 56be 094c a23e
00000010: 9751 003f 747b c0be 68f6 a83d 86c5 9bbe
00000020: 188b 8c3e 5293 123f e38d 0dbf ee19 323f
00000030: 2541 863e f1b1 833f 96ee 90be fa2f b63e
00000040: 7a08 f4be b816 243f c2f6 22bf 6380 22bd
00000050: c8ee b73e d157 aebe 83e3 e13e 8757 7e3e
00000060: 9a28 053f 40dd e6be bde6 6ebc 1e11 d13e
00000070: b323 32bd 154c 3d3e 4c46 34bf 40b9 823e
00000080: e76c 103d 06b6 993e c587 ad3e b6c2 d4bd
00000090: 9d60 51bf 26ac 133f 3676 0b3e 10b0 7e3e
000000a0: 0a4c c9bd 49a7 453e 60f6 c2bd fee7 873e
000000b0: b354 67be a3c5 51bd 56dc 503e 796f 6ebe
000000c0: 958e 35be f342 563f 579a 06bd 7e1f 7b3d
000000d0: 8625 093f fc1e 453f a2b6 1bbe 341a c6bc
000000e0: 98af c2be d5ba 7bbe eb0b e5be ebf7 c83e
000000f0: 9712 cd3e 6709 76bf 7b91 113f 9501 e93e
00000100: e793 45bd e666 143f 5af0 a53d b7b5 193f
00000110: a394 0a3f f959 013e 212c 80be 3af3 3b3f
00000120: 5a5a b93e 7c50 833d 8537 1d3f cc44 223e
00000130: fdae dfbe 04be d53d d1a6 08bf d65c 463e
00000140: e617 9f3d 4184 dc3d b957 c33e 04be 9c3e
00000150: 30c2 2f3f 695f 79be bf5a f63d 28bf 7f3e
00000160: f58c 143f a851 5e3d dd15 3d3f 1d01 e13d
00000170: 45ff f5be 2ba0 883e 4818 ab3e 5e24 253f
00000180: ea9a 8a3f ad9b 223f 4fc4 263f 5165 cabe
00000190: 0f45 e83e c213 2a3f 38b3 7f3e fc63 423d
000001a0: 1343 e93e cabf 403f 2c37 07bd 81c4 0f3f
000001b0: 6d04 bfbd e62e 08bd 4436 5a3d 59d9 c4be
000001c0: 21d5 263f e635 ccbc 2e6d 4b3f 2006 66be
000001d0: 0ffc ec3d 0894 b63e 391c 2c3f f936 ec3e
000001e0: 9f32 863d b7b2 27bf 5fc8 633f 2d8d d93e
000001f0: 1f1d 8c3e 98eb 363f deed f43e df78 2d3f
00000200: 813e 593f c17f e83d 3a81 a23e f53c 1e3f
00000210: aa83 6dbd d014 ff3d 30ee 0d3f 6f75 653f
00000220: 4161 c1be 6326 d83c c3d3 21bf 0444 0e3e
00000230: 41f6 223f 7fee c73e 4b3b a83d 1382 343d
00000240: bbca 9a3f 3067 36be 4475 f2bd 373f 843e
00000250: e194 1bbe 1ede 893d 6a98 393e 7f0e 16bc
00000260: bc8f 2f3d e845 c53d 61a5 ba3d b301 0c3e
00000270: e912 333f 0a47 8b3f 8976 103f b9d4 7fbe
00000280: 1d43 3b3e 8db5 7fbd 731c 563d 072e 963e
00000290: 0294 653e 56f2 15be 7f3b 543f 078b d53e
000002a0: 5c3b 063f fc0f 1c3e 87b0 86bd ab29 a93e
000002b0: 2124 133f 078c b2be 5dbc 063f 6974 033f
000002c0: 319b 11bf 8250 35bc c4f7 85bd 3ad9 9a3f
000002d0: cc82 98be 8864 8b3f b37a 0ebe 0fd3 583f
000002e0: 06a9 9abe 19e0 aa3e 87b2 203f 6988 c6be
000002f0: bb9f 333f db33 1f3f e6db aa3f f2e5 33be
00000300: d428 45be 8f13 29bd bb5f 83be 53e3 5e3f
00000310: 2a66 883e e85d 2b3e 5737 723f b4ea e23e
0.69362396 0.18725258 -0.20907901 0.31698635 0.50124496 -0.37594187 0.08250123 -0.30424136
0.2744987 0.5725604 -0.55294627 0.69570816 0.26221576 1.0288678 -0.28307027 0.35583478
-0.47662717 0.64097166 -0.6365777 -0.03967322 0.35924363 -0.34051374 0.4411889 0.24838077
0.5201508 -0.45090675 -0.0145813795 0.40833372 -0.043491077 0.18486054 -0.70419765 0.2553196
0.035260107 0.30021685 0.33892646 -0.10388701 -0.81788045 0.5768455 0.13619313 0.2487185
-0.098289564 0.19302095 -0.095196486 0.26544183 -0.22590904 -0.05121387 0.20396551 -0.23284711
-0.17730172 0.83695906 -0.032862034 0.06130933 0.5357288 0.77000403 -0.15206388 -0.024182416
-0.38024592 -0.2458299 -0.44735655 0.39251646 0.40053245 -0.96108097 0.5686261 0.4550902
-0.048236754 0.5796951 0.08102484 0.600429 0.5413305 0.12631978 -0.25033668 0.7341801
0.36201745 0.064118356 0.6141284 0.15846556 -0.43688193 0.10436633 -0.5337954 0.19371352
0.0776823 0.10767413 0.38152865 0.3061372 0.6865568 -0.24352802 0.12029027 0.24975264
0.58027583 0.054277092 0.73861486 0.109865405 -0.48046318 0.26684698 0.33416963 0.64508617
1.0828526 0.6351879 0.65143293 -0.39530423 0.45365188 0.664364 0.2497071 0.047458634
0.45558986 0.75292647 -0.0330116 0.56159216 -0.09327016 -0.03324785 0.053274408 -0.38447073
0.6516896 -0.024928045 0.7946347 -0.22463274 0.11571514 0.35659814 0.67230564 0.4613569
0.06552624 -0.6550707 0.8897762 0.4249052 0.27365968 0.7145324 0.47837728 0.6776256
0.84861 0.11352492 0.31739217 0.61811763 -0.057986893 0.124551415 0.5544157 0.89632314
-0.3776951 0.026385492 -0.6321375 0.13893133 0.63657004 0.39049146 0.08214434 0.04406936
1.2093118 -0.178128 -0.11838773 0.2582948 -0.15193512 0.067318186 0.18124548 -0.00915873
0.042861685 0.09632474 0.09113575 0.13672523 0.6995073 1.0881054 0.5643087 -0.24983491
0.1828732 -0.062429 0.052273225 0.2933199 0.22419742 -0.14643225 0.82903284 0.41707632
0.52434325 0.15240473 -0.06576639 0.33039603 0.57477003 -0.34872457 0.5263117 0.513495
-0.5687743 -0.011066558 -0.06541398 1.2097542 -0.2978729 1.0890055 -0.13913994 0.8469705
-0.3020708 0.33374098 0.6277241 -0.38775948 0.70165604 0.621885 1.3348358 -0.17568186
-0.19253856 -0.04127842 -0.25658974 0.8706562 0.26640445 0.16735041 0.9461569 0.4431969

sequential/dense_2/MatMul f4 [24, 10]
00000000: 4f79 d6bc 23b2 acbe 1e94 9a3d fa57 85b9
00000010: 0e70 773e 1484 49bf dce4 0e3f 821b b8be
00000020: 279a 8ebe 5dac b13e ef93 a23e c64b 57be
00000030: dab7 103f a582 e5be d09e 9ebe 26cd 723e
00000040: bbf9 5cbf 0fc6 90be 98e1 503e 175b cb3d
00000050: c05e 0abf 2456 e33d 9aea a43e bb44 143f
00000060: 659d 9ebd 9e7b 163e 0663 503e b2d3 12bf
00000070: 6425 363e 05de 4abe 21ab 08bd 9ee1 6a3e
00000080: be9b 89be 3c73 1abe f762 883e 2438 2c3e
00000090: 52f2 b6be aa84 5e3e 66d1 493e 2a84 133e
000000a0: a485 e33e 1841 463d 095c 2f3e 5aa5 0cbe
000000b0: e116 f0be 1f1c 2ebf 55ae 4e3e 38fe d1be
000000c0: ed5b bb3c db62 8b3e a86f e0bd c7f1 57bf
000000d0: 4624 f03e b638 cebe 0547 3abd 1aa2 9b3e
000000e0: fd7b 76be f33f c0be 22c0 823e 90a3 f03e
000000f0: 22fe f4be 9ad3 aa3d e54a 68bf 2f34 d13e
00000100: 8bcb 8b3e f7aa f33e 787a 6b3e 18ef 14be
00000110: 0fee 96be f21a 0cbf a4d7 53bf da2e 933e
00000120: 4a04 efbe bd78 533d 10a0 d3bd 5d4b 1b3f
00000130: dbed e83e b19e 14be 62b8 4abe d486 31bf
00000140: 99cc 86be 9d31 00bf 1697 953e eb63 46be
00000150: db45 3bbd 694c 08bf 5cad d33e 3aba 10bf
00000160: 0541 d9bd e2c6 f33e 3850 843e e90c 48be
00000170: da07 fb3c 7afa 2ebf 875c 323e a0d9 38be
00000180: b69b 09bf e07f 1d3f ea18 27bf 7dfd 863e
00000190: 0c0d f3be fa33 4ebe d6c1 18bf 09b7 86bd
000001a0: 3b52 b43e bdf0 823e e442 5f3e ac27 7b3e
000001b0: 5d49 a83d 9b83 573e 1537 e53e 0c1e 283e
000001c0: 17a9 6d3e a85d e5bd 668f 603e 9879 18bf
000001d0: e497 793e ed0a 05be 45cf 363d 7ede 68be
000001e0: e8cb ff3e 6d60 e23d ecfc 02be 4f69 843d
000001f0: fe9a 993e 958b 09bf e76b 5d3e 35e1 b8bd
00000200: af7a 58be d2d2 b4bc 9e8a 02be ba97 00be
00000210: 71a3 55bd 02f0 b53e 7d00 57be 1cfb 0cbd
00000220: afb6 6b3e db1f 84be 77a4 073f 1f87 24be
00000230: 57a2 623d 745f 91be d35a 23bf 3879 47bf
00000240: 0f90 2a3f 8c37 e73e 4aef 86bf 8bc1 063f
00000250: b4b8 86bf c69c b23d 3ef7 35bf 093f d0be
00000260: ce3f 4dbf 9c1e 02bf aae0 253f 024d d1be
00000270: 4182 92be ac67 103f 6951 97be e3c5 e83e
00000280: 436f 343c 5450 8e3e 59a7 e93e c108 c2be
00000290: 8cb7 8abe c48b 443e 7342 f9be d742 133f
000002a0: 1a0d 1bbf 8301 cbbc f7f2 893e fc75 89be
000002b0: 3ab2 7a3e bc2d e7bd 0e2c 103f 533c 30bf
000002c0: e2dd f13d 3c9e 50be 08b6 413d f508 82bc
000002d0: e677 84be 66a8 7b3d 13f5 fabe af5d 003f
000002e0: 9d98 febd 1954 94bd 639c 843e 6342 9e3e
000002f0: c77b 643e 38b7 59bf cdce e13e 283b a23e
00000300: cd4a 4c3e 4c58 06bf 9788 18bf 1a5a 21bd
00000310: 6f34 60bf 4f5a da3e 0110 48be 32d3 163c
00000320: 187b 063f 0952 8c3e 176d fbbc df31 4ebe
00000330: 4160 07be 45a1 f13d 391d 5cbf e91f 8b3e
00000340: 1574 10bf 19b3 fb3d f026 173f d9c5 133e
00000350: 47be 253f 7490 5cbf bcf4 60bf 217e 23be
00000360: a530 98bf bfbc f13d 6551 6c3d 66c6 6fbe
00000370: c725 18bd df4f 293e 883b 25bf 8a6d a83d
00000380: c75d 683d 400c 1abe e69b d73e cdc7 2d3e
00000390: b170 1a3f 3d22 7ebf 013f 09be 0764 71be
000003a0: c721 bdbe 356d f9be 7da7 933e 03ef 62be
000003b0: bae3 c33c 07b8 1abf b2b0 133e b604 353f
-0.026180891 -0.33729658 0.07547782 -0.00025433284 0.24163839 -0.7871716 0.5581796 -0.35958487
-0.27851984 0.34701815 0.3175349 -0.21024999 0.56530535 -0.44826236 -0.3098054 0.2371107
-0.8631856 -0.28276107 0.20398557 0.099294834 -0.5405083 0.111004144 0.32210237 0.57917374
-0.077448644 0.14695594 0.20350274 -0.5735427 0.17787701 -0.19811256 -0.033366326 0.22937629
-0.26876634 -0.15083021 0.26638004 0.16818291 -0.3573175 0.21730295 0.19708785 0.14405885
0.44437897 0.048401922 0.17124952 -0.13734952 -0.46892455 -0.6801166 0.2018369 -0.41014266
0.022870982 0.27223858 -0.10958797 -0.843533 0.46902674 -0.40277642 -0.045477886 0.3039711
-0.24070735 -0.3754879 0.2553721 0.46999788 -0.47850138 0.08341141 -0.9073928 0.40860125
0.27303728 0.47591373 0.22995937 -0.14544332 -0.294785 -0.54728615 -0.82750916 0.28746682
-0.4668296 0.051628817 -0.10333264 0.6066187 0.4549397 -0.14513661 -0.19796899 -0.69346356
-0.2632797 -0.50075704 0.29216832 -0.19374053 -0.045720916 -0.5324159 0.413432 -0.5653416
-0.106081046 0.47612673 0.25842452 -0.19536175 0.030643392 -0.68350947 0.17418109 -0.18051767
-0.5375322 0.61523247 -0.6527239 0.2636527 -0.4747089 -0.20137015 -0.5967077 -0.0657788
0.35218987 0.25574294 0.2180286 0.24526852 0.08217118 0.21046297 0.44768587 0.16417712
0.23209034 -0.11199504 0.21929702 -0.5956054 0.24374348 -0.12992449 0.04463126 -0.22741124
0.49960256 0.11053548 -0.12791795 0.064653985 0.30001062 -0.5372861 0.21623193 -0.0902733
-0.2114055 -0.022073183 -0.12748191 -0.12557879 -0.052157823 0.35534674 -0.2099628 -0.034419164
0.23018907 -0.25805554 0.5298533 -0.1606717 0.0553306 -0.28393137 -0.6381046 -0.7791934
0.66626066 0.45159566 -1.0541775 0.52639073 -1.0525117 0.087213084 -0.71080387 -0.40673092
-0.80175483 -0.50827956 0.64795935 -0.40879065 -0.28615 0.5640819 -0.295543 0.45463476
0.011012855 0.2779566 0.4563549 -0.37897304 -0.2709316 0.19193941 -0.4868351 0.57523865
-0.60566866 -0.024780994 0.2694318 -0.26847827 0.2448205 -0.1128802 0.5631722 -0.6884205
0.11809899 -0.20372862 0.04729274 -0.015873412 -0.25872725 0.061439894 -0.49015102 0.5014295
-0.124314524 -0.07242603 0.25900564 0.30910024 0.22312842 -0.85045195 0.4410309 0.31685758
0.19950409 -0.5247848 -0.5958342 -0.03939257 -0.8758001 0.42647025 -0.19537355 0.009205626
0.52531576 0.27406338 -0.030691667 -0.20136212 -0.13220312 0.11798338 -0.8598209 0.27172783
-0.5642713 0.122900195 0.5904379 0.14430942 0.64743465 -0.8615792 -0.87873435 -0.15966083
-1.1889845 0.118035786 0.05769481 -0.23415527 -0.037145402 0.16534375 -0.6454396 0.08224018
0.056730058 -0.15043736 0.4211113 0.16970749 0.60328203 -0.99270993 -0.1340294 -0.23573314
-0.36939833 -0.4871613 0.2883872 -0.22161488 0.0239123 -0.60437053 0.14422873 0.70710313
