model/customModel/modelB/ASLclassifier4b.tflite (tflite, 13448 bytes, 6 tensors)

sequential_1/dense_5/BiasAdd/ReadVariableOp f4 [28]
00000000: 9604 ffbd 3ca4 58bf 1b4e 00c0 ba8a a53e
00000010: 682b 0a3f 1042 dd3f 959f 0dbf fae6 173e
00000020: 531f acbe 0992 e73f e2a6 19be 1962 8d3e
00000030: 9730 5bbf e0a5 9ebb c298 37bf a1ca 553f
00000040: 108b 273f 1291 d13e 9380 133f 4763 49bf
00000050: 8fbf 4abc ed38 6a3e d5a0 9cbe 4b21 4a3f
00000060: c405 69bf cc32 c6be 688c 79bf abc2 9bbe
-0.124520466 -0.846256 -2.0047672 0.32332402 0.5397248 1.7285786 -0.5532163 0.14834204
-0.33617648 1.8091441 -0.15005067 0.27613905 -0.8562102 -0.004841551 -0.71717465 0.8351231
0.6544657 0.40930992 0.57618064 -0.7866711 -0.012374773 0.22873278 -0.30591455 0.7895705
-0.9102442 -0.3871063 -0.9747987 -0.30421957

sequential_1/dense_4/BiasAdd/ReadVariableOp f4 [50]
00000000: 84af 0a40 7dd3 dd3e 591f 253f 7f24 fb3e
00000010: 8cda 41be e327 e23d aa2c 573f 073a c33f
00000020: 710d 303e c926 3b3f 5931 303f 89ca 8c3e
00000030: 9264 a33d 8dad cb3f 4c6b cf3f fbe2 4cbf
00000040: 2093 28c0 5e8f 553f b9b8 a03f ab40 0fbf
00000050: d206 653f e453 14bf 4650 2140 9c6c 2040
00000060: 8938 47be f3ba 6e3f 904e 5d3f 029f 963f
00000070: 0c09 aa3f 2033 813f 03a8 5e3f cba5 a43f
00000080: 663e 4dbf f945 ac3f e4ee 2a40 af07 073f
00000090: f20e 3b3f 302d 47bf 7dbd edbe ecbe ea3f
000000a0: b14b 10bc 3e32 2f3f 6f48 353f 4912 7f3f
000000b0: c61e 023f a840 90bf aeea 9ebe f316 293f
000000c0: 9f4b 9abf c6bb 91be
2.1669626 0.43325415 0.6450096 0.49051282 -0.18931025 0.11042764 0.84052527 1.5252084
0.17192627 0.73106056 0.688253 0.27498272 0.07978167 1.5912338 1.620462 -0.80033845
-2.6339798 0.83421886 1.2556373 -0.5595805 0.8946353 -0.57940507 2.5205245 2.506629
-0.1945516 0.9325401 0.86448 1.1767275 1.3284011 1.0093727 0.86975116 1.2863096
-0.8017334 1.3458854 2.6708307 0.527461 0.7306968 -0.77803326 -0.4643363 1.8339515
-0.008807109 0.6843604 0.7081365 0.99637276 0.50828207 -1.1269732 -0.3103842 0.6605064
-1.2054328 -0.28463572

sequential_1/dense_3/BiasAdd/ReadVariableOp f4 [80]
00000000: 53dd 85bf 776b bdbf b319 ba3e bf18 b8be
00000010: c6d3 64bf 96f4 48be 9bce 26bf 34db a9be
00000020: 2dcb 9ebe 34d7 61be c1da b7be f175 5fbe
00000030: df25 87bf 99f4 e93e 3fcf 14be 542d 44bf
00000040: 1266 08bf 1f7a a73e 9c13 9abf f7f4 0abe
00000050: 0e8d 7bbe 3df4 4ebe ebf0 60bf 9bc9 bcbe
00000060: 8aa3 5bbf 9a62 aebf 06b5 98bf a5e2 393d
00000070: 7cc6 92bf a6f1 babd f402 34bf 2e2f e3be
00000080: 182a 8abf cd56 15bf 0b90 e1be 0a7a abbe
00000090: ffe7 14bf f5e1 9fbf 3af9 09bf da87 c9bf
000000a0: ede4 9fbe 81e7 8cbf 6244 0dbf ddb7 91be
000000b0: 345a 21be 84a0 06bd 22d3 c4bf 1495 cebc
000000c0: c329 23bf 4df8 41bf 26ea 08bf db61 6bbf
000000d0: 9214 8abe 7bb6 8dbc 999c 53bf 6f67 3ebe
000000e0: 6eda 0cbf 3b9d cbbd fada d9be 1693 30bf
000000f0: 6568 8ebf 0ffb 96bf f1a0 00be 7e7b 38bf
00000100: b3b9 d0bf af4b 343f a514 87bf ef39 68be
00000110: 8f3b 86bf 9ffe 6abf c6c9 bebe f6d1 c4bf
00000120: 33f0 8ebf de65 fbbe 7094 bcbe ef1d 0dbf
00000130: c9d8 c1be 2184 05be 1a01 a2bf c40a c7bf
-1.0458168 -1.4798421 0.36347732 -0.3595638 -0.8938564 -0.19624552 -0.65159005 -0.3317505
-0.31014386 -0.2205475 -0.35909083 -0.21822335 -1.0558432 0.45694426 -0.14532183 -0.76631665
-0.53280747 0.32710359 -1.2037234 -0.13570009 -0.24565527 -0.20210357 -0.8786761 -0.36872563
-0.85796416 -1.3623841 -1.1930244 0.04538216 -1.1466823 -0.09128122 -0.70317006 -0.44371933
-1.0794096 -0.5833557 -0.4405521 -0.33491546 -0.581665 -1.2490832 -0.53895915 -1.5744584
-0.31229344 -1.1008149 -0.5518247 -0.2846059 -0.15757066 -0.032867923 -1.5376933 -0.02521757
-0.637356 -0.757695 -0.5348228 -0.9194619 -0.2696882 -0.017298928 -0.82660824 -0.18594144
-0.550208 -0.09942099 -0.42549878 -0.68974435 -1.1125609 -1.1795367 -0.12561394 -0.72063434
-1.6306671 0.70427984 -1.0553175 -0.2267835 -1.0486926 -0.9179477 -0.37263316 -1.5376575
-1.1167053 -0.49101156 -0.36832 -0.551238 -0.37860706 -0.13038684 -1.2656586 -1.555016

sequential_1/dense_3/MatMul i1 [80, 64] scale=0.02771339 zero_point=0
00000000: fe02 0701 00e4 01fc 03fe 03fe f717 ffe4
00000010: 0e07 f50f 01e8 19ff ec17 ffef 0a02 fb09
00000020: 01f4 fe00 f301 01f5 1801 fc0d fffc fefe
00000030: f2fc 02fc 1102 ee0c 03f6 09fd f305 fdfa
00000040: 0005 02fc 0109 0101 0500 0202 0002 03ff
00000050: 0300 06ff 00fd fa00 fffd 01ff 00ff 0200
00000060: 0102 0302 0100 0001 0301 00ff 00ff 0205
00000070: ff03 0501 0003 fd00 04fe ff9e ff02 0601
00000080: 00f9 04fd fd3a fcf6 19fd 0615 fd02 00fa
00000090: 00f5 ff00 f800 fbf9 02fc fc02 04fc 0902
000000a0: 0105 0102 0202 ff07 fefc 0000 03ff 01fd
000000b0: ff03 f400 fe04 01ff 0bfe fe23 0003 defb
000000c0: 00fb 03fb 020f fa03 00fb ed01 3746 0022
000000d0: 03ff f3fb ffee f6ff f5fd fff6 0300 fe00
000000e0: 00f5 fefe f702 feff 03fe 00fb 01fd fe02
000000f0: 1f01 0260 fafe f7fb fffa 0b01 ff14 0317
-0.05542678 0.05542678 0.19399373 0.02771339 0.0 -0.7759749 0.02771339 -0.11085356
0.08314017 -0.05542678 0.08314017 -0.05542678 -0.24942051 0.63740796 -0.02771339 -0.7759749
0.38798746 0.19399373 -0.3048473 0.41570085 0.02771339 -0.6651214 0.69283473 -0.02771339
-0.5542678 0.63740796 -0.02771339 -0.47112763 0.2771339 0.05542678 -0.13856696 0.24942051
0.02771339 -0.3325607 -0.05542678 0.0 -0.36027408 0.02771339 0.02771339 -0.3048473
0.6651214 0.02771339 -0.11085356 0.36027408 -0.02771339 -0.11085356 -0.05542678 -0.05542678
-0.38798746 -0.11085356 0.05542678 -0.11085356 0.47112763 0.05542678 -0.49884102 0.3325607
0.08314017 -0.2771339 0.24942051 -0.08314017 -0.36027408 0.13856696 -0.08314017 -0.16628034
0.0 0.13856696 0.05542678 -0.11085356 0.02771339 0.24942051 0.02771339 0.02771339
0.13856696 0.0 0.05542678 0.05542678 0.0 0.05542678 0.08314017 -0.02771339
0.08314017 0.0 0.16628034 -0.02771339 0.0 -0.08314017 -0.16628034 0.0
-0.02771339 -0.08314017 0.02771339 -0.02771339 0.0 -0.02771339 0.05542678 0.0
0.02771339 0.05542678 0.08314017 0.05542678 0.02771339 0.0 0.0 0.02771339
0.08314017 0.02771339 0.0 -0.02771339 0.0 -0.02771339 0.05542678 0.13856696
-0.02771339 0.08314017 0.13856696 0.02771339 0.0 0.08314017 -0.08314017 0.0
0.11085356 -0.05542678 -0.02771339 -2.7159123 -0.02771339 0.05542678 0.16628034 0.02771339
0.0 -0.19399373 0.11085356 -0.08314017 -0.08314017 1.6073766 -0.11085356 -0.2771339
0.69283473 -0.08314017 0.16628034 0.5819812 -0.08314017 0.05542678 0.0 -0.16628034
0.0 -0.3048473 -0.02771339 0.0 -0.22170712 0.0 -0.13856696 -0.19399373
0.05542678 -0.11085356 -0.11085356 0.05542678 0.11085356 -0.11085356 0.24942051 0.05542678
0.02771339 0.13856696 0.02771339 0.05542678 0.05542678 0.05542678 -0.02771339 0.19399373
-0.05542678 -0.11085356 0.0 0.0 0.08314017 -0.02771339 0.02771339 -0.08314017
-0.02771339 0.08314017 -0.3325607 0.0 -0.05542678 0.11085356 0.02771339 -0.02771339
0.3048473 -0.05542678 -0.05542678 0.9699687 0.0 0.08314017 -0.94225526 -0.13856696
0.0 -0.13856696 0.08314017 -0.13856696 0.05542678 0.41570085 -0.16628034 0.08314017
0.0 -0.13856696 -0.5265544 0.02771339 1.5242364 1.9399374 0.0 0.94225526
0.08314017 -0.02771339 -0.36027408 -0.13856696 -0.02771339 -0.49884102 -0.2771339 -0.02771339
-0.3048473 -0.08314017 -0.02771339 -0.2771339 0.08314017 0.0 -0.05542678 0.0
0.0 -0.3048473 -0.05542678 -0.05542678 -0.24942051 0.05542678 -0.05542678 -0.02771339
0.08314017 -0.05542678 0.0 -0.13856696 0.02771339 -0.08314017 -0.05542678 0.05542678
0.85911506 0.02771339 0.05542678 2.6604855 -0.16628034 -0.05542678 -0.24942051 -0.13856696
-0.02771339 -0.16628034 0.3048473 0.02771339 -0.02771339 0.5542678 0.08314017 0.63740796

sequential_1/dense_4/MatMul i1 [50, 80] scale=0.046855617 zero_point=0
00000000: 0102 08fe 04fd f1f2 fd01 04fc fafb fd05
00000010: ff02 ff02 fd01 fafd ead4 fe08 fe00 faf2
00000020: c0ff ffff f417 05f7 02cb 08fe 02be 0efe
00000030: fdff fdef f3fa 02fd 01fe fffd 10eb 01fd
00000040: 15fc bcfd c209 fbd1 ff01 00fe 010d fde8
00000050: ff05 01fe 04fd 010a faff fefd 0306 01fe
00000060: 0101 10ff 01fe 0501 0005 ff04 46ff 0608
00000070: ff02 0401 0004 fe46 ff00 01fb 00ff 000f
00000080: fc04 fefd 0001 feff fe01 ff00 0648 ff01
00000090: fe06 00fa fe00 02fe 3300 f806 ff05 03f7
000000a0: 04af fefa 0802 dbe6 fd07 fefd cafc 00e9
000000b0: 0304 c403 0103 0509 e5ae 040c 0802 fec6
000000c0: 0803 fffd fe11 bf0b 030c 0a05 030a 0801
000000d0: fefb 0323 0203 0400 0402 0405 a93d 00fe
000000e0: 07ff 12fd 0a04 02b3 0101 050f c5e5 de1f
000000f0: fc0b 0508 09f6 0009 fffd f0fe 00fa 0510
0.046855617 0.093711235 0.37484494 -0.093711235 0.18742247 -0.14056686 -0.70283425 -0.6559786
-0.14056686 0.046855617 0.18742247 -0.18742247 -0.2811337 -0.23427808 -0.14056686 0.23427808
-0.046855617 0.093711235 -0.046855617 0.093711235 -0.14056686 0.046855617 -0.2811337 -0.14056686
-1.0308236 -2.0616472 -0.093711235 0.37484494 -0.093711235 0.0 -0.2811337 -0.6559786
-2.9987595 -0.046855617 -0.046855617 -0.046855617 -0.5622674 1.0776792 0.23427808 -0.42170057
0.093711235 -2.4833477 0.37484494 -0.093711235 0.093711235 -3.0924706 0.6559786 -0.093711235
-0.14056686 -0.046855617 -0.14056686 -0.7965455 -0.60912305 -0.2811337 0.093711235 -0.14056686
0.046855617 -0.093711235 -0.046855617 -0.14056686 0.7496899 -0.98396796 0.046855617 -0.14056686
0.98396796 -0.18742247 -3.186182 -0.14056686 -2.9050484 0.42170057 -0.23427808 -2.202214
-0.046855617 0.046855617 0.0 -0.093711235 0.046855617 0.60912305 -0.14056686 -1.1245348
-0.046855617 0.23427808 0.046855617 -0.093711235 0.18742247 -0.14056686 0.046855617 0.46855617
-0.2811337 -0.046855617 -0.093711235 -0.14056686 0.14056686 0.2811337 0.046855617 -0.093711235
0.046855617 0.046855617 0.7496899 -0.046855617 0.046855617 -0.093711235 0.23427808 0.046855617
0.0 0.23427808 -0.046855617 0.18742247 3.2798932 -0.046855617 0.2811337 0.37484494
-0.046855617 0.093711235 0.18742247 0.046855617 0.0 0.18742247 -0.093711235 3.2798932
-0.046855617 0.0 0.046855617 -0.23427808 0.0 -0.046855617 0.0 0.70283425
-0.18742247 0.18742247 -0.093711235 -0.14056686 0.0 0.046855617 -0.093711235 -0.046855617
-0.093711235 0.046855617 -0.046855617 0.0 0.2811337 3.3736045 -0.046855617 0.046855617
-0.093711235 0.2811337 0.0 -0.2811337 -0.093711235 0.0 0.093711235 -0.093711235
2.3896365 0.0 -0.37484494 0.2811337 -0.046855617 0.23427808 0.14056686 -0.42170057
0.18742247 -3.795305 -0.093711235 -0.2811337 0.37484494 0.093711235 -1.7336578 -1.2182461
-0.14056686 0.3279893 -0.093711235 -0.14056686 -2.5302033 -0.18742247 0.0 -1.0776792
0.14056686 0.18742247 -2.811337 0.14056686 0.046855617 0.14056686 0.23427808 0.42170057
-1.2651017 -3.8421607 0.18742247 0.5622674 0.37484494 0.093711235 -0.093711235 -2.7176259
0.37484494 0.14056686 -0.046855617 -0.14056686 -0.093711235 0.7965455 -3.0456152 0.5154118
0.14056686 0.5622674 0.46855617 0.23427808 0.14056686 0.46855617 0.37484494 0.046855617
-0.093711235 -0.23427808 0.14056686 1.6399466 0.093711235 0.14056686 0.18742247 0.0
0.18742247 0.093711235 0.18742247 0.23427808 -4.076439 2.8581927 0.0 -0.093711235
0.3279893 -0.046855617 0.84340113 -0.14056686 0.46855617 0.18742247 0.093711235 -3.6078825
0.046855617 0.046855617 0.23427808 0.70283425 -2.7644813 -1.2651017 -1.593091 1.4525242
-0.18742247 0.5154118 0.23427808 0.37484494 0.42170057 -0.46855617 0.0 0.42170057
-0.046855617 -0.14056686 -0.7496899 -0.093711235 0.0 -0.2811337 0.23427808 0.7496899

sequential_1/dense_5/MatMul i1 [28, 50] scale=0.027172275 zero_point=0
00000000: ea0b fbe9 01ee 18f9 10ea 01f1 dcfa dd0b
00000010: 0f0e f5f8 0434 d21e 07cf 0c04 f50e 02e0
00000020: 0ce8 fff6 e40b 1002 cd06 daf4 15ee 0c29
00000030: 170a f5e7 e9f0 0900 01c7 f4ee 02fd c8e2
00000040: f9f6 05ea fe13 270b c91c e91b fcf7 0b00
00000050: f512 fee7 04f2 fbcf f717 0f03 0401 05d4
00000060: eed9 fa14 d094 bf00 1b07 0009 f41c 090e
00000070: dfce c907 e8f6 0609 20f9 eed5 0503 f902
00000080: 0304 0011 eada e1f4 e4d2 e5e8 0f02 0bfa
00000090: 10fa ffdf 1501 ff08 c222 0601 d701 d412
000000a0: 0901 d608 d40c e106 e50d 0a08 e1f0 e4f1
000000b0: eb0f 0d02 f3fb fbdd 40fe 00f7 fcf3 f616
000000c0: 0af4 14fa e6d2 07f2 b7fc f1dd 0a11 e103
000000d0: f8f3 09e8 f1f3 e40b 040e 11e7 16ef b701
000000e0: 0c0e 0c09 e20c 0410 0df0 f00a faf2 e117
000000f0: ecff fd0b dcef 0c18 01fa df04 f3c1 d4f9
-0.59779006 0.29889503 -0.13586137 -0.62496233 0.027172275 -0.48910093 0.6521346 -0.19020593
0.4347564 -0.59779006 0.027172275 -0.40758413 -0.97820187 -0.16303365 -0.9510296 0.29889503
0.40758413 0.38041186 -0.29889503 -0.2173782 0.1086891 1.4129583 -1.2499247 0.81516826
0.19020593 -1.3314415 0.3260673 0.1086891 -0.29889503 0.38041186 0.05434455 -0.8695128
0.3260673 -0.6521346 -0.027172275 -0.27172273 -0.7608237 0.29889503 0.4347564 0.05434455
-1.385786 0.16303365 -1.0325464 -0.3260673 0.5706178 -0.48910093 0.3260673 1.1140633
0.62496233 0.27172273 -0.29889503 -0.67930686 -0.62496233 -0.4347564 0.24455047 0.0
0.027172275 -1.5488197 -0.3260673 -0.48910093 0.05434455 -0.081516825 -1.5216475 -0.81516826
-0.19020593 -0.27172273 0.13586137 -0.59779006 -0.05434455 0.5162732 1.0597187 0.29889503
-1.4944751 0.7608237 -0.62496233 0.7336514 -0.1086891 -0.24455047 0.29889503 0.0
-0.29889503 0.48910093 -0.05434455 -0.67930686 0.1086891 -0.38041186 -0.13586137 -1.3314415
-0.24455047 0.62496233 0.40758413 0.081516825 0.1086891 0.027172275 0.13586137 -1.1955801
-0.48910093 -1.0597187 -0.16303365 0.54344547 -1.3042692 -2.9346056 -1.7661979 0.0
0.7336514 0.19020593 0.0 0.24455047 -0.3260673 0.7608237 0.24455047 0.38041186
-0.89668506 -1.3586137 -1.4944751 0.19020593 -0.6521346 -0.27172273 0.16303365 0.24455047
0.8695128 -0.19020593 -0.48910093 -1.1684078 0.13586137 0.081516825 -0.19020593 0.05434455
0.081516825 0.1086891 0.0 0.46192867 -0.59779006 -1.0325464 -0.8423405 -0.3260673
-0.7608237 -1.2499247 -0.7336514 -0.6521346 0.40758413 0.05434455 0.29889503 -0.16303365
0.4347564 -0.16303365 -0.027172275 -0.89668506 0.5706178 0.027172275 -0.027172275 0.2173782
-1.684681 0.92385733 0.16303365 0.027172275 -1.1140633 0.027172275 -1.1955801 0.48910093
0.24455047 0.027172275 -1.1412356 0.2173782 -1.1955801 0.3260673 -0.8423405 0.16303365
-0.7336514 0.35323957 0.27172273 0.2173782 -0.8423405 -0.4347564 -0.7608237 -0.40758413
-0.5706178 0.40758413 0.35323957 0.05434455 -0.35323957 -0.13586137 -0.13586137 -0.9510296
1.7390256 -0.05434455 0.0 -0.24455047 -0.1086891 -0.35323957 -0.27172273 0.59779006
0.27172273 -0.3260673 0.54344547 -0.16303365 -0.70647913 -1.2499247 0.19020593 -0.38041186
-1.983576 -0.1086891 -0.40758413 -0.9510296 0.27172273 0.46192867 -0.8423405 0.081516825
-0.2173782 -0.35323957 0.24455047 -0.6521346 -0.40758413 -0.35323957 -0.7608237 0.29889503
0.1086891 0.38041186 0.46192867 -0.67930686 0.59779006 -0.46192867 -1.983576 0.027172275
0.3260673 0.38041186 0.3260673 0.24455047 -0.81516826 0.3260673 0.1086891 0.4347564
0.35323957 -0.4347564 -0.4347564 0.27172273 -0.16303365 -0.38041186 -0.8423405 0.62496233
-0.54344547 -0.027172275 -0.081516825 0.29889503 -0.97820187 -0.46192867 0.3260673 0.6521346
0.027172275 -0.16303365 -0.89668506 0.1086891 -0.35323957 -1.7118533 -1.1955801 -0.19020593
