model/customModel/modelB/ASLclassifier6a.tflite (tflite, 5012 bytes, 4 tensors)

sequential_8/dense_19/BiasAdd/ReadVariableOp f4 [28]
0	0xbf13aa29	-0.5768152
1	0x3f036d5b	0.5133874
2	0x3f2e3cdd	0.6806162
3	0x3e1d33b9	0.15351762
4	0xbe9bebef	-0.3045344
5	0x3f5b3518	0.8562789
6	0x3f08ac02	0.53387463
7	0x3f1ad9f4	0.6048882
8	0x3d9d3e74	0.076779276
9	0x3ea678a0	0.32513905
10	0x3c4a59f0	0.012350544
11	0xbd922213	-0.071354054
12	0xbf4a962e	-0.79135406
13	0xbf32d12a	-0.6985041
14	0x3f3a528c	0.72782207
15	0xbe857ccd	-0.26071778
16	0xbeb34cf1	-0.3501964
17	0x3d9355da	0.07194109
18	0xbec4b047	-0.3841574
19	0xbe3d55cc	-0.1848976
20	0xbe2f0b92	-0.17094257
21	0xbe5ff7dc	-0.21871895
22	0x3ec33e38	0.38133407
23	0xbe8314b0	-0.2560172
24	0xbe0b4d3c	-0.13603681
25	0xbdd54e34	-0.10415307
26	0xbf854082	-1.0410311
27	0x3f04f1e0	0.5193157

sequential_8/dense_18/BiasAdd/ReadVariableOp f4 [22]
0	0x3fc50afd	1.5393978
1	0x3f3a08f6	0.72669923
2	0xbf212860	-0.6295223
3	0x3f6e452e	0.9307431
4	0x3fe93b3d	1.8221203
5	0x3d899950	0.06718695
6	0x3fd9afa0	1.7006721
7	0xbf5d8876	-0.8653635
8	0x3f0f0a3e	0.55875003
9	0x3fa873c8	1.3160334
10	0x3f2fdf72	0.68700325
11	0xbe8bc0a0	-0.272954
12	0xbf0b6f05	-0.5446628
13	0x3f9dcf64	1.2328916
14	0xbc0bdc9c	-0.008536484
15	0x3f3b6a91	0.7320948
16	0x3fe1aed6	1.7631481
17	0xbea0bea1	-0.31395438
18	0xbf59d707	-0.8509373
19	0x3fce0b67	1.609723
20	0x3f1d3bb5	0.6141923
21	0xbf1a7363	-0.60332316

sequential_8/dense_18/MatMul f4 [22, 7]
0	0x3dd78c47	0.10524803
1	0xc0311808	-2.7670918
2	0x3f670592	0.90242875
3	0xc0dcf245	-6.904574
4	0x3e602c24	0.21891838
5	0x3ef217dc	0.47283828
6	0x3ea291b8	0.317518
7	0xbd03efe8	-0.032211214
8	0x408bbf63	4.3671126
9	0x3ec75730	0.38933706
10	0x3f14b3aa	0.58086646
11	0xbd7facbf	-0.062420603
12	0x3e2db85d	0.1696486
13	0x3f87990b	1.059358
14	0x3e560287	0.20899402
15	0x3faa8de9	1.3324558
16	0xbfe42d77	-1.7826375
17	0x3fb8be2b	1.4433035
18	0x3fc4cf62	1.5375788
19	0x3f8246c0	1.0177841
20	0xbec7dd15	-0.3903586
21	0x3e37ca66	0.17948303
22	0x4008db9c	2.138404
23	0x3fe8dfa5	1.8193251
24	0x3e950fa0	0.29113483
25	0xbf41e977	-0.75746864
26	0x3e19ec04	0.15031439
27	0x3f805a2b	1.0027517
28	0xbb4ce24d	-0.0031262815
29	0xc09828e4	-4.7549915
30	0xbf195d43	-0.5990793
31	0x3fa9885c	1.3244739
32	0x3e41a238	0.18909538
33	0x3dc6a869	0.097000904
34	0xbed0b0ba	-0.40759832
35	0x3b35034d	0.0027620376
36	0xbf5b0f64	-0.8557036
37	0x3ee23002	0.44177252
38	0x3fd66cba	1.6751931
39	0x3f69b86b	0.91297024
40	0x3f79b25b	0.97537774
41	0x3f1ce69f	0.612894
42	0x3da3ec94	0.08004108
43	0x408206aa	4.0633135
44	0xbe8dd003	-0.27697763
45	0x3f273e95	0.6532987
46	0x3da9ccc3	0.08291008
47	0x3c82f99e	0.015988167
48	0xbf01150d	-0.50422746
49	0x3b2c4f6c	0.0026292456
50	0xc03dea6d	-2.9674332
51	0xbe9f5d9a	-0.311261
52	0xbf3d614a	-0.73976576
53	0x4016581a	2.3491273
54	0xbe80a5e5	-0.25126567
55	0x3f94824c	1.1602263
56	0x3e1a49ac	0.15067166
57	0xc0b2ddba	-5.589566
58	0xbfd3ab96	-1.6536739
59	0x400065a5	2.006204
60	0x3edf6ab6	0.436361
61	0x3e3c8c5c	0.18412918
62	0x3e93599d	0.28779307
63	0x3d966b2a	0.07344659
64	0xc0160d26	-2.3445525
65	0x3f20f797	0.6287779
66	0xbfcab15f	-1.5835379
67	0x3e2e27b1	0.17007329
68	0x3ef88c44	0.48544514
69	0x3f483738	0.7820926
70	0x3e131e41	0.1436701
71	0xbf7115a6	-0.9417366
72	0x4055d962	3.341393
73	0x3bada34c	0.0052990075
74	0x3e852bb6	0.2600991
75	0x3ead95bb	0.33903298
76	0xbf49b565	-0.7879241
77	0xbc09b3cb	-0.008404682
78	0xc080474c	-4.008703
79	0x402a6538	2.662428
80	0x3e954ae9	0.29158714
81	0xbf0cac1d	-0.54950124
82	0xbef6abd5	-0.48177972
83	0x3f9134db	1.1344255
84	0x3c1ceac7	0.00957746
85	0x407853eb	3.880122
86	0x404f8462	3.242455
87	0x3eb2b0ca	0.34900504
88	0x3c312a99	0.010813379
89	0x3e5b86ce	0.21438143
90	0x3f0bb895	0.54578525
91	0x3cd405cb	0.025881669
92	0xc01dcd23	-2.4656456
93	0xbfa2a975	-1.2707964
94	0xbe5d1e79	-0.21593656
95	0x3ded6e3b	0.115932904
96	0xbe84a2a6	-0.2590534
97	0x3f92608f	1.1435717
98	0x3c25fced	0.010131103
99	0x400eef91	2.233372
100	0x3d7412d8	0.059588283
101	0x401f4df9	2.489134
102	0x3fb7eb01	1.4368593
103	0x3f540872	0.82825387
104	0x3f5fcdc3	0.8742334
105	0x3d4dd4ff	0.050251957
106	0x3fd1dd8b	1.6395735
107	0x3f2ebd01	0.6825715
108	0xbff521dc	-1.9150958
109	0x3ebdfe8b	0.37108263
110	0x3f64282d	0.89123803
111	0x3ea9295f	0.33039376
112	0x3e0efe4b	0.13964193
113	0x406b2b0d	3.6745026
114	0xc05b4b08	-3.4264545
115	0xbf8825ff	-1.0636595
116	0x3eda759d	0.42667857
117	0x3d0742b9	0.033022616
118	0x3eb0e292	0.3454786
119	0xbd280ae4	-0.04102601
120	0xc0650947	-3.5786912
121	0xbffbe9c8	-1.9680719
122	0x3d0b0509	0.03394035
123	0xbefb4af0	-0.4908061
124	0x3ff7b15b	1.9351
125	0xbd01be25	-0.031675477
126	0xbd0cc386	-0.034366153
127	0x409f0020	4.9687653
128	0x3f2f5ee0	0.6850414
129	0xbd0228b8	-0.031777114
130	0x3fe4e24a	1.7881558
131	0x3f09018f	0.53518003
132	0x3fa839d3	1.3142647
133	0x3d228b7a	0.039683796
134	0xbfb38c87	-1.402726
135	0x3f5d029d	0.8633211
136	0xbfbf905b	-1.4965929
137	0x3eb3b5a4	0.35099518
138	0x3f12f18f	0.5739984
139	0x3f4318a3	0.7620947
140	0x3d34ded0	0.044157803
141	0xc0067e71	-2.1014674
142	0x3d9d578c	0.07682714
143	0x3d78d8aa	0.060753502
144	0xc01b2acf	-2.4244878
145	0x3ee4eece	0.44713444
146	0x3fcec47c	1.6153712
147	0x3e4eaa3c	0.20182127
148	0x4026d219	2.6065733
149	0x3fc4555c	1.533855
150	0x40072b22	2.1120076
151	0x3f9707fd	1.1799313
152	0x3f6d28c5	0.92640334
153	0x3f4263d4	0.75933576

sequential_8/dense_19/MatMul f4 [28, 22]
0	0x3f49e19d	0.78859884
1	0xbf118a04	-0.5685122
2	0x3f73a5a1	0.95174605
3	0xbf738e70	-0.9513922
4	0x3dbd70ff	0.09250068
5	0x3e4ffb15	0.20310624
6	0xbf860789	-1.047105
7	0x3f578ec5	0.84202224
8	0x3f97c173	1.1855911
9	0xbef0e726	-0.47051352
10	0xc015a615	-2.3382618
11	0xbe55803c	-0.20849699
12	0xbfd68e9b	-1.676227
13	0x3eacf67f	0.33781812
14	0x3e4a37c1	0.19747831
15	0xbf923547	-1.1422509
16	0x3c74cb41	0.014941038
17	0x3f71b4f9	0.9441677
18	0xbe077042	-0.13226417
19	0xbf3cdc8b	-0.7377402
20	0x3f3cc282	0.73734295
21	0x3e53338d	0.20625134
22	0x3f7e2b1f	0.9928455
23	0xbe2de2c9	-0.16981043
24	0xc0222e75	-2.5340855
25	0x3ef8a646	0.48564357
26	0x3f135137	0.575458
27	0xc03d4fd0	-2.9579964
28	0x3f1af517	0.6053023
29	0xbfd1dc63	-1.6395382
30	0xbfb2c7d7	-1.3967236
31	0xbdbdf97d	-0.09276102
32	0x3f571d29	0.8402887
33	0xbfb01e4b	-1.3759245
34	0xbfc647f7	-1.5490712
35	0x3e8cfa8e	0.27534908
36	0xc091b927	-4.5538516
37	0xbf284e35	-0.65744334
38	0x3e84493e	0.2583713
39	0xc04fa569	-3.2444708
40	0xbfb70f70	-1.4301586
41	0x3e09e5ce	0.1346657
42	0x3e95b629	0.2924054
43	0xbfaf553e	-1.3697889
44	0xbfd912e5	-1.6958891
45	0x3f227d45	0.63472396
46	0xbf61c4cd	-0.8819092
47	0x3ebe4f9b	0.3717011
48	0x3dee6c92	0.11641802
49	0x3e887a9d	0.26656047
50	0x3f0ef7a0	0.55846596
51	0xc019dbfa	-2.4040513
52	0xbea26bc0	-0.31722832
53	0x3f29179f	0.6605167
54	0x3e8c8853	0.27447757
55	0xbd940e54	-0.072292954
56	0xbd38bcc8	-0.04510191
57	0x3f2905dd	0.6602457
58	0x3d436854	0.047706917
59	0xbf34e8b0	-0.7066755
60	0xbf3686ac	-0.7129924
61	0xc003c6de	-2.059013
62	0xbf2af3c5	-0.6677821
63	0x3f8077f2	1.0036604
64	0xc0485960	-3.130455
65	0x3e10cac3	0.14139847
66	0x3e70b37f	0.23505972
67	0xbef265f8	-0.4734342
68	0xbf4ac5fd	-0.79208356
69	0xbe6e2ef4	-0.23260099
70	0x3f286906	0.65785253
71	0x3e611c29	0.21983398
72	0xbf7ad0c5	-0.9797481
73	0xbf1174f7	-0.568191
74	0x3f2d2041	0.6762734
75	0x3ee3be21	0.44480994
76	0xbe9d2f70	-0.30700254
77	0xc01ab08d	-2.4170258
78	0xbf9b44da	-1.2130387
79	0x3f3cec29	0.7379785
80	0xbe0783f5	-0.13233931
81	0x3d0605f4	0.03272052
82	0x3ea6a238	0.32545638
83	0xbf23efc7	-0.64037746
84	0xbee31a7e	-0.4435615
85	0x3e8b1d68	0.27170873
86	0xbf493946	-0.7860302
87	0xbe7b5177	-0.24542795
88	0x3ef486f0	0.477592
89	0xbec1c3d2	-0.37844712
90	0x3f040f72	0.5158607
91	0x3dd20707	0.102552466
92	0xbdd9dac4	-0.10637429
93	0x3da69292	0.08133425
94	0xbf2411e7	-0.64089817
95	0x3f1cf72b	0.6131465
96	0x3e604f39	0.21905221
97	0xbf091ee3	-0.53562754
98	0xbdbf6636	-0.09345667
99	0x3f1136f6	0.5672449
100	0x3e3989a9	0.1811892
101	0xbdac3045	-0.08407644
102	0x3e840317	0.25783607
103	0xbf2991e8	-0.6623826
104	0xc0015dbb	-2.0213459
105	0x3e200efb	0.15630715
106	0x3ebaf1cf	0.3651261
107	0xbf14b817	-0.580934
108	0x3dc46193	0.09588923
109	0x3eeea701	0.4661179
110	0xbf7ed7a8	-0.99547815
111	0x3d24fc5a	0.040279724
112	0xbf2e25ea	-0.680266
113	0xbeb1fdda	-0.34763986
114	0x3fa7d603	1.3112186
115	0xbe2637b2	-0.16232184
116	0x3f9b553e	1.2135389
117	0xc047bea0	-3.1210098
118	0x3f680806	0.9063724
119	0xbf69949d	-0.9124239
120	0x3e47bb0c	0.19504946
121	0xc06d6150	-3.7090645
122	0xc001caf5	-2.0280125
123	0x3f1501ac	0.58205676
124	0xbd22937e	-0.03969144
125	0xbffc07d9	-1.9689895
126	0x3fc3cfbc	1.529777
127	0xc05f1de1	-3.4861987
128	0xc01ef586	-2.4837356
129	0x3e1ac5cf	0.1511452
130	0xc0471b79	-3.1110518
131	0xbfb3db2a	-1.4051259
132	0xc03d6152	-2.959065
133	0x3f206b59	0.626638
134	0xbe9cfd25	-0.30661884
135	0x3f1313a3	0.5745184
136	0xbec3eee5	-0.382682
137	0x3e92ca8b	0.28670153
138	0x3d01c841	0.031685118
139	0xbe80a34c	-0.25124586
140	0xbf53f1e4	-0.8279097
141	0x3ecb6689	0.39726666
142	0x3ed0576b	0.40691695
143	0xc01462d9	-2.3185332
144	0x3d08359e	0.03325426
145	0xbea51343	-0.32241258
146	0xbe6ac2a9	-0.2292582
147	0x3ea6f415	0.32608095
148	0x3eae517d	0.34046546
149	0xbfb9d4ca	-1.4518063
150	0x3d9d7e30	0.07690084
151	0x3f63e102	0.8901521
152	0xbf50018f	-0.8125238
153	0xbe1b3b61	-0.1515937
154	0xbfe47d73	-1.7850784
155	0x3ee2117d	0.44153967
156	0xbf91cdb4	-1.1390901
157	0x3f4c7c16	0.7987684
158	0xbf4cd93b	-0.8001897
159	0x3e914540	0.28373146
160	0x3f19b4a0	0.60041237
161	0xc0429867	-3.040552
162	0xbf77b5e8	-0.9676194
163	0x3f11a794	0.5689633
164	0x3e311b98	0.17295682
165	0xbee026f0	-0.43779707
166	0x3e95eb58	0.29281116
167	0x3e0928ce	0.13394472
168	0xbd6e41ee	-0.058168344
169	0x3e48a014	0.19592315
170	0x3c9c2e1c	0.019064955
171	0xbfc9f810	-1.5778828
172	0xbeaf5a13	-0.3424841
173	0x3ecc11f9	0.39857462
174	0xbfbbebb5	-1.4681307
175	0x3eac6efa	0.33678418
176	0x3f272e8d	0.65305406
177	0xbf4109e8	-0.7540574
178	0x3e89e66c	0.2693361
179	0xbf87a670	-1.0597668
180	0x3ed370d1	0.4129701
181	0x3e4bfaab	0.19919841
182	0x3f7380e5	0.9511855
183	0x3eadeafc	0.3396834
184	0x3e10e84d	0.14151116
185	0xbeedb0bc	-0.464239
186	0x3f88ba00	1.0681763
187	0xbf95bd9e	-1.1698492
188	0xbf455942	-0.7708932
189	0xbf9233fa	-1.1422112
190	0x3ee69228	0.45033383
191	0xbe422586	-0.18959627
192	0xbfc4e673	-1.5382828
193	0xbe19b4bb	-0.1501035
194	0xbf4ad2e4	-0.79228044
195	0xbf7fbef9	-0.99900776
196	0xbdff565f	-0.12467646
197	0x3e843ada	0.2582615
198	0x3f9ad9dc	1.2097735
199	0x3f4bfdad	0.79683954
200	0x3dd6c55f	0.10486864
201	0x3f3089d9	0.6896034
202	0xbd6c2f2b	-0.05766217
203	0x3e8e0491	0.2773786
204	0x3eafd10f	0.34339187
205	0xbf69bfe9	-0.91308457
206	0x3d356406	0.044284843
207	0xbf308b40	-0.6896248
208	0x3e950a1c	0.29109275
209	0xbf403857	-0.7508597
210	0x3db97b90	0.09056771
211	0xbfd32d5f	-1.6498221
212	0x3f09c0d7	0.53809875
213	0xbf7af348	-0.9802747
214	0xbf641580	-0.89095306
215	0xc00addf3	-2.1697967
216	0xbdf70c3b	-0.1206288
217	0xbf19e9a9	-0.6012216
218	0xbf848875	-1.0354143
219	0x3d5a4a97	0.05329379
220	0x3f9ad785	1.2097021
221	0xbf6dd736	-0.9290651
222	0xbf63beb2	-0.8896285
223	0xbf2b589b	-0.66932076
224	0xbeb09a0c	-0.34492528
225	0xbe54fab7	-0.20798765
226	0xbf931334	-1.1490235
227	0x3f3ccb97	0.73748153
228	0x3eac719b	0.33680424
229	0x3ea09e28	0.31370664
230	0xbe60696f	-0.2191522
231	0x3ea4a9aa	0.32160693
232	0xbf23adeb	-0.6393725
233	0x3e8770af	0.26453158
234	0xbfc3bfa0	-1.5292854
235	0x3f3f0e34	0.7463105
236	0x3e0b30f8	0.13592899
237	0x3f43d049	0.7648969
238	0xbf285b82	-0.6576463
239	0x3e97a348	0.2961676
240	0x3f4a069d	0.7891634
241	0xbf7a9151	-0.97877985
242	0x3d068fc8	0.032851964
243	0xbe86f086	-0.2635538
244	0x3d802c7d	0.062584855
245	0xbf16fa7c	-0.5897596
246	0xbfb76cb6	-1.4330051
247	0xbebeb0b3	-0.37244186
248	0xbf798b0d	-0.974778
249	0x3ee92501	0.45536044
250	0xbfa7d0d8	-1.3110609
251	0x3dca5544	0.098795444
252	0x3eb3db7e	0.35128397
253	0xbef5869b	-0.47954258
254	0x3de42b0b	0.11141022
255	0xbe938d4d	-0.2881874
