model/customModel/modelB/ASLclassifier4b.tflite (tflite, 13208 bytes, 6 tensors)

sequential_1/dense_4/BiasAdd/ReadVariableOp f4 [28]
0.011794469 -0.26344928 -0.95210755 0.40860197 0.030599887 0.061704766 0.18686184 -0.30062154
0.5572154 0.24035655 -0.15742628 0.68883926 -0.47455114 0.15293589 -0.6193464 0.032038912
0.44937545 0.34176686 0.0011213546 -0.65057814 0.26455063 0.18797961 -0.07840853 0.23612922
-0.44906446 0.13159731 -0.6411455 -0.23692794
00000000: 973d 413c d3e2 86be 52bd 73bf 4734 d13e
00000010: 9dac fa3c 23be 7c3d b658 3f3e 11eb 99be
00000020: aba5 0e3f 0720 763e 5b34 21be c557 303f
00000030: 5ef8 f2be 3a9b 1c3e 7c8d 1ebf 3c3b 033d
00000040: 8a14 e63e 11fc ae3e 6bfa 923a 4a8c 26bf
00000050: 2e73 873e ba7d 403e a794 a0bd dccb 713e
00000060: c7eb e5be 72c1 063e 1d22 24bf 3d9d 72be

sequential_1/dense_3/BiasAdd/ReadVariableOp f4 [50]
0.2929335 -0.31240952 0.29991913 0.20244019 0.6095387 0.19280382 -0.38073575 0.7056201
-0.15691918 0.5804986 0.012705604 0.24435599 0.81414205 0.088020176 0.14233388 0.13561213
0.23937471 0.032041144 0.07848323 1.1647532 -0.27975792 0.4035676 0.5826051 -0.14876293
0.14762895 0.4357741 -0.10738031 0.9207441 0.9641666 -0.5391729 0.76146877 0.45528543
-0.66734785 -0.29675773 -0.27515742 -0.57446873 0.3483221 -0.30549315 0.35753843 0.118413046
-0.5949189 0.26853332 -0.3380249 1.0719926 -0.18310802 0.6845671 0.0674874 -0.84598905
-0.12538801 0.32179645
00000000: 61fb 953e 24f4 9fbe 008f 993e 7b4c 4f3e
00000010: ba0a 1c3f 5d6e 453e ccef c2be 85a3 343f
00000020: 6caf 20be 8e9b 143f 2a2b 503c 7538 7a3e
00000030: 9d6b 503f ec43 b43d f9bf 113e e8dd 0a3e
00000040: a51e 753e 933d 033d d1bb a03d a216 953f
00000050: 6e3c 8fbe 6aa0 ce3e 9c25 153f 4f55 18be
00000060: 0b2c 173e c81d df3e 35ea dbbd e3b5 6b3f
00000070: 9fd3 763f 3c07 0abf 9eef 423f 2c1b e93e
00000080: 4fd7 2abf a1f0 97be 6fe1 8cbe 6210 13bf
00000090: 4657 b23e 9969 9cbe 470f b73e 8a82 f23d
000000a0: 9b4c 18bf 337d 893e 9a11 adbe 0e37 893f
000000b0: ab80 3bbe ca3f 2f3f d536 8a3d bd92 58bf
000000c0: b765 00be 81c2 a43e

sequential_1/dense_2/BiasAdd/ReadVariableOp f4 [80]
0.12100255 -0.176298 -0.31329077 0.1340957 -0.15058239 -0.10865287 -0.29671773 -0.37572303
-0.4398395 -0.5505514 -0.1200487 -0.11365832 0.041704744 -0.58379894 0.10706587 -0.053612
-0.47366613 -0.12737668 -0.26183176 0.025824035 0.1878056 -0.10645653 -0.44010678 -0.037681967
0.38059825 -0.09926039 -0.15035579 -0.6144344 0.04061796 -0.10715869 0.549791 -0.2123617
-0.32788238 -0.10095283 0.04147076 -0.093180135 -0.30572054 0.20597476 -0.25642273 -0.38552207
-0.22238229 -0.003604557 -0.6572739 -0.07413245 0.2598672 -0.041424558 -0.06399487 -0.36692417
-0.21289997 -0.10463658 -0.59979045 -0.71026534 -0.33383387 -0.27823377 0.029937852 -0.037717205
-0.03716654 0.09373134 -0.10306589 -0.3594126 -0.37189516 0.70001936 -0.53548145 0.123214036
-0.29567796 -0.23485082 -0.30720583 -0.013433275 0.16223808 -0.76580673 -0.5434059 -0.8671065
0.22543912 0.32240376 -0.12631677 -0.71955144 -0.09402412 -0.43254942 0.060514927 -0.11591935
00000000: 2fd0 f73d 7787 34be a667 a0be 6250 093e
00000010: 4532 1abe 6585 debd 63eb 97be c55e c0be
00000020: a532 e1be f0f0 0cbf 18dc f5bd b1c5 e8bd
00000030: 98d2 2a3d d973 15bf 5a45 db3d 4298 5bbd
00000040: 5e84 f2be 086f 02be d00e 86be ed8c d33c
00000050: 1c50 403e e205 dabd ad55 e1be 6858 1abd
00000060: c6dd c23e 0849 cbbd def6 19be 934b 1dbf
00000070: 055f 263d 0476 dbbd 1abf 0c3f 5875 59be
00000080: 33e0 a7be 5bc0 cebd 3edd 293d 3ad5 bebd
00000090: 6787 9cbe 0ceb 523e d749 83be 2663 c5be
000000a0: 2fb8 63be 6e3a 6cbb 1a43 28bf c1d2 97bd
000000b0: 500d 853e ccac 29bd be0f 83bd 7cdd bbbe
000000c0: 7302 5abe b44b d6bd de8b 19bf f3d3 35bf
000000d0: 46ec aabe a874 8ebe 3a40 f53c 5b7d 1abd
000000e0: f13b 18bd 37f6 bf3d 3614 d3bd ee04 b8be
000000f0: 0b69 bebe 7834 333f 5015 09bf a457 fc3d
00000100: 1a63 97be bc7c 70be 154a 9dbe 3d17 5cbc
00000110: bd21 263e e90b 44bf a61c 0bbf b1fa 5dbf
00000120: 83d9 663e 1b12 a53e 2f59 01be 8634 38bf
00000130: b88f c0bd 1e77 ddbe 80de 773d 2067 edbd

sequential_1/dense_2/MatMul i1 [80, 61] scale=0.016543083 zero_point=0
0.0 -0.13234466 0.04962925 -0.33086166 -0.082715414 -0.04962925 0.04962925 -0.033086166
-0.04962925 0.06617233 0.0 0.0 0.0 0.0 0.0 0.082715414
-0.06617233 0.0 0.082715414 0.082715414 0.04962925 0.04962925 0.06617233 0.033086166
-1.2903605 0.033086166 0.0 0.06617233 0.0 -0.016543083 0.11580158 -0.082715414
-0.016543083 0.198517 -0.016543083 0.016543083 0.23160316 -0.016543083 0.033086166 0.06617233
0.016543083 -0.033086166 0.13234466 0.06617233 0.016543083 0.11580158 -0.016543083 0.016543083
0.198517 -0.016543083 -0.016543083 0.0992585 -0.06617233 -0.033086166 0.16543083 -0.016543083
0.0 0.0992585 -0.016543083 0.016543083 0.016543083 0.033086166 0.033086166 0.14888775
0.51283556 0.016543083 -0.082715414 0.3639478 -0.082715414 0.04962925 0.2977755 -0.016543083
-0.04962925 0.24814624 0.033086166 0.016543083 -0.24814624 0.04962925 -0.033086166 0.04962925
0.033086166 -0.033086166 0.11580158 0.0 -0.016543083 0.082715414 -0.033086166 -0.016543083
-0.24814624 0.13234466 -0.016543083 0.082715414 -0.016543083 0.0 0.1819739 0.06617233
0.0 0.16543083 0.0 -0.016543083 -0.13234466 0.033086166 0.0 0.082715414
-0.016543083 -0.016543083 0.0992585 -0.06617233 0.0 -0.04962925 -0.033086166 -0.016543083
-0.0992585 0.0 0.04962925 0.14888775 -0.033086166 0.04962925 0.26468933 -0.033086166
0.0992585 -1.588136 -0.016543083 0.11580158 0.794068 -0.11580158 -0.033086166 0.8767834
0.016543083 0.1819739 1.2241881 -0.016543083 -0.016543083 1.0422143 0.1819739 0.43012017
0.2977755 -0.06617233 -0.016543083 -0.0992585 -0.04962925 -0.11580158 -0.0992585 -0.033086166
0.0 -0.21506009 -0.06617233 0.016543083 0.0 -0.016543083 -0.016543083 0.14888775
0.016543083 -0.0992585 0.5790079 0.0 0.0 0.9760419 -0.06617233 -0.11580158
-0.033086166 -0.04962925 0.033086166 -0.082715414 0.033086166 0.06617233 0.11580158 0.033086166
0.0 0.6617233 -0.04962925 -0.033086166 -0.2977755 -0.033086166 -0.13234466 -0.3639478
-0.016543083 0.0 -0.11580158 0.16543083 0.033086166 -0.033086166 0.06617233 0.0
0.14888775 0.06617233 -0.06617233 -0.016543083 -0.016543083 0.04962925 0.033086166 -0.06617233
0.04962925 -0.033086166 0.24814624 0.082715414 0.5790079 -0.11580158 0.0 -0.13234466
0.016543083 0.016543083 0.46320632 0.31431857 0.016543083 1.1249297 0.28123242 0.0
1.5715929 -0.033086166 0.016543083 0.0 -0.033086166 0.016543083 -0.41357708 -0.033086166
0.0 -0.92641264 -0.082715414 -0.016543083 -0.89332646 -0.033086166 0.0 -0.033086166
-0.06617233 0.04962925 -0.04962925 -0.033086166 0.082715414 -0.2977755 -0.033086166 0.0992585
0.033086166 -0.082715414 0.016543083 -0.16543083 -0.033086166 0.04962925 -0.06617233 -0.06617233
0.082715414 -0.44666323 -0.0992585 0.06617233 0.0 -0.198517 0.0 0.033086166
-0.33086166 -0.33086166 -0.14888775 -0.11580158 -0.11580158 -0.198517 -0.082715414 -0.198517
00000000: 00f8 03ec fbfd 03fe fd04 0000 0000 0005
00000010: fc00 0505 0303 0402 b202 0004 00ff 07fb
00000020: ff0c ff01 0eff 0204 01fe 0804 0107 ff01
00000030: 0cff ff06 fcfe 0aff 0006 ff01 0102 0209
00000040: 1f01 fb16 fb03 12ff fd0f 0201 f103 fe03
00000050: 02fe 0700 ff05 feff f108 ff05 ff00 0b04
00000060: 000a 00ff f802 0005 ffff 06fc 00fd feff
00000070: fa00 0309 fe03 10fe 06a0 ff07 30f9 fe35
00000080: 010b 4aff ff3f 0b1a 12fc fffa fdf9 fafe
00000090: 00f3 fc01 00ff ff09 01fa 2300 003b fcf9
000000a0: fefd 02fb 0204 0702 0028 fdfe eefe f8ea
000000b0: ff00 f90a 02fe 0400 0904 fcff ff03 02fc
000000c0: 03fe 0f05 23f9 00f8 0101 1c13 0144 1100
000000d0: 5ffe 0100 fe01 e7fe 00c8 fbff cafe 00fe
000000e0: fc03 fdfe 05ee fe06 02fb 01f6 fe03 fcfc
000000f0: 05e5 fa04 00f4 0002 ecec f7f9 f9f4 fbf4

sequential_1/dense_3/MatMul i1 [50, 80] scale=0.020151163 zero_point=0
0.5440814 -0.28211626 0.38287207 0.3224186 -0.14105813 0.50377905 -0.06045349 0.5440814
-0.24181396 -0.020151163 0.06045349 0.08060465 0.24181396 0.08060465 -0.10075581 0.020151163
-0.6448372 0.14105813 -0.34256977 0.0 0.18136047 0.38287207 -0.1612093 -0.020151163
0.14105813 0.12090698 -0.040302325 -0.10075581 0.34256977 0.44332558 0.6448372 0.20151162
0.44332558 -0.12090698 -0.94710463 0.22166279 0.88665116 0.28211626 0.12090698 -0.1612093
-0.10075581 -0.36272094 -0.745593 0.38287207 0.1612093 -0.28211626 0.20151162 -0.30226743
0.86649996 -0.44332558 -0.24181396 0.40302324 -0.36272094 0.14105813 0.040302325 0.1612093
0.22166279 0.14105813 0.36272094 0.3224186 -0.38287207 -0.18136047 -0.40302324 -0.020151163
-0.12090698 0.020151163 0.44332558 0.34256977 0.020151163 0.26196513 -0.18136047 -0.12090698
0.1612093 -0.10075581 0.26196513 0.08060465 -0.06045349 0.24181396 0.5843837 -0.18136047
0.040302325 0.28211626 0.30226743 0.06045349 -0.12090698 0.6448372 -0.020151163 0.040302325
0.14105813 -0.22166279 -0.10075581 -0.3224186 0.24181396 -0.22166279 0.26196513 -0.50377905
0.18136047 -0.34256977 -0.040302325 0.36272094 0.10075581 0.12090698 0.06045349 0.08060465
0.14105813 0.040302325 0.30226743 -0.4231744 0.020151163 0.20151162 0.14105813 -0.14105813
0.48362792 0.8060465 -0.020151163 0.30226743 0.24181396 -0.36272094 0.22166279 0.34256977
0.040302325 -0.5843837 0.30226743 -0.06045349 -0.50377905 0.5642325 0.24181396 -0.78589535
0.1612093 -0.020151163 -0.18136047 0.020151163 0.18136047 -0.06045349 0.12090698 0.26196513
-0.06045349 0.3224186 -0.20151162 0.040302325 -0.18136047 -0.26196513 0.24181396 0.38287207
-0.12090698 0.08060465 -0.20151162 0.06045349 0.20151162 0.08060465 0.12090698 -0.52393025
-0.020151163 0.12090698 0.040302325 -0.22166279 0.26196513 -0.040302325 0.36272094 0.1612093
0.36272094 0.3224186 0.1612093 0.1612093 0.10075581 -0.22166279 0.14105813 0.12090698
0.10075581 0.28211626 -0.18136047 -0.30226743 0.3224186 0.22166279 -0.1612093 -0.68513954
0.30226743 0.38287207 -0.020151163 0.68513954 0.1612093 -0.040302325 0.20151162 0.44332558
0.38287207 -0.20151162 0.10075581 -0.06045349 0.40302324 0.08060465 0.14105813 0.14105813
0.22166279 -0.14105813 0.50377905 -0.06045349 0.18136047 -0.3224186 0.20151162 -0.22166279
-0.46347675 -0.10075581 -0.50377905 -0.36272094 -0.5440814 0.0 -0.1612093 -0.7254419
0.26196513 0.26196513 0.040302325 0.1612093 -0.46347675 0.12090698 0.5642325 0.34256977
-0.36272094 0.5843837 -0.06045349 0.18136047 -0.020151163 -0.18136047 -0.08060465 0.46347675
0.10075581 -0.06045349 0.48362792 -0.06045349 -0.10075581 0.52393025 0.24181396 -0.9068023
0.24181396 0.20151162 0.14105813 -0.10075581 0.12090698 0.10075581 0.020151163 0.08060465
0.28211626 0.20151162 -0.30226743 0.66498834 0.22166279 -0.1612093 -0.020151163 -0.5843837
-0.1612093 0.1612093 0.20151162 0.34256977 -0.020151163 0.18136047 -0.14105813 -0.06045349
00000000: 1bf2 1310 f919 fd1b f4ff 0304 0c04 fb01
00000010: e007 ef00 0913 f8ff 0706 fefb 1116 200a
00000020: 16fa d10b 2c0e 06f8 fbee db13 08f2 0af1
00000030: 2bea f414 ee07 0208 0b07 1210 edf7 ecff
00000040: fa01 1611 010d f7fa 08fb 0d04 fd0c 1df7
00000050: 020e 0f03 fa20 ff02 07f5 fbf0 0cf5 0de7
00000060: 09ef fe12 0506 0304 0702 0feb 010a 07f9
00000070: 1828 ff0f 0cee 0b11 02e3 0ffd e71c 0cd9
00000080: 08ff f701 09fd 060d fd10 f602 f7f3 0c13
00000090: fa04 f603 0a04 06e6 ff06 02f5 0dfe 1208
000000a0: 1210 0808 05f5 0706 050e f7f1 100b f8de
000000b0: 0f13 ff22 08fe 0a16 13f6 05fd 1404 0707
000000c0: 0bf9 19fd 09f0 0af5 e9fb e7ee e500 f8dc
000000d0: 0d0d 0208 e906 1c11 ee1d fd09 fff7 fc17
000000e0: 05fd 18fd fb1a 0cd3 0c0a 07fb 0605 0104
000000f0: 0e0a f121 0bf8 ffe3 f808 0a11 ff09 f9fd

sequential_1/dense_4/MatMul i1 [28, 50] scale=0.023632813 zero_point=0
-0.28359377 -0.21269532 0.047265626 0.11816406 0.30722657 -0.8980469 0.44902346 0.11816406
-0.07089844 -0.44902346 0.07089844 -0.25996095 0.023632813 0.23632812 0.28359377 -0.21269532
-0.23632812 -0.047265626 0.0 0.14179689 0.5199219 -0.44902346 -0.92167974 0.1890625
-0.07089844 -0.6853516 -0.23632812 -0.42539063 -0.1890625 -0.047265626 -0.30722657 -0.1890625
0.3308594 -0.1890625 0.42539063 0.42539063 0.23632812 0.0 -0.07089844 -1.0871094
0.44902346 -0.49628907 -0.61445314 -0.11816406 0.21269532 0.3308594 -0.47265625 0.11816406
0.023632813 -0.6853516 0.30722657 -0.21269532 -0.6853516 -0.07089844 -1.1580079 0.42539063
-0.14179689 -0.14179689 -0.82714844 0.25996095 -0.28359377 0.25996095 -0.5435547 0.023632813
0.023632813 0.47265625 -0.42539063 0.25996095 -0.3308594 0.21269532 -0.6617188 -0.11816406
-0.047265626 -0.14179689 0.047265626 0.40175784 -0.3308594 0.09453125 -1.0398438 0.07089844
0.1654297 -0.25996095 -0.47265625 0.3544922 -0.3544922 -1.1343751 -0.28359377 -0.40175784
0.40175784 0.42539063 0.11816406 0.0 0.3544922 0.0 -0.11816406 0.023632813
0.07089844 -0.30722657 0.3308594 0.44902346 0.14179689 0.023632813 0.14179689 -0.1654297
-0.5435547 -0.21269532 0.21269532 -0.378125 -0.11816406 -0.23632812 0.09453125 -0.047265626
-0.99257815 -1.0398438 0.14179689 0.378125 -0.1890625 0.40175784 -0.6617188 -0.7089844
-0.047265626 0.378125 0.14179689 -0.40175784 -0.21269532 0.047265626 0.1654297 -0.28359377
-0.42539063 0.21269532 -0.09453125 -0.77988285 0.1654297 -0.25996095 -0.40175784 -0.023632813
0.11816406 -0.023632813 -0.14179689 0.11816406 0.11816406 0.3544922 0.49628907 -0.44902346
-0.3308594 -0.5435547 -0.047265626 -0.023632813 0.40175784 0.1890625 0.21269532 -0.28359377
0.40175784 0.28359377 -0.63808596 0.09453125 0.30722657 0.30722657 0.14179689 -0.63808596
-0.14179689 0.11816406 -0.378125 -1.1343751 -0.11816406 0.40175784 -0.1890625 0.14179689
-0.23632812 -0.42539063 0.07089844 0.30722657 -0.1890625 -0.07089844 -0.14179689 -0.11816406
-0.40175784 0.23632812 0.14179689 -0.09453125 0.28359377 -0.28359377 -0.378125 -0.8744141
-0.6853516 -0.023632813 -0.21269532 -0.1654297 -0.21269532 0.5199219 -0.09453125 0.6853516
-0.1890625 -0.047265626 0.25996095 -0.25996095 0.21269532 -0.09453125 0.11816406 -0.1654297
-0.14179689 0.07089844 -0.47265625 -0.3308594 0.28359377 0.25996095 0.1890625 0.30722657
-0.92167974 -0.5908203 -0.07089844 0.047265626 -0.14179689 0.0 0.25996095 0.11816406
-0.8980469 0.21269532 -0.1654297 -0.11816406 -0.1890625 0.23632812 -0.047265626 0.1890625
-0.09453125 0.23632812 0.0 0.23632812 -1.1107422 0.1654297 -0.42539063 -0.023632813
0.21269532 -0.09453125 -0.49628907 -0.3308594 -0.07089844 -0.378125 -1.0871094 -0.3544922
0.25996095 -0.85078126 -0.1890625 0.11816406 -0.1890625 0.3308594 0.28359377 0.25996095
-0.11816406 0.09453125 0.023632813 -0.21269532 -0.6853516 -0.40175784 -0.8744141 0.378125
00000000: f4f7 0205 0dda 1305 fded 03f5 010a 0cf7
00000010: f6fe 0006 16ed d908 fde3 f6ee f8fe f3f8
00000020: 0ef8 1212 0a00 fdd2 13eb e6fb 090e ec05
00000030: 01e3 0df7 e3fd cf12 fafa dd0b f40b e901
00000040: 0114 ee0b f209 e4fb fefa 0211 f204 d403
00000050: 07f5 ec0f f1d0 f4ef 1112 0500 0f00 fb01
00000060: 03f3 0e13 0601 06f9 e9f7 09f0 fbf6 04fe
00000070: d6d4 0610 f811 e4e2 fe10 06ef f702 07f4
00000080: ee09 fcdf 07f5 efff 05ff fa05 050f 15ed
00000090: f2e9 feff 1108 09f4 110c e504 0d0d 06e5
000000a0: fa05 f0d0 fb11 f806 f6ee 030d f8fd fafb
000000b0: ef0a 06fc 0cf4 f0db e3ff f7f9 f716 fc1d
000000c0: f8fe 0bf5 09fc 05f9 fa03 ecf2 0c0b 080d
000000d0: d9e7 fd02 fa00 0b05 da09 f9fb f80a fe08
000000e0: fc0a 000a d107 eeff 09fc ebf2 fdf0 d2f1
000000f0: 0bdc f805 f80e 0c0b fb04 01f7 e3ef db10
