model/customModel/modelB/ASLclassifier2.tflite (tflite, 7680 bytes, 6 tensors)

sequential/dense/BiasAdd/ReadVariableOp f4 [20]
0	0x3e9583ed	0.29202214
1	0xbf141be5	-0.57855064
2	0xbf230cc1	-0.63691336
3	0xbe200956	-0.15628561
4	0xbfc22c9f	-1.5169867
5	0xbe750550	-0.23927808
6	0xbe67ce24	-0.2263723
7	0xbf27c765	-0.65538627
8	0xbff31801	-1.89917
9	0xbf77c46d	-0.96784097
10	0xbf3d9572	-0.7405616
11	0xbfd391a7	-1.6528825
12	0x3e935f45	0.28783622
13	0xbfae4a35	-1.3616396
14	0xbf8bbaa1	-1.091633
15	0xbf873a57	-1.0564679
16	0xbf40c7b5	-0.7530473
17	0xbf4ad039	-0.7922397
18	0x3ee04277	0.4380071
19	0xbf54bc2e	-0.8309964

sequential/dense_2/BiasAdd/ReadVariableOp f4 [28]
0	0x3eecaeba	0.46227056
1	0xbf956a81	-1.1673127
2	0xc08e49bf	-4.446502
3	0x401a0a25	2.4068692
4	0x3f8083e6	1.0040252
5	0xc02e1537	-2.7200449
6	0x3f5441a9	0.8291269
7	0x3ef46dd7	0.4774005
8	0x3f63622b	0.8882167
9	0x4010e1bb	2.2637775
10	0x3f2f8cfb	0.68574494
11	0x400d80e9	2.210993
12	0xbf8aa956	-1.0832927
13	0xbf6e7572	-0.9314796
14	0xbf2bce60	-0.6711178
15	0xbf4271dd	-0.7595499
16	0x4019a240	2.400528
17	0x3f94c65a	1.1623032
18	0x3f6c2c36	0.9225496
19	0xc0020706	-2.0316787
20	0x3fa59d3d	1.293861
21	0x4012808c	2.2890959
22	0x3f086a62	0.5328733
23	0xbef6df1b	-0.4821709
24	0xbf98c569	-1.1935245
25	0xbf107b2d	-0.5643795
26	0xc03ef961	-2.9839709
27	0xc0809356	-4.0179853

sequential/dense_1/BiasAdd/ReadVariableOp f4 [10]
0	0x3c2d5e32	0.01058154
1	0x3fa70adb	1.3050188
2	0xbeb1501c	-0.3463143
3	0x40000114	2.0000658
4	0x4020b893	2.5112655
5	0x3eab91c7	0.33509657
6	0x3f034b58	0.5128684
7	0x3ea74436	0.32669228
8	0x3fcc6e4d	1.5971161
9	0x400be252	2.1856885

sequential/dense/MatMul f4 [20, 43]
0	0x3dcc595e	0.09977983
1	0x3e43089c	0.19046253
2	0x3e2179bc	0.15769094
3	0xbeafdd41	-0.3434849
4	0x3d976ab4	0.07393399
5	0xbe93de08	-0.28880334
6	0x3edc4533	0.43021545
7	0xbf3bd9e6	-0.7337936
8	0x3ecdb3ef	0.4017634
9	0xbf1cb5f5	-0.61215144
10	0x3e97b8b6	0.2963311
11	0x3ef5ddcb	0.48020777
12	0x3c7509e5	0.014955972
13	0xbe3b1b82	-0.18272212
14	0x3df6e0ca	0.12054594
15	0xbf2773b9	-0.65410954
16	0x3b946856	0.0045290394
17	0xbf54e318	-0.8315902
18	0xbcf7bfe1	-0.030242862
19	0x3f0e4b07	0.5558323
20	0x3d2b21ef	0.04178041
21	0xbed35a1f	-0.41279694
22	0x3e1cdd21	0.15318729
23	0xbf830877	-1.0236958
24	0x3e6e56a5	0.2327524
25	0xbfaea27f	-1.364334
26	0x3e93d988	0.288769
27	0x3e174aa7	0.14774571
28	0x3d088be7	0.033336546
29	0xbeed217a	-0.46314603
30	0x3e4d04ff	0.20021437
31	0xbf4f5a9d	-0.8099764
32	0x3e84eff0	0.25964308
33	0xbf8e879d	-1.1135136
34	0x3e736ea4	0.23772675
35	0xbe709b79	-0.23496808
36	0xbca7716f	-0.020439832
37	0xbee04e07	-0.4380953
38	0x3db6a6a1	0.08918501
39	0xbef5be58	-0.47996783
40	0x3e1c302f	0.15252756
41	0xbefa2b9b	-0.48861393
42	0x3e2a8861	0.16653587
43	0xbcb87bbe	-0.022519942
44	0x3c0e3e00	0.008681774
45	0xbc72d6a0	-0.014821678
46	0x3dcd6844	0.10029653
47	0xbd7dd393	-0.06196935
48	0xba0dc0b9	-0.0005407441
49	0xbd0e6b07	-0.034770038
50	0xbc901369	-0.01758738
51	0x3da8a2c2	0.082341686
52	0xbba0471d	-0.00489129
53	0x3d7ed95d	0.062219013
54	0xba9deaf1	-0.0012048167
55	0xbbd1276c	-0.0063828733
56	0xbc7fc24e	-0.015610291
57	0x3c5a932e	0.013340754
58	0xbcc0630c	-0.02348473
59	0x3c3376e7	0.0109536415
60	0xbbaaa884	-0.005208077
61	0xbcd3baa2	-0.02584583
62	0xbce9c5e9	-0.028536754
63	0x3d331884	0.04372455
64	0x3ca5737b	0.020196667
65	0x3d50b053	0.050949406
66	0xbb722c1f	-0.0036952568
67	0x3d9154cf	0.07096254
68	0xbca2adb2	-0.019858215
69	0x3db67150	0.089083314
70	0xbc9c0687	-0.019046081
71	0x3df82d96	0.1211807
72	0x3cbf9c3b	0.023389926
73	0x3dbbee21	0.09176279
74	0x3d6b92b2	0.057512946
75	0x3e07c799	0.13259734
76	0x3d54c098	0.051941484
77	0x3e6a92e5	0.22907598
78	0xbd552106	-0.052033447
79	0x3e753ded	0.23949404
80	0xb9d0ae4a	-0.00039802707
81	0x3e2ef1dd	0.17084451
82	0x3cddd692	0.027079854
83	0x3ec18a98	0.3780105
84	0xbaa7220f	-0.0012751239
85	0xc029512f	-2.64558
86	0xbafa831e	-0.0019112562
87	0x3e0c1f8a	0.13683906
88	0x3e96e5c9	0.29472187
89	0xbd3b47cc	-0.045722768
90	0x3e9aa696	0.3020522
91	0x3b68d409	0.0035526773
92	0x3e52923f	0.20563601
93	0xbd087ab7	-0.033320155
94	0x3e071e0e	0.13195059
95	0xbd0e5c3f	-0.03475594
96	0x3d8f69fa	0.07002635
97	0xbc8a436b	-0.01687785
98	0x3d83fd8d	0.06444845
99	0xbcf2a02a	-0.029617388
100	0x3d7a892c	0.061165974
101	0xbcbc96ed	-0.023021186
102	0x3dc801a2	0.097659364
103	0xbb4ca306	-0.00312251
104	0x3dcc649e	0.09980129
105	0x3b8f3c37	0.004371192
106	0x3d7794f9	0.060444806
107	0x3d29d45e	0.041462295
108	0x3d7e5c7c	0.06209992
109	0x3d719f50	0.058989823
110	0x3d7320c0	0.059357405
111	0xbc8d2158	-0.017227814
112	0xc00cde02	-2.2010503
113	0x3c492c71	0.012278662
114	0x3dc88bef	0.09792315
115	0xbca0024c	-0.019532345
116	0x3d9356a3	0.07194259
117	0x3c958e72	0.0182564
118	0x3c4b29f5	0.01240014
119	0xbcc894c4	-0.024485
120	0x3ecc7c19	0.3993843
121	0xbd207488	-0.039173633
122	0x3e117e41	0.14208318
123	0xbbbdfdb4	-0.005798066
124	0x3dae957d	0.085246064
125	0xbc59e643	-0.013299528
126	0x3d125630	0.035726726
127	0xbb7e4a7c	-0.003880172
128	0x3d45c954	0.048287705
129	0xbbacb1f2	-0.005270236
130	0xbda8a36a	-0.08234294
131	0xbe95c037	-0.2924821
132	0x3d1cafc1	0.03825355
133	0xc034bb95	-2.823949
134	0xbc610af1	-0.013735519
135	0xbffe3eb5	-1.9862887
136	0x3becec85	0.0072303438
137	0xbf76d243	-0.96414584
138	0xbc691cc6	-0.0142280515
139	0x3db048fe	0.08607672
140	0xbb69fc83	-0.0035703487
141	0xbf3f1aac	-0.74650073
142	0xbca80827	-0.0205117
143	0xbe10d9e4	-0.14145619
144	0x3ca3bf67	0.019988729
145	0x3e0e1ff9	0.13879384
146	0x3c382294	0.011238713
147	0x3e249997	0.16074215
148	0xbbad9a12	-0.0052979076
149	0xbead7c33	-0.3388382
150	0xbd2b4d0c	-0.041821525
151	0xbc90f472	-0.017694686
152	0xbc786417	-0.015160582
153	0x3e4a812f	0.19775842
154	0x3c840d84	0.016119726
155	0x3e624480	0.22096443
156	0x3c50b99d	0.012739566
157	0xbd45307c	-0.04814194
158	0x3ace1882	0.0015723857
159	0x3e5575de	0.20845744
160	0x3c77582d	0.015096706
161	0x3f10f929	0.5663019
162	0x3d60667f	0.054785248
163	0x3f0af248	0.5427594
164	0x3d9583b7	0.07300513
165	0x3ea10b35	0.31453863
166	0xbcbc28ef	-0.022968737
167	0x3ec056f1	0.3756633
168	0xbd0078ec	-0.03136532
169	0x3edb4e13	0.42833003
170	0xbcf1453b	-0.029451957
171	0x3f14cdfc	0.5812681
172	0xc0083b1d	-2.128608
173	0xbd94d7c0	-0.072677135
174	0x3e5ec06e	0.21753094
175	0x3f3aea84	0.7301409
176	0xbe29ba1a	-0.16574898
177	0x3f200d31	0.6252013
178	0xbd94242f	-0.07233464
179	0x3f261af3	0.6488487
180	0xbd669196	-0.056291185
181	0x3f21cde3	0.63204783
182	0x3cd53e90	0.026030809
183	0x3f26828f	0.65042967
184	0xbe1072e5	-0.14106329
185	0x3edac13c	0.4272555
186	0xbd41ac83	-0.04728366
187	0x3e8eb509	0.27872494
188	0x3b853fe4	0.0040664542
189	0x3e79ceae	0.24395248
190	0x3af92824	0.0019009155
191	0x3f151330	0.582324
192	0xbe244b89	-0.1604444
193	0x3ecc9a1b	0.39961323
194	0xbd7fd33f	-0.06245732
195	0x3e024f1c	0.1272549
196	0x3d972ec9	0.073819704
197	0x3d5a9ef4	0.053374246
198	0x3da12a94	0.07869449
199	0xbe9a84bd	-0.30179396
200	0xbe4ddbe6	-0.20103416
201	0xbdb36ec6	-0.08761363
202	0xbddb0b82	-0.10695554
203	0xbe232d65	-0.15935285
204	0xbc6076ea	-0.013700226
205	0xbe7338d3	-0.23752145
206	0x3c748498	0.014924191
207	0xbf20da7c	-0.6283338
208	0xbe6dfea6	-0.23241672
209	0xbed42b97	-0.41439506
210	0xbd88f936	-0.06688158
211	0xbe914917	-0.28376076
212	0x3d887f3e	0.066648945
213	0xbe51a0c4	-0.20471483
214	0x3dbeee45	0.0932279
215	0xc04ea8ff	-3.2290647
216	0x3d6c42c0	0.057680845
217	0x3e0ad4d8	0.13557756
218	0x3e5d429a	0.21607438
219	0xbee7aa61	-0.45247176
220	0x3ea83f52	0.3286081
221	0x3d686fd3	0.05674727
222	0x3fcaac18	1.5833769
223	0x3b6f2c86	0.0036495044
224	0x3fbf1acb	1.4930052
225	0xbd91b359	-0.07114286
226	0x3cd2c32f	0.025727836
227	0xbc5aa462	-0.013344856
228	0xbdefcddf	-0.11709189
229	0x3db91fef	0.09039294
230	0xbde897c9	-0.11357076
231	0x3dbc2d4e	0.09188329
232	0xbddd8929	-0.10817177
233	0x3ca02356	0.0195481
234	0xbca64593	-0.020296847
235	0xbcc154cb	-0.023600003
236	0xbe672e5c	-0.22576278
237	0x3ddbc323	0.10730579
238	0xbe3dc4d2	-0.18532112
239	0x3e7252cc	0.23664397
240	0x3e1d4008	0.15356457
241	0x3e4d9041	0.2007456
242	0xbe8114d0	-0.2521119
243	0xbc220aa2	-0.00989023
244	0xbf0138b8	-0.5047717
245	0x3dec2b46	0.11531691
246	0xbf74bde3	-0.95602244
247	0x3e1a65df	0.15077923
248	0xbf67aed9	-0.9050117
249	0x3e57e7f7	0.21084581
250	0xbe875426	-0.26431388
251	0xbd1000f7	-0.03515717
252	0xbf1933b8	-0.5984454
253	0x3dd11a00	0.10210037
254	0xbf845b81	-1.0340425
255	0x3d1bc1e7	0.038026717

sequential/dense_1/MatMul f4 [10, 20]
0	0xbef267ba	-0.47344762
1	0xbed837e3	-0.42230138
2	0xbb73b7a8	-0.0037188325
3	0xbdd54bd3	-0.10414853
4	0x3e80f174	0.25184214
5	0x3fd1e31c	1.6397433
6	0xbf82d503	-1.0221256
7	0xbf2cb722	-0.6746694
8	0xbf026f99	-0.50951535
9	0xbefd2ffd	-0.49450675
10	0x3f585099	0.8449798
11	0x3d66cf6d	0.05635016
12	0xbfa8a933	-1.3176636
13	0xbe791e66	-0.24328002
14	0xc00f1d8d	-2.2361786
15	0x3e366fd9	0.17816104
16	0xbefb47a3	-0.49078092
17	0xbc423c99	-0.011855268
18	0x3dbaa82f	0.0911411
19	0x3dae7b9e	0.08519672
20	0xbdc55672	-0.09635629
21	0x3e37f46f	0.17964338
22	0xbed4ee9b	-0.41588292
23	0x3f8448e8	1.0334749
24	0x3e81fbc7	0.25387403
25	0x3ebaed11	0.36508992
26	0xbf0f9dd0	-0.5610018
27	0x3ea14e86	0.3150522
28	0x3eb690ff	0.35657498
29	0x3eeb5b78	0.45968223
30	0x3e9031e9	0.28163078
31	0x3ee14966	0.4400131
32	0x3eb67786	0.35638064
33	0x40116821	2.2719805
34	0x3f0d42b5	0.5517991
35	0xbc7ffa91	-0.0156237045
36	0x3c8b3ea2	0.01699764
37	0x3ef413e2	0.4767142
38	0xbdbc1a9b	-0.09184762
39	0x3f161bd7	0.5863623
40	0x3f2d55d2	0.67709076
41	0x3e97107d	0.29504767
42	0x3f7e1149	0.99245125
43	0x3f29773d	0.6619757
44	0x3e3376f5	0.17525847
45	0x3f92ce62	1.1469233
46	0x3dd09a54	0.10185686
47	0x3fad46da	1.3537247
48	0xbc9da780	-0.01924491
49	0x3e3a66b1	0.18203236
50	0x3f48f516	0.7849897
51	0x3dd3e631	0.1034664
52	0x3ed98699	0.42485502
53	0xbd7c5194	-0.061601236
54	0x3eb2773a	0.34856588
55	0x3f608888	0.8770833
56	0x3f60e32a	0.87846625
57	0x3ddacbf5	0.10683433
58	0x3f342bf5	0.70379573
59	0x3ecb20e9	0.39673546
60	0xbd2ccf30	-0.042189777
61	0x3e117c78	0.14207637
62	0xbe38e303	-0.18055348
63	0xbf0744d8	-0.5283942
64	0x3f99fd32	1.2030394
65	0x3c5b1080	0.013370633
66	0xbf1083f2	-0.5645133
67	0x3e00483c	0.12527555
68	0x3f8d5b50	1.1043491
69	0x3f3c8447	0.7363934
70	0xbd999b6a	-0.07500346
71	0x3efa0fba	0.48840123
72	0x3f40d69a	0.75327456
73	0xbe2ac409	-0.16676344
74	0xbe60459c	-0.21901554
75	0xbcbecdbb	-0.02329146
76	0x3c0d0ac8	0.0086085275
77	0x3fac7d4a	1.3475735
78	0xbd7b7aa2	-0.06139625
79	0xbe7fb098	-0.24969709
80	0xbfcd82d9	-1.6055557
81	0x3e87eed7	0.26549408
82	0xbed12f57	-0.4085643
83	0xbd7950d1	-0.06086809
84	0x3d83bdfc	0.06432721
85	0x3d99668b	0.07490262
86	0x3eb74930	0.35798025
87	0x3df8162d	0.12113605
88	0x3e87c2a1	0.26515678
89	0xbccc89f3	-0.024968123
90	0xbe882715	-0.26592317
91	0xbe53f83b	-0.20700161
92	0x3e8ab38e	0.27090114
93	0x3cf72957	0.03017108
94	0x3e7d142d	0.24714728
95	0x3e13c92e	0.14432213
96	0x3dcf8373	0.10132494
97	0x3bd13415	0.0063843825
98	0xbfcb9e47	-1.5907677
99	0x3e51de1d	0.20494886
100	0x3eb215b2	0.34782177
101	0x3fb90d28	1.445714
102	0xbac7b6ed	-0.0015237011
103	0xbecd4dd8	-0.40098453
104	0x3f36c372	0.71391976
105	0xbe85ab08	-0.2610705
106	0xbe17aaf9	-0.14811315
107	0x3ef94892	0.4868818
108	0x3f2284f5	0.63484126
109	0x3fcab530	1.5836544
110	0x3c16753d	0.009183225
111	0x3f4f54cb	0.8098876
112	0x3df1a5c7	0.11799198
113	0x3fe075e6	1.753598
114	0x3edc052d	0.429727
115	0x3f862cce	1.0482423
116	0x3f837a28	1.0271654
117	0x3daa29d3	0.083087586
118	0x3e95edd8	0.29283023
119	0x3ee5c593	0.448773
120	0x3c7fba9f	0.015608459
121	0x3fcfb45f	1.622692
122	0x3ef153d2	0.47134262
123	0xbdfe5195	-0.12417904
124	0x3dc8adf1	0.09798802
125	0x3e65d6cc	0.2244522
126	0x3f4e30d4	0.80543256
127	0x3e4de7ab	0.20107906
128	0x3da0805f	0.07836985
129	0x3fe9b1f2	1.825743
130	0x3f9fbcaf	1.2479457
131	0x3f65584b	0.8958785
132	0xbde2fbbd	-0.110831715
133	0xbebc2ab4	-0.3675133
134	0x3f4d5687	0.80210155
135	0x3d00b534	0.03142281
136	0x3d3f4cbb	0.046704035
137	0x3f41b7aa	0.75670874
138	0x3ca36926	0.0199476
139	0x3f62d13c	0.88600516
140	0x3f37c5df	0.717863
141	0xbe2382c1	-0.15967847
142	0x3ee573db	0.44814953
143	0x3da7e39f	0.08197712
144	0x3fc2b0fb	1.521026
145	0xbc99fa90	-0.018796235
146	0x3f973bfb	1.181518
147	0x3e9a7236	0.3016526
148	0x3fbb6cd9	1.4642593
149	0x3f09bd12	0.53804123
150	0x3f370c38	0.7150302
151	0x3f05944e	0.5217942
152	0x3fb0b87b	1.3806299
153	0xbf086893	-0.5328457
154	0x3f8db4d1	1.1070806
155	0x3cae9506	0.021311294
156	0x3de28d2f	0.11062085
157	0x3e638a09	0.22220625
158	0x3f423490	0.75861454
159	0x3f92af81	1.145981
160	0x3c5e2269	0.013558009
161	0x3f860bfc	1.0472407
162	0x4007a93c	2.1197042
163	0xbde117f3	-0.10990896
164	0x3ec7ec43	0.3904744
165	0xbe1c4b9b	-0.15263216
166	0x3faa18ab	1.3288778
167	0x3d197bef	0.037471708
168	0x3e92b699	0.28654936
169	0x3fa6cd88	1.3031473
170	0x3fe0baba	1.7556984
171	0x3f7fe0e6	0.9995254
172	0xbf26a6ba	-0.65098155
173	0x4002d4dc	2.044242
174	0xbeaf7a43	-0.34272966
175	0xbdb956fd	-0.09049795
176	0xbd331cc5	-0.04372861
177	0x3e12d71f	0.14339875
178	0xbb95c643	-0.004570754
179	0xbeb31072	-0.34973484
180	0x3ef02808	0.4690554
181	0xbe24f646	-0.16109571
182	0x3fed8780	1.8556976
183	0xbe83ce3a	-0.25743276
184	0xbea62364	-0.32448876
185	0xbe84480d	-0.2583622
186	0x3ee564d6	0.44803494
187	0xbd94cdbc	-0.07265803
188	0xbe6d5fe1	-0.23181106
189	0xbcdba8d4	-0.026813902
190	0x3f790a7a	0.9728161
191	0x3dd09146	0.10183959
192	0xbe91e847	-0.28497526
193	0x3f8a83e7	1.0821503
194	0x3f0bfc79	0.5468212
195	0x3ea924f1	0.33035997
196	0x3e92c898	0.28668666
197	0x403169fb	2.7720935
198	0x3f027343	0.50957125
199	0x3f1e771a	0.61900485

sequential/dense_2/MatMul f4 [28, 10]
0	0x3f0f959f	0.5608768
1	0x3f7765ab	0.9663951
2	0xbf877948	-1.0583887
3	0xbe1348f9	-0.14383306
4	0xbee89351	-0.45424893
5	0x3e1c3228	0.15253508
6	0xbec1c06f	-0.37842128
7	0x3eadc36f	0.33938166
8	0xbe015ced	-0.12633105
9	0xbf239afa	-0.6390835
10	0x3e99f1d5	0.30067316
11	0xbfd03927	-1.6267442
12	0xbf9da9c9	-1.2317439
13	0x3eb41d06	0.35178393
14	0x3dc2bfea	0.09509261
15	0xbe8c61ad	-0.2741827
16	0x3f58b2c3	0.8464777
17	0xbf288a23	-0.6583578
18	0x3ecc48e9	0.39899376
19	0x3e98aac5	0.29817787
20	0x3da04fc4	0.07827714
21	0xbf81535b	-1.0103563
22	0xbe271708	-0.1631738
23	0xbe4fa5cc	-0.2027809
24	0x3f20e7a6	0.6285347
25	0x3f043dcb	0.5165679
26	0x3edc88be	0.43073076
27	0x3eaba12c	0.33521402
28	0xbe7c1dac	-0.24620694
29	0x3e6960d5	0.22790845
30	0xbf2dfa2d	-0.6795986
31	0xbe08f6e1	-0.13375427
32	0xbf7a924f	-0.978795
33	0xbefd56d0	-0.49480295
34	0xbf625be1	-0.88421446
35	0x3e2c974d	0.16854592
36	0x3f6771ec	0.90408206
37	0xbe9048e7	-0.2818062
38	0xbf23729c	-0.63846755
39	0x3f13cdfb	0.57736176
40	0xbea6ec4d	-0.32602158
41	0xbce61e26	-0.028090548
42	0xbf347cbd	-0.70502836
43	0x3f021b31	0.5082274
44	0xbe9190db	-0.28430828
45	0xbf29580f	-0.6614999
46	0x3df01625	0.11722974
47	0xbd6aaeac	-0.057295486
48	0x3f322cc7	0.69599575
49	0xbf579c9b	-0.84223336
50	0x3e1cdde4	0.1531902
51	0xbef8416f	-0.48487422
52	0x3e56dcc3	0.20982651
53	0xbe98368a	-0.2972911
54	0x3f63087b	0.88684815
55	0x3e8d558a	0.27604324
56	0xbeb90f64	-0.36144555
57	0xbc21d448	-0.009877272
58	0x3f245545	0.6419261
59	0xbeb0cd38	-0.3453157
60	0xbed078eb	-0.40717253
61	0x3f178555	0.59187824
62	0x3f135fc0	0.5756798
63	0xbca19a32	-0.019726846
64	0xbf3d856a	-0.740317
65	0x3da9c68a	0.082898214
66	0xbf8ed3fd	-1.1158444
67	0xbfb92c3f	-1.4466628
68	0xbf710ff7	-0.94164985
69	0x3f516fa8	0.81811
70	0xbf59b4e8	-0.85041666
71	0xbd962975	-0.07332126
72	0x3ee9f6b7	0.4569604
73	0xbf9bc868	-1.2170534
74	0x3e58cc13	0.21171598
75	0xbe2d68d7	-0.16934524
76	0xbee36cdc	-0.4441899
77	0xbf4c2315	-0.7974103
78	0xbf3c7ec7	-0.73630947
79	0x3f9d51b2	1.2290556
80	0xbec0d0c8	-0.37659287
81	0x3e719e67	0.23595582
82	0xbec2e37a	-0.38064176
83	0x3f1d75af	0.61507696
84	0xbdd36ac9	-0.10323102
85	0x3e6ce27f	0.23133276
86	0x3eaef9a5	0.3417484
87	0xbf77c823	-0.9678976
88	0xbd4a3dc0	-0.049375296
89	0xbf659da7	-0.89693683
90	0xbea0646e	-0.31326622
91	0x3ecf3225	0.40467945
92	0x3e4f0526	0.20216808
93	0xbedc58e4	-0.43036568
94	0xbf41e38a	-0.7573782
95	0x3f2c5f51	0.6733294
96	0x3f01abed	0.5065296
97	0xbf382c69	-0.71942765
98	0xbf4bfc84	-0.79682183
99	0xbea9be45	-0.33152977
100	0xbf795260	-0.9739132
101	0x3e3bf340	0.18354511
102	0x3d8f3b3a	0.069937184
103	0x3e01c19c	0.12671512
104	0xbe27ad29	-0.16374649
105	0xbf943b7e	-1.1580656
106	0xbf930160	-1.1484795
107	0xbfd99a60	-1.7000237
108	0x3e965d03	0.29367837
109	0x3f4a70a1	0.7907811
110	0x3f9fe275	1.2490984
111	0x3e4b5f79	0.19860639
112	0xbfeeae2b	-1.8646902
113	0x3ee581c4	0.44825566
114	0xbf79bdce	-0.97555244
115	0xbdfbba71	-0.1229142
116	0xbdaaa4a5	-0.08332185
117	0x3ee54847	0.44781706
118	0xbfa08084	-1.253922
119	0x3edad1c3	0.4273816
120	0x3cc30df3	0.023810362
121	0x3eac052c	0.33597696
122	0x3dca26f2	0.098707095
123	0x3cd6e547	0.026232375
124	0xbda2f059	-0.07955999
125	0xbe0e4de2	-0.13896897
126	0xbf3b0313	-0.73051566
127	0x3ed5b889	0.41742352
128	0x3dad46ec	0.08460793
129	0xbf015e30	-0.50534344
130	0x3d00886e	0.03138011
131	0x3e85c0c5	0.26123634
132	0x3e5e47b6	0.21707043
133	0xbd5a094b	-0.05323152
134	0xbc85d29b	-0.016335776
135	0x3da55b7c	0.0807409
136	0xbf483400	-0.78204346
137	0x3ed0ba6a	0.40767223
138	0xbdc4a32e	-0.096014366
139	0xbf1e61df	-0.6186809
140	0x3d0bd592	0.034139223
141	0xbdd1a112	-0.102358
142	0xbf4759ee	-0.77871597
143	0xbf44ce84	-0.7687762
144	0xbeb1736c	-0.34658372
145	0x3f1a5f4e	0.60301673
146	0x3e91636b	0.28396162
147	0x3ea1930f	0.3155751
148	0x3d4b39ca	0.04961566
149	0xbd32eaa0	-0.043680787
150	0xbe679f87	-0.22619449
151	0xbf426993	-0.75942343
152	0x3ee562ea	0.44802028
153	0xbdf806ec	-0.12110695
154	0x3f83c158	1.0293379
155	0xbbd36e2e	-0.0064523434
156	0xbea98980	-0.33112717
157	0x3dbdcd24	0.09267643
158	0xbfdc728c	-1.7222457
159	0x3ed9407f	0.4243202
160	0xbdc0e74d	-0.09419117
161	0xbfe03791	-1.7516958
162	0x3f091a2a	0.5355555
163	0xbf8f0c86	-1.1175697
164	0x3fc6a2ca	1.5518429
165	0x3e38e304	0.1805535
166	0xbe0d750e	-0.13814184
167	0x3f30afbf	0.6901817
168	0xbfcca05a	-1.5986435
169	0xbf203125	-0.6257499
170	0xc00740f5	-2.1133397
171	0x3e290f17	0.16509663
172	0xbeecd68d	-0.4625744
173	0x3e760743	0.24026208
174	0xbeb7cc08	-0.3589785
175	0xbfaf9b40	-1.3719254
176	0xbe20bfd9	-0.15698184
177	0xbfb7b642	-1.4352496
178	0x3f0633d2	0.5242282
179	0x3eeedc2d	0.46652356
180	0xbd98b75b	-0.07456847
181	0x3f281388	0.656548
182	0xbf0e2b02	-0.55534375
183	0x3f317a17	0.6932692
184	0xbf153e07	-0.5829777
185	0xbf02aead	-0.51047784
186	0xbf19eb15	-0.6012433
187	0xbe03d08f	-0.12872528
188	0x3f190c61	0.59784514
189	0xbf642925	-0.8912528
190	0x3f35e3de	0.7105082
191	0x3f3b6cec	0.73213077
192	0xbf8423ca	-1.0323422
193	0x3ec3f23b	0.38270745
194	0xbf13bb7e	-0.57707965
195	0x3dbb4225	0.091434754
196	0xbdea153d	-0.11429832
197	0x3e91d98f	0.28486297
198	0xbecff8bc	-0.40619457
199	0x3e342bc5	0.17594822
200	0xc00e6fb5	-2.225568
201	0x3d0a7566	0.033803366
202	0xbe2d8c54	-0.16948062
203	0x3ed8b90d	0.42328683
204	0xbea94a92	-0.33064705
205	0xbfce3e18	-1.61127
206	0xbe761d06	-0.24034509
207	0xbfb9a41c	-1.4503207
208	0x3eede130	0.46460867
209	0x3ecb7526	0.39737815
210	0xbfcce3f3	-1.6007065
211	0xbf137c08	-0.5761113
212	0x3f002a3a	0.5006443
213	0x3f25d4d0	0.6477785
214	0xbe34f3d0	-0.17671132
215	0xc00fe3b4	-2.248273
216	0xbf133023	-0.57495326
217	0xbfa68d08	-1.3011789
218	0x3c680ae4	0.014162753
219	0x3f0b144a	0.54327834
220	0x3e417210	0.18891168
221	0xbf23195d	-0.63710576
222	0xbf9e60cf	-1.2373294
223	0xbece7f61	-0.40331557
224	0x3e0e8750	0.13918805
225	0xbfaf68a4	-1.3703809
226	0x3ec6892b	0.38776526
227	0xbf03864d	-0.513768
228	0x3e89185a	0.2677639
229	0x3f2c82d0	0.67387104
230	0xbeb90fa8	-0.36144757
231	0x3f44e142	0.76906216
232	0xbead7ce1	-0.33884338
233	0x3fab73c8	1.3394709
234	0xbee3be0a	-0.44480926
235	0xbf463346	-0.7742199
236	0xbe92295b	-0.28547177
237	0xbf42ce3a	-0.76095927
238	0xbdb906db	-0.09034511
239	0xbe19d29a	-0.15021744
240	0x3e92cced	0.2867197
241	0x3ef673f0	0.48135328
242	0xbe83f3d3	-0.2577196
243	0xbe7b1fad	-0.24523802
244	0x3e902db3	0.28159866
245	0x3f8ba82a	1.0910695
246	0xbe3bfbb2	-0.18357733
247	0xbcd5f69d	-0.026118571
248	0xbe900e74	-0.28136027
249	0xbf9809fe	-1.1878049
250	0x3ea85286	0.3287546
251	0xbe16a13f	-0.14709948
252	0xbf341173	-0.70339125
253	0x3ed22dc4	0.4105054
254	0xbeca5df4	-0.39524806
255	0x3f71464b	0.94247884
