model/customModel/modelB/ASLclassifier5b.tflite (tflite, 6404 bytes, 4 tensors)

sequential/dense/BiasAdd/ReadVariableOp f4 [24]
000000 09 02 5d 3e be 5d 99 3e a9 54 f5 be 85 78 b6 3d
       0.21582808 0.29954332 -0.47916153 0.08909706
000010 6c 63 49 bf 51 7f 5e 3d 68 e6 be be ef 1b 83 3d
       -0.7866733 0.054320637 -0.3728516 0.06401812
000020 1d 84 84 3f 9d 51 fd be 7e 32 00 bf 6f dd 97 be
       1.0352818 -0.49476328 -0.50077045 -0.29661128
000030 e2 c4 55 3f 67 6b 41 be 24 f7 41 be d9 9e 89 3f
       0.83503544 -0.18888627 -0.18941933 1.0751601
000040 f5 7c 5c 3f 82 0e 2e 3f a7 62 3b bc b0 ec 6a 3f
       0.8612817 0.6799089 -0.011437095 0.91767406
000050 91 1d 5d 3e 36 0f 88 3f 9b 8f 92 3e 3a ca be bf
       0.2159331 1.0629642 0.28625187 -1.4905465

sequential/dense_1/BiasAdd/ReadVariableOp f4 [28]
000000 cd 1f 30 bf a3 da 97 3e 52 8e 2c bf 35 c2 c4 3e
       -0.68798524 0.29658994 -0.67404664 0.38429418
000010 68 01 2d 3f 56 36 44 3d 3f 55 1f be 0a 7c d5 be
       0.6758027 0.04790338 -0.15559863 -0.41696197
000020 b0 9c 2e 3f 2b 90 92 3e 01 18 0a bc 1e 60 19 3e
       0.68207836 0.28625616 -0.008428575 0.14978072
000030 24 93 56 bf e6 00 32 be d2 0f 39 bf 2d 47 d2 3e
       -0.8381827 -0.17383155 -0.72289765 0.41069928
000040 df d8 d9 bd 74 81 d1 3e 20 ed a6 3e ae 42 ef be
       -0.10637068 0.40919077 0.32602787 -0.4673056
000050 06 50 db 3e e9 2e 95 bd f0 fb 9d 3e 2a 2c d1 3d
       0.4283449 -0.07284338 0.30856276 0.10213502
000060 ae 83 da be ca 98 0c 3e 54 19 b4 be 75 45 95 3e
       -0.4267859 0.1373016 -0.35175574 0.29154554

sequential/dense/MatMul f4 [24, 19]
000000 2f ba 76 3d 97 e0 3d 3f eb 33 fe 3d 1f c4 0f be
       0.060236152 0.7417082 0.12412246 -0.14039658
000010 e2 20 8d 3e a5 3c d1 be 46 53 b9 3c d3 6e 08 bf
       0.2756415 -0.4086658 0.022622716 -0.53294104
000020 bd 08 6c 3f 68 14 0a 3e 54 21 4a 3e d0 13 86 3f
       0.92200834 0.13484347 0.19739276 1.0474796
000030 13 bb 60 3f a5 3a 82 be 62 c0 50 3f 84 2e 6c 3f
       0.8778545 -0.25435367 0.8154355 0.9225848
000040 89 09 92 3e d2 84 53 3e 1c aa a1 3c b3 bf 98 3e
       0.285229 0.20656136 0.019734435 0.29833755
000050 0b a8 ce 3e c9 fc 0d 3f 24 ed 38 be 95 2e 88 3f
       0.40362582 0.55463845 -0.18059212 1.0639216
000060 02 93 5c 3f 53 64 2c 3f 65 91 9a 3e 7d 04 13 bf
       0.86161816 0.6734058 0.30189052 -0.57428724
000070 03 01 d1 bd bc f6 51 3b 57 4d 04 bf 4a 1e 74 be
       -0.10205271 0.0032037934 -0.5168051 -0.2383968
000080 28 12 80 be fb f3 b0 3e 91 70 ac 3f a0 26 1c bf
       -0.25013852 0.34561142 1.3471853 -0.6099644
000090 2c 8c 04 3f 8b b5 aa 3f b2 24 3e be 01 76 74 3f
       0.51776385 1.3336653 -0.18568686 0.9549256
0000a0 0f a2 41 3f 59 e2 89 3d f8 32 ad 3f 96 8a 16 be
       0.75637907 0.067326255 1.353118 -0.14701304
0000b0 a0 51 19 3e 90 3b 35 3f 30 98 8d 3e 6d de e2 be
       0.14972544 0.7079401 0.27655172 -0.44310322
0000c0 7f 86 fe 3e c7 07 17 bd fe d8 a0 be e2 f7 6e 3f
       0.49711987 -0.03687265 -0.31415552 0.9334699
0000d0 e3 b7 31 3f a8 be a2 bd 8d b7 90 3f 28 64 ea bd
       0.69421214 -0.07946521 1.1306015 -0.114448845
0000e0 0a bc 56 bf 9e ec 4c 3e aa a6 2d 3e 5c 2b ff bf
       -0.83880675 0.20012137 0.16958109 -1.9935107
0000f0 88 e5 8d bc 3c de fe 3f bf 0b 0a 3f ce fc 1f 3e
       -0.017321363 1.991157 0.53924173 0.15623781
000100 67 6d 6e be 21 b4 ca 3d 29 2a 81 3e 6c f4 31 3e
       -0.23283921 0.09897638 0.25227478 0.17378396
000110 6d cf b6 bd c8 db a6 3d 21 92 95 be c3 2a c1 3e
       -0.08926282 0.08147389 -0.2921305 0.37727937
000120 c2 a9 59 be ec 27 9c be 65 37 61 3f 1f de f8 be
       -0.21256164 -0.30499208 0.8797515 -0.48606965
000130 d4 6f 85 3d 3e 53 96 3c 68 65 b4 3f 77 09 5a 3e
       0.0651547 0.01835024 1.4093447 0.21292673
000140 85 55 15 3e 4b 8d 16 40 62 1d 44 be 6a f8 34 bf
       0.14583404 2.3523738 -0.19151834 -0.7069155
000150 c2 53 a5 bd c2 5c 49 3e a9 0b 1a 3e 90 a6 9b bd
       -0.08072616 0.1966429 0.1504351 -0.07600129
000160 05 bd e0 3d 9b 7c 87 be 61 d3 82 bd 68 da 3f be
       0.109735526 -0.26462254 -0.063879736 -0.18735659
000170 74 75 d9 be e4 c1 f0 3d 61 62 89 bd ad 9e 4e 3e
       -0.42472422 0.11755732 -0.067082174 0.20177718
000180 db 8d 3f be fc f8 1c bd 73 0c fa 3c 95 21 ef bd
       -0.18706457 -0.038323388 0.030523514 -0.11676327
000190 47 94 2c 3f 59 7b a8 3e c0 1d 98 3f 58 0f 46 bf
       0.67413753 0.32906607 1.1884079 -0.7736716
0001a0 9d 6d 54 3e 60 e3 ee 3e c6 dd ee be a3 41 0f 3f
       0.20744939 0.46657848 -0.46653575 0.5595953
0001b0 cb be e2 3f 71 27 34 3e 40 bc 03 3f 45 9f 19 3e
       1.7714475 0.1759317 0.5145912 0.15002163
0001c0 c9 99 19 3f 01 42 65 3f 40 41 9c 3d 1f 6e c7 bc
       0.6000028 0.8955384 0.07629633 -0.024344502
0001d0 c9 49 70 3e f3 d1 36 3c b9 1b 7f bd 8e 13 de 3f
       0.23465647 0.011158454 -0.062282298 1.7349718
0001e0 fe ec 2b be a6 75 45 3e f7 22 14 bf b1 b7 de 3d
       -0.16789624 0.1928316 -0.5786585 0.1087488
0001f0 36 13 33 be 4d 72 b8 3e 6c 4f 4e 3f 20 20 cd 3e
       -0.17487797 0.36024705 0.8058994 0.40063572
000200 ab 0e 18 bf 1f d4 e7 be 94 19 66 be c2 4d e5 3e
       -0.5939738 -0.45279023 -0.22470695 0.44785887
000210 30 f2 cf be 9a ab fb 3d d5 d5 e8 3e d9 96 b3 be
       -0.40614462 0.1228859 0.4547564 -0.35076025
000220 9a 74 64 bc cc a3 2b 3f 57 1c a6 bb 99 18 6c 3f
       -0.013943816 0.6704681 -0.0050692963 0.92225033
000230 1a 44 58 bf 69 40 01 3f 97 5b 7f be 5d 22 92 bd
       -0.84478915 0.5048891 -0.24937283 -0.071354605
000240 a2 19 29 be 53 c4 14 3f 09 3d 04 3f 35 57 3e bf
       -0.16513684 0.58112067 0.5165563 -0.7435182
000250 8e e6 b3 3e a5 34 8d 3f 73 80 33 be be 19 b7 3f
       0.35136837 1.1031691 -0.17529468 1.4304731
000260 8e cd a4 3d d5 19 68 3f 54 0a 13 3e f4 15 92 be
       0.08047019 0.90664417 0.14359409 -0.28532374
000270 e4 23 c1 be 9e a0 12 3e ab d8 ab 3e f6 3d 6e 3f
       -0.37722695 0.14319083 0.33563742 0.93063295
000280 18 46 d1 3e 69 d0 e0 3e 8f 5f 4c 3e 28 62 57 3f
       0.4087379 0.43909004 0.19958328 0.8413415
000290 5e 8b 60 3e 27 82 35 be 9f 0e 76 3d 50 72 dc be
       0.21928164 -0.1772543 0.060072538 -0.43055964
0002a0 6e ab 44 bf 94 f3 3d 3f 87 27 60 3e 57 f6 83 bd
       -0.7682408 0.74199796 0.21890078 -0.0644347
0002b0 55 67 65 3e 82 66 ab be df 81 1b 3d 6f 55 f3 be
       0.224027 -0.33476645 0.03796565 -0.47526118
0002c0 64 a2 8e 3f 7f 3f 80 3e ad 31 81 3f 57 93 15 3f
       1.1143308 0.25048444 1.0093285 0.5842795
0002d0 7b a6 73 be 3c b0 8e bf 18 df e3 3d a6 7a 8c 3e
       -0.23793976 -1.1147532 0.11126536 0.27437323
0002e0 1a 0f de be d8 0b 0d bf 1e cd e5 3e f5 ea 52 bf
       -0.43370897 -0.550962 0.44883054 -0.82389766
0002f0 9f 72 e3 be f8 c5 ef 3f e0 e7 61 3e ab 87 05 be
       -0.44423386 1.873229 0.2206111 -0.13040034
000300 ae 77 42 3d 0e 4d b2 bd c9 a6 06 be c9 0a 9d bd
       0.047477417 -0.08706103 -0.13149561 -0.07668073
000310 6c 37 27 3e 97 a8 d2 3d 5c 69 1d bf 8a 85 2d 3f
       0.16329736 0.10286062 -0.6148889 0.6778189
000320 bd 25 dd 3e 0e 84 6a bf 3d 78 be 3d 88 d3 f4 be
       0.43192855 -0.9160775 0.093002774 -0.47817636
000330 04 3d 82 be 45 ed 85 3f d9 14 35 bf be 27 8d bf
       -0.25437176 1.0463034 -0.70734936 -1.1027753
000340 3b a4 d5 3f 87 20 8c be 47 f6 48 40 d2 92 20 bd
       1.6690744 -0.27368566 3.1400316 -0.03920252
000350 07 0a 2a be 1b 73 fe 3e 6c 02 c0 be 80 c2 11 be
       -0.16605388 0.49697194 -0.37501848 -0.14234352
000360 80 60 01 bf ae ef b3 be 47 63 3b 3e 04 96 36 be
       -0.5053787 -0.351438 0.1829959 -0.17830664
000370 b7 bc 05 3e a8 cf 96 bd 1f 39 66 3f b6 63 c4 bd
       0.1306027 -0.07363826 0.8993091 -0.09589331
000380 0e 2f c0 be fd 87 8e be 30 44 3c bf 27 09 a0 bd
       -0.375359 -0.27838126 -0.73541546 -0.07814246
000390 24 39 47 3e c7 7f 79 3e 75 0d 1a bf 8c 71 7b be
       0.19455391 0.2436515 -0.60176784 -0.24555033
0003a0 39 f4 29 bf 29 a2 8b 3f 16 14 9e 3e ee 18 41 bd
       -0.6638828 1.0908862 0.308747 -0.047142915
0003b0 71 94 f4 3e 9f 6f 2b be 9b cb 6a be a4 6c a1 3e
       0.47769502 -0.16741799 -0.22929232 0.315282
0003c0 f3 81 e3 be 7a 0d 24 3f 5b b9 78 be de e0 d5 bd
       -0.4443508 0.64083064 -0.24289457 -0.10443281
0003d0 8a f9 e0 3e 34 37 5f bf ae ae 06 3f 8e 0a c3 3d
       0.43940383 -0.8719361 0.5261029 0.095234975
0003e0 39 5a ca be 80 4e 27 be 32 44 97 bd 56 b3 ad 3f
       -0.3952196 -0.16338539 -0.07386054 1.3570354
0003f0 d8 c5 0c 3f 87 7d 13 3f df 2c 63 3f 8b a7 9b bd
       0.54989386 0.57613415 0.8874034 -0.07600316

sequential/dense_1/MatMul f4 [28, 24]
000000 f0 67 02 bf 58 b4 7f 3e 69 28 08 bf 11 ad 09 bf
       -0.50939846 0.2497114 -0.5318666 -0.53779703
000010 aa cb 20 3e 52 a0 a9 3e 06 13 92 3e fa f0 b9 be
       0.15702692 0.33130127 0.2853014 -0.36316663
000020 ba f4 47 bf 65 19 33 3e 6c 51 d4 3e c0 4d f1 bc
       -0.781078 0.17490156 0.4146837 -0.02945602
000030 05 df ad 3e 7b 94 a9 be 30 c6 4b 3d 44 5a 4a bf
       0.33959213 -0.33121094 0.049749553 -0.79043984
000040 88 ac a4 3e 4a 99 6c bf a0 1c cb 3e 5c 44 c4 bd
       0.3216288 -0.924214 0.39670277 -0.09583351
000050 9e 6c 0e bf 7f 84 bd bf 94 4e a4 be 52 ef 1f 3f
       -0.55634487 -1.480606 -0.320912 0.6247455
000060 53 0b 3a 3f da a0 40 3e 4e 12 12 bf 7b 77 95 3e
       0.7267353 0.1881136 -0.5705918 0.2919272
000070 19 35 01 bf ee 1c 89 bd 52 e3 d9 3d f3 18 b2 bf
       -0.50471646 -0.06694971 0.10639061 -1.3913864
000080 f7 50 f0 3e e4 59 40 bf 47 06 95 bf a2 fd 7e bf
       0.4693677 -0.7513716 -1.1642541 -0.9960576
000090 da 45 36 bf da 85 3c bf 67 0c 01 bf fc e1 15 3f
       -0.71200335 -0.7364174 -0.5040955 0.5854795
0000a0 23 d2 71 3e c5 a0 ae 3e 5a 00 87 be fd fc 16 3e
       0.23615317 0.34107032 -0.26367456 0.14744945
0000b0 66 7b fc 3d e8 51 81 3e 14 2e 1b 3f 11 e6 86 be
       0.12328224 0.25257802 0.60617185 -0.26347402
0000c0 52 37 bd 3e e6 3b 3e 3e ff da c9 3e d8 7e 25 3d
       0.3695627 0.18577537 0.39424893 0.04040417
0000d0 a6 71 3d bf 93 d9 08 3e 29 a5 01 3e 6c 48 fd 3e
       -0.7400154 0.13364248 0.1266066 0.49469316
0000e0 6c 5e b1 3e 14 64 37 be 28 c8 73 bf 6a c4 53 3f
       0.3464235 -0.1790927 -0.9522729 0.8272158
0000f0 90 6f 87 bf 41 d3 68 be d5 78 e2 be b5 9b 4f 3d
       -1.0580921 -0.22736837 -0.44232813 0.050685603
000100 33 dc b6 be e7 83 c7 bd c5 1c 53 bd 31 61 ac bf
       -0.35714874 -0.09741955 -0.05154111 -1.346716
000110 89 b3 ae be 6b 88 07 3e 61 f4 43 bd c7 e0 31 3f
       -0.3412135 0.13235633 -0.04784048 0.6948361
000120 43 ad 0b bf 6b 30 1f bf 63 91 e9 3e 17 61 97 be
       -0.5456125 -0.62183255 0.45618734 -0.2956626
000130 df 62 88 bd b3 67 5a be 67 c0 b6 be 58 47 46 3f
       -0.06659483 -0.2132862 -0.35693666 0.7745261
000140 48 e8 a5 bd eb 66 99 bf 39 42 35 bf 27 62 79 3f
       -0.08100945 -1.1984533 -0.7080417 0.97415394
000150 1d d6 76 3d 32 16 da bd e1 a3 e9 bc f6 00 f7 3e
       0.060262788 -0.10648765 -0.028520526 0.4824292
000160 d4 fa 31 be ae 4e fb be 4b 51 78 bf 91 8e d0 3e
       -0.1738084 -0.49083465 -0.96999043 0.4073377
000170 b5 15 25 bf 24 df c7 3e 39 f3 85 bd 87 63 7c 3e
       -0.6448625 0.3903743 -0.06540532 0.24647342
000180 56 dd 8c be c8 f5 83 be 00 95 e8 be 72 70 c8 be
       -0.27512616 -0.25773454 -0.45426178 -0.3914829
000190 62 04 cb bf 78 d7 c2 3d 50 52 02 bf 2c 36 70 bd
       -1.5860713 0.09513754 -0.5090685 -0.058645412
0001a0 af cb c0 3e a4 a9 39 bf 5d 55 e6 3e 0b a9 ab 3d
       0.37655398 -0.72524476 0.44987002 0.08381852
0001b0 1b 0d 69 be d6 0e f4 bd 5c 5d d3 bd 41 e6 34 be
       -0.22758906 -0.11916892 -0.10320541 -0.1766596
0001c0 ae 5e 34 3f e5 0d af bd 9d 43 e4 3e 59 9c cd 3d
       0.7045697 -0.08547572 0.44582835 0.100395866
0001d0 68 39 df bd 3b 3a d2 be cb ea 53 bf 6b 10 aa bf
       -0.10899621 -0.4106005 -0.8278014 -1.328626
0001e0 de ab a4 3d 61 3f b4 3e 7f 65 1e 3f 28 48 80 3e
       0.080405936 0.35204604 0.6187362 0.2505505
0001f0 a8 30 b5 bd d6 3a 91 3e b6 7b df 3d bd 1a 3e bf
       -0.08847171 0.283652 0.10912268 -0.7425955
000200 6a a4 80 3e f1 dc f7 bd 53 f4 4f 3d 64 9a 0b 3f
       0.25125438 -0.12102688 0.050770115 0.54532456
000210 90 56 1d bf 6f 32 d4 be 1b 14 e7 bd 0e b2 69 be
       -0.6146021 -0.41444728 -0.11283132 -0.22821829
000220 39 eb aa be a6 18 93 bf 0d 6c 7f 3e 68 19 bf bf
       -0.33382586 -1.1491897 0.24943562 -1.4929628
000230 3a 03 1c bf f5 f6 c4 be c2 76 12 3f 7f 1e 53 be
       -0.60942423 -0.38469663 0.5721246 -0.20617102
000240 03 52 cd 3e 70 63 08 be c0 1a 4d bf 5b cb b7 bf
       0.40101632 -0.13319182 -0.8011894 -1.4358934
000250 b7 bd 62 3f 63 51 7c bf 7f 8c 4b 3e d1 88 5f 3d
       0.8857073 -0.98561686 0.19877814 0.054573838
000260 13 14 14 bf 39 f8 7a be 6a 39 f9 3e 1d 61 08 bf
       -0.5784313 -0.24508752 0.48676616 -0.53273183
000270 0a 93 14 3e ee 4b 2a bf 45 4f 4a 3f d0 a2 56 3f
       0.14509216 -0.6652211 0.79027206 0.8384218
000280 35 ed 3b bf 22 08 49 bc a5 49 c3 be 60 dc 05 3f
       -0.73408824 -0.012270005 -0.38142124 0.5228939
000290 ef 56 a0 bf 03 96 bd bf 13 dc 41 3e 14 3a 29 3e
       -1.252653 -1.4811405 0.18931608 0.16526061
0002a0 20 ca 08 3e 49 cd ec be 94 ea b1 bf be bf bf bf
       0.13358355 -0.4625037 -1.3899713 -1.498039
0002b0 94 c1 14 3f 5e 78 c0 be 7e eb 88 3e 49 9b 03 3f
       0.58107877 -0.37591833 0.26742166 0.5140882
0002c0 42 65 c7 be c5 7c 04 3e 2b 09 b0 bd 2b 10 19 3f
       -0.3894444 0.12938221 -0.08595499 0.59790295
0002d0 12 67 9c 3c cc 4d fa bd 70 06 5c be 45 9e b1 be
       0.019092117 -0.1222187 -0.2148683 -0.34691063
0002e0 92 b9 05 bf 0e 9b d8 be a6 77 81 bd 8b 5d 3c 3d
       -0.5223628 -0.42305797 -0.06321649 0.045987647
0002f0 4c 9e 8d 3f e7 98 26 be 1b 0d a7 3d 8d 0a 26 3f
       1.1063933 -0.16269265 0.081567965 0.6485985
000300 e6 b5 4d bf 68 fb 2b 3f 03 47 93 bf 47 be 27 3e
       -0.8035568 0.6718049 -1.1506046 0.16381179
000310 31 5f ec bf d4 da ee 3e 6c c9 03 3f 50 2a 81 be
       -1.846655 0.46651328 0.5147922 -0.25227594
000320 33 6d 1d bc 5c e4 aa bf d3 eb 5b bf 23 c2 d8 bd
       -0.009608555 -1.335094 -0.85906714 -0.10583904
000330 9b 09 47 bf 34 3b 68 bd 23 ff 60 3e d8 7e 19 3f
       -0.7774903 -0.056697085 0.21972327 0.59959173
000340 10 d8 26 3f 85 c9 ad 3b 32 fd 04 bf 18 9f 16 3e
       0.65173435 0.005303564 -0.51948845 0.14709127
000350 b9 38 e8 be 70 56 b0 3e 0a 8a 61 bf ac 68 ad bf
       -0.45355776 0.34440947 -0.88101256 -1.3547568
000360 01 a9 32 bf ba a6 0b 3f 5f 56 3d bf a8 0c 04 bf
       -0.6978913 0.5455128 -0.73959917 -0.5158181
000370 e0 f6 37 bf 5b 87 c9 3e c8 3e b4 3e 27 5f a2 be
       -0.71861076 0.3936108 0.35204148 -0.3171322
000380 41 b3 0e 3f 8c 2a 14 bf 44 6b 68 bc 3c b7 93 bf
       0.5574227 -0.5787742 -0.01418573 -1.1540294
000390 ec 2d 3d bf f7 34 9b 3d c9 16 71 3e 24 e2 0a 3f
       -0.73898196 0.075784616 0.23543848 0.54251313
0003a0 f8 8e 28 3f 00 d1 1e bf 6b 82 49 bf df 70 46 be
       0.65843153 -0.6203766 -0.7871463 -0.19378994
0003b0 7f c1 c5 be e9 01 32 bf 85 ec f4 be 79 6b 70 bf
       -0.38624188 -0.69534165 -0.478367 -0.9391399
0003c0 08 1a e5 3e a7 31 b6 be 0d 65 47 bf 44 8f 40 bf
       0.44746423 -0.35584757 -0.77888566 -0.75218606
0003d0 ba 07 2b 3e 28 e6 83 bf 33 cc f8 3e 96 46 9a be
       0.16702166 -1.0304613 0.48593292 -0.30131978
0003e0 b4 bf e2 3e ef 47 2d 3f a5 2e 4b bf b8 60 87 bd
       0.44286883 0.67687887 -0.7936805 -0.066102445
0003f0 8d a6 1b 3e ac cc d8 be 4c 77 1c 3f f5 33 1a bf
       0.15200253 -0.42343652 0.6111953 -0.6023553
