model/customModel/modelB/ASLclassifier5a.tflite (tflite, 5628 bytes, 4 tensors)

sequential_7/dense_17/BiasAdd/ReadVariableOp f4 [28]
000000 0f a7 b6 3d aa db a0 3e 2f 97 1b bf 5b 98 a5 be
       0.08918583 0.3141759 -0.6077756 -0.323428
000010 39 f6 1a 3f 5c cc fb be ac 93 a9 bd c6 6c a9 3e
       0.60531956 -0.4917935 -0.08280119 0.330908
000020 35 05 98 3e 67 3d 67 3e 32 5f fa 3c 91 17 43 3e
       0.29691473 0.22582017 0.03056297 0.19051959
000030 b8 99 cc be 08 be b0 bd d2 ca d8 be 64 de 2f be
       -0.39961028 -0.086299956 -0.4234224 -0.17174679
000040 d4 74 29 bf e8 6c 9c 3e 88 90 09 3f 7a bf b6 be
       -0.6619389 0.3055184 0.5373616 -0.3569296
000050 07 4e 77 3e b3 b2 54 bd 31 a2 de 3d 73 8e b0 bd
       0.24150859 -0.051928233 0.10870779 -0.0862092
000060 bf 9a c7 3d a2 32 db 3e 82 e5 1a bf af 72 f2 bd
       0.09746312 0.42812067 -0.6050645 -0.118382804

sequential_7/dense_16/BiasAdd/ReadVariableOp f4 [22]
000000 49 e1 1d 3e 84 ab 11 3f e2 d4 10 bf 5e c0 ac 3e
       0.1541797 0.5690234 -0.56574833 0.33740515
000010 94 88 21 bf 97 93 80 3f 6b 20 b9 3f a4 a4 49 bf
       -0.63099027 1.0045041 1.4463018 -0.78766847
000020 b2 97 32 be f0 7d 3e bd 5d 1f a5 3e 74 fa 4d bf
       -0.1744068 -0.046506822 0.3225049 -0.80460286
000030 6a 62 70 3e 28 16 8c 3f ff a6 c5 39 80 40 3b be
       0.23475042 1.0944262 0.0003769919 -0.18286324
000040 44 26 aa be 3b 26 83 3f 75 ad fd 3e 98 08 4b 3d
       -0.3323232 1.0246042 0.495464 0.049568743
000050 0e 28 54 3f 0f 44 8f 3d
       0.8287362 0.06995403

sequential_7/dense_16/MatMul f4 [22, 14]
000000 f7 ee b4 3e 70 32 0c 3f a8 00 52 be de 82 1f 3e
       0.35338566 0.5476446 -0.20508063 0.15577266
000010 41 06 df 3e 38 6c 98 be 26 6e e0 3e fc a4 ec bd
       0.4355946 -0.29770064 0.43834037 -0.11554906
000020 a7 ca ed 3e 17 e2 cd 3f b6 02 91 3e 44 a1 cf 3e
       0.46443674 1.6084622 0.2832238 0.40552723
000030 e0 cf ff 3e 12 58 b0 3f a1 ac c4 bd 24 40 d6 3e
       0.49963284 1.3776877 -0.09603239 0.4184581
000040 ea ee 35 be 00 9b 50 bd d1 66 57 be 29 53 7c be
       -0.1776692 -0.05092907 -0.21035315 -0.24641098
000050 8a 29 f3 bd a6 65 12 40 eb b5 68 be aa 82 e2 bf
       -0.11873157 2.2874541 -0.22725646 -1.7696126
000060 4a 05 7c bd 17 10 a7 be 81 20 a7 bd 6b a0 4e 3e
       -0.06152848 -0.32629463 -0.081604965 0.20178382
000070 23 ed 84 3f ae 97 7b 3e b7 5b 98 c0 32 e7 f5 3e
       1.0384868 0.2456958 -4.7611957 0.4802795
000080 25 92 c4 ba 1b 05 13 3e 5e cb 6e 3b e6 b9 0e 3d
       -0.0014997168 0.14357416 0.0036437134 0.034845255
000090 ea ec 13 be f4 7f bb bd d6 25 b8 bd 5f 89 47 be
       -0.14445844 -0.091552645 -0.08991592 -0.19485997
0000a0 f2 b9 18 be 83 c3 f3 3b 87 cb d1 bc 48 92 fd 3f
       -0.14914683 0.0074390783 -0.025609745 1.9810266
0000b0 65 05 cd be cf 46 ea bd 1e da b0 3e 1f e4 b8 3c
       -0.40043178 -0.11439287 0.3454141 0.022569714
0000c0 84 17 d9 3e 2c dd d7 be 75 1e 12 be 34 99 e3 bf
       0.42400753 -0.42160928 -0.14269431 -1.7781129
0000d0 59 77 d7 3c 5c da e8 3f 48 5c ee 3d e9 93 3b 3f
       0.026302027 1.8191638 0.11638695 0.7327257
0000e0 1f 59 23 be 06 b2 5f 3e 44 af 02 3f 67 51 a1 bd
       -0.15951966 0.21845254 0.51048684 -0.078768544
0000f0 d9 89 42 3f 1d 8e a0 3e af ec b7 3e 37 4a 70 3f
       0.7599159 0.31358424 0.35922763 0.9386324
000100 98 ea 3c 3e f1 f5 9c 3f b8 62 8a 3b 1e 24 51 3f
       0.18448865 1.2262555 0.004223194 0.81695735
000110 c7 3d e0 3e 9b 17 11 bf 51 6a 42 3e 99 92 4f 3f
       0.43797132 -0.56676644 0.18985869 0.81083065
000120 d8 e1 37 bf 84 83 65 be db 1e 9e be b8 2f f7 b9
       -0.71828985 -0.2241345 -0.30882916 -0.00047147064
000130 b7 dd d3 ba 13 14 d7 3d a0 8b 43 3c 27 a8 8b 3f
       -0.0016164099 0.10501876 0.011935145 1.0910691
000140 24 7f be bd 77 e2 49 be 56 eb a3 3e 04 6e 48 bf
       -0.09301594 -0.19715296 0.32015485 -0.7829287
000150 33 91 05 3f a5 77 c6 3d 07 b7 41 be c4 e5 bf 3d
       0.5217468 0.09690789 -0.18917476 0.09369996
000160 dd 4f 14 bf 5b b8 bb 3e bd fc 17 3f 01 e3 d0 3e
       -0.5793436 0.3666409 0.59370023 0.4079819
000170 c4 42 61 3e 9e 23 aa bf a1 4f ce be 21 8d 0a c0
       0.21998125 -1.329212 -0.40295127 -2.1648638
000180 98 3e 97 be 48 7e 85 bf 06 93 cc be 91 7a d2 3e
       -0.29539943 -1.0429163 -0.3995592 0.41109136
000190 6f c5 c9 bf 38 86 b0 be c4 15 52 be 97 f3 c1 3f
       -1.5763377 -0.344774 -0.20516115 1.5152463
0001a0 8e 8a 50 bd 0e 60 d6 bb 36 a4 00 be 59 5a a2 bd
       -0.050913386 -0.0065422123 -0.12562642 -0.07927389
0001b0 00 20 9f 3d 59 09 e0 be 68 c0 56 be aa 9b a1 3d
       0.077697754 -0.43757132 -0.20971835 0.07891019
0001c0 5a d6 e8 3d 67 da ff 3f 3a 6a 25 3e 80 9c 23 bd
       0.11369009 1.9988526 0.16153803 -0.039944172
0001d0 29 24 8e 3c 1f ad 79 be 91 85 f3 bb e9 b8 12 3e
       0.017351227 -0.24382447 -0.007431694 0.1432835
0001e0 54 70 16 3f 0c 62 6e bf ff 10 2b 3e 42 dd 80 c0
       0.5876515 -0.9311836 0.16705702 -4.027009
0001f0 7d 7e c7 3b 43 ff 2a c0 18 72 76 3e c9 6d 4b be
       0.0060880766 -2.67183 0.24066961 -0.19866098
000200 c3 bc 42 bf 68 f0 56 3d 76 ee 5d 3f 94 cd 15 3d
       -0.7606928 0.052475363 0.8669199 0.036573008
000210 e7 65 52 3f 16 1c 2d 3e 42 fb 80 3f 6d e4 9e bf
       0.8218674 0.16905245 1.0076678 -1.241346
000220 77 3b 19 3f 12 3a fd be 1e 9e 02 3f 9c 49 b5 3f
       0.5985636 -0.49458367 0.5102252 1.4163089
000230 5f f8 05 be 76 00 fc 3e 46 7b 85 3f 2d c1 85 be
       -0.13083027 0.49219102 1.0428245 -0.26123944
000240 fb c9 cc be 09 27 b6 3d 62 2b 0c 3f f3 9d 6e 3e
       -0.3999785 0.08894164 0.54753697 0.2330244
000250 77 03 37 3f 43 15 39 bd c8 7d c0 be 5e e5 0f 40
       0.7148966 -0.045186292 -0.37595963 2.2483745
000260 ab f7 92 be e3 a6 aa 3f c4 e0 28 bd 7c e7 5c 3f
       -0.2870458 1.333218 -0.04122998 0.8629072
000270 11 8f c4 3f 1e 03 e5 3d 1c 07 f0 be fd 84 82 3d
       1.535616 0.11182235 -0.46880424 0.06373022
000280 7b c0 28 3e 6f 0c 3d 3e 05 59 3d be 30 93 60 3e
       0.16479675 0.18461774 -0.1849099 0.21931148
000290 a8 28 8b 3d c7 50 a0 bf ea 00 85 3e 3e 90 2b 40
       0.06794864 -1.2524651 0.2597726 2.6806788
0002a0 c3 6a 0e be c2 17 0d 3e 35 bf e2 3d 6b cf b8 be
       -0.13907914 0.13778594 0.11071626 -0.36095747
0002b0 29 79 76 bc b6 b3 9f bc e0 1c ac 3f 05 a2 e5 be
       -0.015043535 -0.019494873 1.3446312 -0.44850174
0002c0 06 79 05 be 5e 29 60 3f 21 d1 48 3e 99 8a 63 bf
       -0.13034448 0.8756312 0.19611026 -0.8888336
0002d0 d1 c0 9b be 31 5a 2c bf 11 7a e3 3e 32 73 57 3f
       -0.30420545 -0.6732512 0.44429067 0.8416015
0002e0 ac d8 d4 3d 64 e4 87 3d 3a 13 01 3e e6 ac 20 3f
       0.103928894 0.06635359 0.1260499 0.6276382
0002f0 15 6c 2e 3d ad 45 84 bf c8 c8 71 3d 36 a5 62 c0
       0.042583544 -1.0333763 0.05902937 -3.5413337
000300 d7 ef 83 be 88 5c 08 c0 a3 cd 6a 3e a6 e5 08 bf
       -0.2576892 -2.1306477 0.22930007 -0.53475416
000310 41 49 2c 3f 43 33 10 3f ae 78 2e bf bc 91 95 3e
       0.67299277 0.5632822 -0.6815289 0.2921275
000320 c4 bb 59 be b7 b2 88 3f 33 62 1a be 68 4d 79 3f
       -0.21263033 1.067954 -0.15076523 0.9738374
000330 c0 fa 4c bd bb 73 8b 3e 2d 47 53 be 05 b8 51 bf
       -0.05004382 0.27236733 -0.2063262 -0.81921417
000340 a9 df 17 be 68 8a 92 bd ab a7 28 3e 41 fd 82 bf
       -0.14831413 -0.07155305 0.1647021 -1.0233537
000350 da d2 fd 3e 65 ea 7e 3e ee 45 f1 3e e1 4d 88 3e
       0.4957493 0.24894102 0.47123665 0.26621917
000360 ab b3 21 3e 36 b5 22 3f dc b6 b6 3e ab a0 1a be
       0.15791194 0.63557756 0.35686386 -0.15100352
000370 72 47 93 3e 2b a3 06 40 98 a6 8e 3f 7a 4f 78 bf
       0.28765446 2.103709 1.114459 -0.9699627
000380 dd dc e3 3d c2 93 b9 3f 5f d9 e2 3e ea 60 60 3c
       0.11126111 1.4498217 0.44306466 0.013694981
000390 00 05 21 bc 13 86 4a 3d 6b 5a 42 3d f6 9c 53 3f
       -0.009827852 0.04944427 0.04744951 0.8266138
0003a0 fa 63 d2 bd 82 28 91 3f ed fc 69 3f 3b 07 83 3f
       -0.10272975 1.1340487 0.9140156 1.0236582
0003b0 3e 4c b3 bd 2e ca d8 be 7d c7 e4 3e 71 5d 3f 3f
       -0.087547764 -0.4234175 0.44683447 0.74751955
0003c0 fb 7f 0f 3e 21 86 7c 3e 59 a0 bf bc ee 85 2e 3f
       0.14013664 0.24660541 -0.02339189 0.6817311
0003d0 80 e2 01 3f 79 10 01 bf 5c a4 0c 3f 73 0e d2 bf
       0.50736237 -0.5041576 0.5493829 -1.641066
0003e0 75 b5 bb 3e 82 ae 9e bd 2e 87 da bd 25 ef 21 3e
       0.36661878 -0.077481285 -0.10670315 0.15813883
0003f0 b5 88 3a bf 0e a5 11 bf 4b da 2c 40 7d 80 87 3b
       -0.7286485 -0.5689248 2.7008235 0.00413519

sequential_7/dense_17/MatMul f4 [28, 22]
000000 e7 e0 07 bf c5 44 41 be 4d fc 90 bf b1 91 43 3f
       -0.5307755 -0.1887389 -1.1326996 0.7639418
000010 61 2e 3d bf 20 1c d7 be 68 8f d7 3e 4e 22 22 3f
       -0.73898894 -0.42013645 0.42101598 0.63333595
000020 88 e6 90 be 5d 97 96 be c7 09 0e be 31 eb 8e bf
       -0.2830088 -0.29412356 -0.13870917 -1.1165525
000030 a0 40 4b 3e cb b9 80 3f 26 27 20 be 5b b2 4e 3d
       0.19848871 1.00567 -0.15639934 0.05046306
000040 5d 9f 19 bf 3c fe 12 3f 07 c2 84 bf 02 a3 22 bf
       -0.60008794 0.5741918 -1.0371712 -0.6352998
000050 a7 af 3b bf 6c 22 1b 3f ab e9 4b 3e d5 d4 60 3e
       -0.733149 0.605994 0.19913356 0.21956189
000060 0d 57 bc 3e a0 18 30 3e a9 f8 10 3e b9 ac cc be
       0.36785164 0.17196894 0.14157356 -0.39975527
000070 c7 13 1c bf 57 16 5f bf 82 42 48 bf c9 e4 25 bf
       -0.6096768 -0.8714346 -0.7822648 -0.64802223
000080 06 b7 53 3f 51 61 d6 3e 94 4c 4a be de 81 5c bf
       0.82701147 0.41871122 -0.19755775 -0.8613566
000090 74 9a d0 3e 83 bf af be fe d5 01 3e ba b6 ab bf
       0.40742838 -0.343258 0.12679288 -1.3415139
0000a0 17 6e 9e be 61 14 1f 3f 00 80 02 bf f1 87 95 3e
       -0.30943367 0.6214047 -0.5097656 0.29205278
0000b0 e8 b1 c5 3e 88 74 6e bf ab b4 0e be 17 fd 10 3f
       0.38612294 -0.9314656 -0.13936107 0.56636184
0000c0 62 57 84 3e 5f 88 e4 be b3 2c d8 bf 05 0e 14 bf
       0.25847918 -0.44635293 -1.6888641 -0.5783389
0000d0 cd d2 d6 3e 8f 28 b6 3e 68 51 c9 3d ed d3 eb 3e
       0.41957703 0.3557782 0.0982998 0.46060124
0000e0 24 e2 5a bf 30 54 a2 bf a7 a2 8d bd 41 4e f0 3d
       -0.85501313 -1.2681942 -0.06915789 0.11733676
0000f0 f5 3a 93 3e df df 3a bf 1f ae 15 bf 1f 7a 7b 3d
       0.28755918 -0.7299785 -0.5846881 0.06139576
000100 73 6c fe 3e e2 d7 39 3d 6d f9 d2 3e fc f6 64 3e
       0.49692115 0.045371898 0.41205922 0.22359842
000110 72 69 27 c0 d7 39 7e 3d b1 c5 18 3d 84 af da 3e
       -2.6158109 0.06206688 0.03729791 0.42712033
000120 5d 29 0c bf e3 b3 00 3f 47 b0 2b 3f 85 53 3a 3f
       -0.54750615 0.50274485 0.6706585 0.7278369
000130 d2 ca 74 bf 52 91 b3 3e 1d 4d 70 bf 23 b2 68 bf
       -0.9562198 0.35071808 -0.93867666 -0.90896815
000140 f1 3c f2 3e d2 62 44 3e 9e 42 bd 3e 58 0b df be
       0.4731212 0.19178322 0.36964887 -0.43563342
000150 c3 e6 99 bf 4a e6 96 bc 3f d4 fb 3e b4 12 39 be
       -1.2023548 -0.018420357 0.49185368 -0.18073541
000160 20 2a bb 3e 18 34 43 3e a1 d3 2b bf d8 ce 00 3e
       0.36555576 0.19062841 -0.67119795 0.12578905
000170 01 ad 60 bf db fa 46 3f 86 54 b7 3e 35 7d 75 bf
       -0.87763983 0.77726525 0.35806674 -0.95894176
000180 90 57 06 bf c9 5d b3 3e 20 9f 3b 3e e3 34 32 bf
       -0.5247736 0.3503249 0.1832242 -0.6961195
000190 7b 26 28 3e 33 58 95 3e 5c b8 5a bf c0 40 13 bf
       0.16420929 0.29168853 -0.8543756 -0.57520676
0001a0 3d 47 f7 be 35 3b 9c 3d 00 9e 2f bf 03 2b 32 be
       -0.48296538 0.0762848 -0.68600464 -0.1739922
0001b0 fb d2 0b 3d 90 b9 82 be d9 19 15 3f 08 d7 d7 bf
       0.034136754 -0.25532198 0.58242565 -1.6862497
0001c0 4b a8 a7 bf b4 4a 16 3f 69 92 bc 3d c9 7c c3 be
       -1.3098234 0.5870774 0.09207613 -0.3818114
0001d0 62 a7 6e bf 49 9e fa 3e 3a b5 17 3e 83 79 0e 3e
       -0.93224156 0.48948887 0.14815226 0.1391354
0001e0 2b 91 b0 3e 37 e9 7b be 98 98 ab be a3 f4 8e bf
       0.34485754 -0.24600683 -0.33514857 -1.1168407
0001f0 ae 68 94 3e cb 1f 29 be 7a 22 8b 3e 78 89 85 be
       0.28986114 -0.16516034 0.2717474 -0.26081443
000200 27 25 5a bf 37 39 aa 3e a4 78 04 3e fa 3b 10 3e
       -0.8521294 0.33246776 0.12936646 0.14085379
000210 be 6f 4f bf 95 32 43 3f 5e 16 15 c0 f4 0e 98 bf
       -0.8102988 0.7624906 -2.3294902 -1.1879563
000220 59 a0 15 bf 20 14 6d 3e 75 48 98 3f 0e f7 a7 3b
       -0.58447796 0.23152208 1.1897112 0.0051258868
000230 fb 3a a0 3f dd 54 82 be 5b 4e 4a bf 41 a2 16 c0
       1.2518 -0.2545537 -0.7902581 -2.3536532
000240 46 29 0d bf 77 f1 89 3f e9 28 3d 3f fa 6e 15 3d
       -0.55141103 1.0776814 0.7389055 0.03648279
000250 6b 65 a7 be 60 93 9c 3d 1e 36 e0 3d 7e cc 9d be
       -0.32694563 0.07645297 0.10947822 -0.30820078
000260 06 32 aa 3e 5e b3 f5 be d2 d4 62 3e ca 4a 5e 3e
       0.3324129 -0.4798841 0.22151497 0.21708217
000270 cf d3 3e c0 99 78 a7 bf 4f ce 48 3e ac 0f 01 3f
       -2.9816778 -1.3083678 0.1960995 0.5041454
000280 41 63 22 3f f9 9c 05 3f 60 f6 4e bd d6 89 35 bf
       0.634327 0.52192646 -0.05052793 -0.70913446
000290 11 e0 f4 bf 70 ca be bf 0e 15 fa 3d 7d 13 04 3f
       -1.913088 -1.4905529 0.12211047 0.51592237
0002a0 0b 83 28 3f 36 d9 7d 3d ef ce 44 3f 99 e1 c5 3c
       0.65824956 0.061974727 0.76878256 0.024155425
0002b0 49 71 1d bf 3e ce ce 3e 96 c9 33 3f fe f9 32 bf
       -0.61500984 0.40391725 0.7022947 -0.6991271
0002c0 c3 80 25 3e 95 0b f2 be 7b 39 04 bf d0 8f a6 3c
       0.161624 -0.4727446 -0.5165021 0.020332247
0002d0 4e 96 bf bf 06 03 4e be 96 d4 08 be 73 89 69 bd
       -1.4967744 -0.20118341 -0.13362345 -0.057015847
0002e0 5e 38 a4 3e c5 df ed 3e 2a 41 68 3e b5 49 2d 3f
       0.32074255 0.46459785 0.22681108 0.67690593
0002f0 20 ef ca be c5 6b cb be b1 05 0f bf 42 f1 e8 be
       -0.39635563 -0.3973066 -0.5586806 -0.45496565
000300 c0 ff 88 bf 2b 98 d8 3c 23 5d bc be ff 9e c8 3e
       -1.0703049 0.026439747 -0.36789808 0.39183804
000310 a7 56 46 3e 0e 3d 00 3f 7f b6 a5 3e 16 8c 1b 3e
       0.19368993 0.5009316 0.32365796 0.15190157
000320 22 1f 0d c0 5a 32 0c be 36 b5 84 bf fc 55 e2 be
       -2.2050252 -0.13691083 -1.0367801 -0.44206226
000330 fb fb 6b 3f 22 be bc 3d 39 6f 5f 3e 5c 33 1c 3f
       0.92181367 0.092159525 0.21819772 0.6101587
000340 6f 83 dd 3a 38 31 0a 3f c7 f1 c5 be ae ff e5 3d
       0.0016900132 0.5398135 -0.38661024 0.11230408
000350 0d 49 c9 3d 50 4e 9e bf e3 09 83 bf 7a 2c b8 3e
       0.098283865 -1.2367649 -1.0237392 0.35971433
000360 91 47 21 bf b1 7b 6b be 99 36 26 bf d0 b9 96 3e
       -0.62999827 -0.22996403 -0.6492706 0.2943864
000370 6e d4 90 bd 6f fc 33 3e 5b 0e 5b bd d0 41 1d bf
       -0.07071768 0.17576765 -0.053480487 -0.61428547
000380 a9 22 c0 3e f6 e6 e8 3e b1 88 f8 3d 5f f7 93 3e
       0.37526444 0.4548871 0.12135447 0.28899667
000390 0c af 40 bf 5e 03 41 bf 94 fd 97 bc b3 b1 9a bd
       -0.752671 -0.7539576 -0.018553533 -0.07553425
0003a0 e3 e2 d6 3d b8 eb 66 bd 4e 2c ea 3e 18 e4 2c be
       0.10492494 -0.056377143 0.45736927 -0.16883886
0003b0 8b 3a 65 3e 3f 8f 9f be b2 82 84 3d 04 02 2d 3d
       0.22385614 -0.31163976 0.06470241 0.04223825
0003c0 78 4c c3 3e 0a c9 24 bf a7 cb b7 bf a5 0c 09 3f
       0.3814428 -0.6436926 -1.4359025 0.5353492
0003d0 50 71 68 3f 13 08 7f bf 21 f4 dd 3d c2 87 aa be
       0.907979 -0.99621695 0.108375795 -0.333067
0003e0 ce f7 26 3f 49 1f 29 bd 23 76 f6 3e 20 cc cb 3d
       0.6522187 -0.0412896 0.48137006 0.09951043
0003f0 5d 92 43 bf 24 58 f1 bf a2 64 f2 be 03 d0 c0 3d
       -0.7639521 -1.8855023 -0.47342402 0.09414675
