model/customModel/modelB/ASLclassifier4a.tflite (tflite, 13176 bytes, 6 tensors)

sequential/dense/BiasAdd/ReadVariableOp f4 [80]
00000000: b6da 003e a5b7 2a3f 8fa3 a2be a49d 6c3d
00000010: 0b4a 0e3e 1488 953e bd75 04be 3fe6 a6be
00000020: 4ba3 f03c 76f8 883e c07c e3bd a393 0cbf
00000030: 6176 47be ede1 85be 7ee3 83be 4ab3 8fbe
00000040: 5d0b bebe 32b2 bdbe 2e47 90be 7644 04be
00000050: 4d55 223e 1b1a e3bd e09a f7be 7a01 c3be
00000060: 73c7 2bbe f656 41be 853a 14bf b4a8 de3e
00000070: 926b 88be 5d74 88be 82e7 85bd 4da7 5dbb
00000080: be34 7bbe 28af acbd 99c2 2d3e 6ea2 253f
00000090: 370c 7dbe 17af 133f 887f 89be 5bd6 a2be
000000a0: a7f9 b1be d917 363e 90ec 89be 80c2 8ebd
000000b0: 56be f9bd 709c 47be 79fd 9b3e 6b88 49bd
000000c0: 0023 b7be 72ce 0b3e 4faa 1cbe 010f b73b
000000d0: 2dcd 9ebe 3faa e5be 5886 2bbf 7671 95be
000000e0: f4b6 b6be d1b6 cbbd 4c26 3cbe 8fda 99bd
000000f0: d22f a03e 80c8 2dbe a39c 0bbe 9a56 58be
00000100: 4c98 adbe 16f9 32bf 39fd bfbe 963b 613e
00000110: 51d8 93be 9002 a3be eed5 cebd 64bf 08bf
00000120: 79c6 acbd ac37 053b e219 8f3d a0ac 68be
00000130: 8632 b43e 85e4 7cbe 1fb3 223f 6a9c e73e
0.12583432 0.6668647 -0.3176541 0.057767525 0.13895433 0.29205382 -0.12935539 -0.3259754
0.02937474 0.2675206 -0.111077785 -0.54912776 -0.19478752 -0.2614893 -0.257595 -0.28066474
-0.37118044 -0.37050015 -0.28179306 -0.12916741 0.15852852 -0.110889636 -0.48360348 -0.38087064
-0.16775303 -0.18880829 -0.57901794 0.43488085 -0.2664457 -0.26651278 -0.06538297 -0.0033821643
-0.24531838 -0.08431846 0.16968764 0.64700973 -0.24711691 0.5768904 -0.2685511 -0.31804165
-0.34760782 0.17782535 -0.26938295 -0.06970692 -0.12194507 -0.1949327 0.30466822 -0.049202364
-0.3576889 0.13652971 -0.15299343 0.0055865054 -0.31015912 -0.4485645 -0.6700187 -0.29188126
-0.35686457 -0.09946979 -0.18373984 -0.0751239 0.31286484 -0.16971016 -0.13633971 -0.21126786
-0.33905256 -0.69911325 -0.3749788 0.21995386 -0.28875974 -0.31837893 -0.100993976 -0.5341704
-0.08436293 0.0020327372 0.06987359 -0.22722101 0.35194796 -0.24696548 0.6355457 0.45236522

sequential/dense_2/BiasAdd/ReadVariableOp f4 [28]
00000000: 5fd2 9d3e 82fb 21be 24f5 36bf e81c c63e
00000010: fd55 a73c 2f9a 02be 9160 0e3e 7e43 babe
00000020: 2836 e63e e523 14bd 00e4 50be 1f1b 0f3f
00000030: 9383 72be 10d3 283e 407d 80be 863d 2bbd
00000040: 57f4 a43e 3058 bb3d ffd2 45be 4b3e 16bf
00000050: bfc0 aa3e 7dcc c83d 3e8e 4a3e 6f17 683d
00000060: eb0f d2be 9d18 493c db19 84be fa34 bcbe
0.30824563 -0.15818599 -0.71467805 0.3869393 0.020426745 -0.12754129 0.13904025 -0.36379617
0.44963193 -0.036167044 -0.20399475 0.5590076 -0.23683004 0.16486764 -0.25095558 -0.04180672
0.32217667 0.0914768 -0.1931877 -0.586888 0.3335018 0.09804628 0.19780824 0.056662973
-0.4102777 0.012273935 -0.25800976 -0.36759168

sequential/dense_1/BiasAdd/ReadVariableOp f4 [50]
00000000: bd3a 303d ddbe 0fbe a619 f03e 96a8 f93e
00000010: 831d 26be 3846 993d 9c26 90bd 21aa 5bbe
00000020: 5247 023f 3384 5bbe ac6f 98bd a084 7abe
00000030: bca4 49bd 6ff5 b0bc 561c cb3d bd78 f2bc
00000040: 49e1 253e 43a6 663d 3a45 70bc a462 56be
00000050: c83e 7abd 77c3 2a3f fc51 30be 2847 7ebe
00000060: ef0a cebe 375d 133f 8af4 02bd 82f1 133f
00000070: f542 a1be 5c55 4a3f 0959 963e 7a7b edbe
00000080: 20c3 6d3e cf12 99ba cec7 093f 59ab b63d
00000090: a4a9 8abe 8412 c33c 3d9c 573f 17fd 97be
000000a0: ec4a 723f 6764 213d 10ee 243e d94c 8f3e
000000b0: a30b 583e 0d64 c1be 8eba 87be aaa6 3a3e
000000c0: 4dbb 0c3f 2909 d33d
0.043024767 -0.14037652 0.46894568 0.48761433 -0.16222195 0.07484096 -0.07038614 -0.21451618
0.50890076 -0.21437149 -0.07443175 -0.24464655 -0.04922937 -0.021601407 0.09917514 -0.029598588
0.1619922 0.056310903 -0.014664942 -0.20936066 -0.06109503 0.66704506 -0.17218775 -0.24831831
-0.40242717 0.5756411 -0.031971492 0.57790387 -0.31496397 0.790365 0.29364803 -0.46383268
0.23218966 -0.0011678579 0.538205 0.08919401 -0.2708255 0.02381254 0.84222776 -0.2968528
0.9464557 0.03940239 0.16106439 0.27988318 0.21098189 -0.37771645 -0.26509517 0.1822764
0.549733 0.103044815

sequential/dense/MatMul i1 [80, 61] scale=0.016958503 zero_point=0
00000000: 0403 3302 fd17 01fe 11ff ff09 ff05 03f5
00000010: 0506 0404 0605 fd02 0409 01ee 0008 0201
00000020: 0203 fa0a 0302 05f8 0104 0200 b401 fccf
00000030: 0400 04f7 fe06 00fe 0302 fe00 010d fc12
00000040: ed00 04fd 01ff 025f fe03 f90a 02f9 060b
00000050: fd07 07fc 1606 f305 12e5 0402 e6ff fdf7
00000060: 01fd e508 13f5 05ff f30b f904 07ef fe07
00000070: 0afa 05f7 f804 eeec 0bf0 f22c fbeb 23f7
00000080: f82d effb 24f8 0720 01f3 fb07 fcf0 0700
00000090: e803 ff23 0501 0503 f90f 0501 0c00 fe0a
000000a0: 0707 fc03 ff00 08fc 1a07 fdf8 0905 e708
000000b0: ffe1 11f9 cf17 f506 0441 eefe 15ef f607
000000c0: f9e2 f5f0 1008 1a02 0816 07ef 100a 1808
000000d0: 060b 0602 0502 0ff7 0510 e704 0605 fd02
000000e0: fd00 fafa f304 e8f4 0005 f8f7 03ef f90c
000000f0: efec fbf8 0205 2ff3 021e f4f3 18fd f4fd
0.06783401 0.050875507 0.86488366 0.033917006 -0.050875507 0.39004558 0.016958503 -0.033917006
0.28829455 -0.016958503 -0.016958503 0.15262653 -0.016958503 0.08479252 0.050875507 -0.18654354
0.08479252 0.101751015 0.06783401 0.06783401 0.101751015 0.08479252 -0.050875507 0.033917006
0.06783401 0.15262653 0.016958503 -0.30525306 0.0 0.13566802 0.033917006 0.016958503
0.033917006 0.050875507 -0.101751015 0.16958503 0.050875507 0.033917006 0.08479252 -0.13566802
0.016958503 0.06783401 0.033917006 0.0 -1.2888463 0.016958503 -0.06783401 -0.83096665
0.06783401 0.0 0.06783401 -0.15262653 -0.033917006 0.101751015 0.0 -0.033917006
0.050875507 0.033917006 -0.033917006 0.0 0.016958503 0.22046053 -0.06783401 0.30525306
-0.32221156 0.0 0.06783401 -0.050875507 0.016958503 -0.016958503 0.033917006 1.6110578
-0.033917006 0.050875507 -0.11870952 0.16958503 0.033917006 -0.11870952 0.101751015 0.18654354
-0.050875507 0.11870952 0.11870952 -0.06783401 0.37308708 0.101751015 -0.22046053 0.08479252
0.30525306 -0.45787957 0.06783401 0.033917006 -0.44092107 -0.016958503 -0.050875507 -0.15262653
0.016958503 -0.050875507 -0.45787957 0.13566802 0.32221156 -0.18654354 0.08479252 -0.016958503
-0.22046053 0.18654354 -0.11870952 0.06783401 0.11870952 -0.28829455 -0.033917006 0.11870952
0.16958503 -0.101751015 0.08479252 -0.15262653 -0.13566802 0.06783401 -0.30525306 -0.33917007
0.18654354 -0.27133605 -0.23741904 0.74617416 -0.08479252 -0.35612857 0.5935476 -0.15262653
-0.13566802 0.76313263 -0.28829455 -0.08479252 0.6105061 -0.13566802 0.11870952 0.5426721
0.016958503 -0.22046053 -0.08479252 0.11870952 -0.06783401 -0.27133605 0.11870952 0.0
-0.40700406 0.050875507 -0.016958503 0.5935476 0.08479252 0.016958503 0.08479252 0.050875507
-0.11870952 0.25437754 0.08479252 0.016958503 0.20350203 0.0 -0.033917006 0.16958503
0.11870952 0.11870952 -0.06783401 0.050875507 -0.016958503 0.0 0.13566802 -0.06783401
0.44092107 0.11870952 -0.050875507 -0.13566802 0.15262653 0.08479252 -0.42396256 0.13566802
-0.016958503 -0.5257136 0.28829455 -0.11870952 -0.83096665 0.39004558 -0.18654354 0.101751015
0.06783401 1.1023027 -0.30525306 -0.033917006 0.35612857 -0.28829455 -0.16958503 0.11870952
-0.11870952 -0.5087551 -0.18654354 -0.27133605 0.27133605 0.13566802 0.44092107 0.033917006
0.13566802 0.37308708 0.11870952 -0.28829455 0.27133605 0.16958503 0.40700406 0.13566802
0.101751015 0.18654354 0.101751015 0.033917006 0.08479252 0.033917006 0.25437754 -0.15262653
0.08479252 0.27133605 -0.42396256 0.06783401 0.101751015 0.08479252 -0.050875507 0.033917006
-0.050875507 0.0 -0.101751015 -0.101751015 -0.22046053 0.06783401 -0.40700406 -0.20350203
0.0 0.08479252 -0.13566802 -0.15262653 0.050875507 -0.28829455 -0.11870952 0.20350203
-0.28829455 -0.33917007 -0.08479252 -0.13566802 0.033917006 0.08479252 0.79704964 -0.22046053
0.033917006 0.5087551 -0.20350203 -0.22046053 0.40700406 -0.050875507 -0.20350203 -0.050875507

sequential/dense_1/MatMul i1 [50, 80] scale=0.019020336 zero_point=0
00000000: 26f1 2006 0afa f609 f5f8 1121 160b 0822
00000010: e603 0500 fe00 0810 ed06 0f03 1006 d4f9
00000020: 03fc 10ff 24f1 1401 3cf5 ee1d 0c02 fdef
00000030: 0a00 0907 1f59 f20a 0117 1205 0500 d701
00000040: e8fa 19f2 03ff 1506 fc03 17f3 01ec 0ce5
00000050: 34ef e203 02fe 0504 1006 08fa f0fc 0f05
00000060: 05f8 fa07 fa03 0afe fc08 0be2 08ed 1901
00000070: 0a02 0603 0502 020d 53f5 2410 ffef 1314
00000080: 12fa 0a0e 0133 f80f 0b0c 0911 ef21 0f08
00000090: e01c 0210 0505 090e f2e9 f510 0318 02f0
000000a0: 1609 eb08 0b03 14ef f403 0f14 f3f1 060f
000000b0: eefd 120b ff02 df0c f3e7 0aef f613 e516
000000c0: fd06 0c13 fdf8 1021 1efa cc06 0ff4 0316
000000d0: e508 0e13 0525 b00a 0923 14f3 f823 e80c
000000e0: a0fb 0e14 ec04 fd30 ebf5 18ff f6e5 03e7
000000f0: 11fd 0aff 05fc 01ed ee04 0f0f 130f 101d
0.7227728 -0.28530502 0.60865074 0.11412202 0.19020335 -0.11412202 -0.19020335 0.17118302
-0.20922369 -0.15216269 0.32334572 0.62767106 0.41844738 0.20922369 0.15216269 0.64669144
-0.49452874 0.05706101 0.09510168 0.0 -0.03804067 0.0 0.15216269 0.30432537
-0.3613864 0.11412202 0.28530502 0.05706101 0.30432537 0.11412202 -0.83689475 -0.13314235
0.05706101 -0.07608134 0.30432537 -0.019020336 0.6847321 -0.28530502 0.3804067 0.019020336
1.1412201 -0.20922369 -0.34236604 0.5515897 0.22824404 0.03804067 -0.05706101 -0.32334572
0.19020335 0.0 0.17118302 0.13314235 0.5896304 1.6928099 -0.2662847 0.19020335
0.019020336 0.43746772 0.34236604 0.09510168 0.09510168 0.0 -0.7798338 0.019020336
-0.45648807 -0.11412202 0.4755084 -0.2662847 0.05706101 -0.019020336 0.39942706 0.11412202
-0.07608134 0.05706101 0.43746772 -0.24726437 0.019020336 -0.3804067 0.22824404 -0.5135491
0.9890575 -0.32334572 -0.57061005 0.05706101 0.03804067 -0.03804067 0.09510168 0.07608134
0.30432537 0.11412202 0.15216269 -0.11412202 -0.30432537 -0.07608134 0.28530502 0.09510168
0.09510168 -0.15216269 -0.11412202 0.13314235 -0.11412202 0.05706101 0.19020335 -0.03804067
-0.07608134 0.15216269 0.20922369 -0.57061005 0.15216269 -0.3613864 0.4755084 0.019020336
0.19020335 0.03804067 0.11412202 0.05706101 0.09510168 0.03804067 0.03804067 0.24726437
1.5786879 -0.20922369 0.6847321 0.30432537 -0.019020336 -0.32334572 0.3613864 0.3804067
0.34236604 -0.11412202 0.19020335 0.2662847 0.019020336 0.9700371 -0.15216269 0.28530502
0.20922369 0.22824404 0.17118302 0.32334572 -0.32334572 0.62767106 0.28530502 0.15216269
-0.60865074 0.5325694 0.03804067 0.30432537 0.09510168 0.09510168 0.17118302 0.2662847
-0.2662847 -0.43746772 -0.20922369 0.30432537 0.05706101 0.45648807 0.03804067 -0.30432537
0.41844738 0.17118302 -0.39942706 0.15216269 0.20922369 0.05706101 0.3804067 -0.32334572
-0.22824404 0.05706101 0.28530502 0.3804067 -0.24726437 -0.28530502 0.11412202 0.28530502
-0.34236604 -0.05706101 0.34236604 0.20922369 -0.019020336 0.03804067 -0.62767106 0.22824404
-0.24726437 -0.4755084 0.19020335 -0.32334572 -0.19020335 0.3613864 -0.5135491 0.41844738
-0.05706101 0.11412202 0.22824404 0.3613864 -0.05706101 -0.15216269 0.30432537 0.62767106
0.57061005 -0.11412202 -0.9890575 0.11412202 0.28530502 -0.22824404 0.05706101 0.41844738
-0.5135491 0.15216269 0.2662847 0.3613864 0.09510168 0.7037524 -1.5216268 0.19020335
0.17118302 0.66571176 0.3804067 -0.24726437 -0.15216269 0.66571176 -0.45648807 0.22824404
-1.8259523 -0.09510168 0.2662847 0.3804067 -0.3804067 0.07608134 -0.05706101 0.91297615
-0.39942706 -0.20922369 0.45648807 -0.019020336 -0.19020335 -0.5135491 0.05706101 -0.4755084
0.32334572 -0.05706101 0.19020335 -0.019020336 0.09510168 -0.07608134 0.019020336 -0.3613864
-0.34236604 0.07608134 0.28530502 0.28530502 0.3613864 0.28530502 0.30432537 0.5515897

sequential/dense_2/MatMul i1 [28, 50] scale=0.013070187 zero_point=0
00000000: 03dc f611 f103 130c bce0 db0e eee3 dc04
00000010: deb2 e4f7 2c07 1019 1bec e5e4 150b 001e
00000020: 011c 09e9 091a f300 fdf5 f4d2 edfb d4fa
00000030: 081c 0d19 1118 fcd8 0deb 2cfe eefc 0bfd
00000040: 24e5 ff0b 03fa d5f0 c4c8 e8d8 0009 e4e7
00000050: f6bf 1807 df01 090a 1209 02da d621 f5f6
00000060: d616 18e8 1dfe 1ce8 1bef 0c11 f6f6 0d1b
00000070: f626 fe00 fd21 fa1a 0bbf f2e2 1bf8 2103
00000080: e4d1 0300 fc00 ece9 12e6 eb1a f3f6 dbf7
00000090: 1211 12e8 d3e0 ff19 fee5 f602 f218 1fd6
000000a0: fdf7 fc03 e3ee ed11 f904 fe0d c8bb fc19
000000b0: fc02 d5e1 f90f 11f0 0a04 14fc fa10 1508
000000c0: f926 f00e ede7 c00f 1d20 2207 1dd6 1606
000000d0: f405 fdb5 f7ed 10e6 e8ec 0418 eefd 0cec
000000e0: e6fb e3d3 dd05 e50d 191a e0dc e0e9 faff
000000f0: fdd7 c4ff 0fe9 0818 1201 1ef5 0d10 f007
0.039210558 -0.47052673 -0.13070187 0.22219317 -0.1960528 0.039210558 0.24833354 0.15684223
-0.88877267 -0.41824597 -0.4835969 0.18298261 -0.23526336 -0.3790354 -0.47052673 0.052280746
-0.44438633 -1.0194745 -0.36596522 -0.11763168 0.5750882 0.091491304 0.20912299 0.32675466
0.35289505 -0.26140374 -0.35289505 -0.36596522 0.2744739 0.14377205 0.0 0.3921056
0.013070187 0.36596522 0.11763168 -0.3006143 0.11763168 0.33982486 -0.16991243 0.0
-0.039210558 -0.14377205 -0.15684223 -0.6012286 -0.24833354 -0.065350935 -0.5750882 -0.078421116
0.10456149 0.36596522 0.16991243 0.32675466 0.22219317 0.31368446 -0.052280746 -0.5228075
0.16991243 -0.2744739 0.5750882 -0.026140373 -0.23526336 -0.052280746 0.14377205 -0.039210558
0.47052673 -0.35289505 -0.013070187 0.14377205 0.039210558 -0.078421116 -0.56201804 -0.20912299
-0.7842112 -0.73193043 -0.31368446 -0.5228075 0.0 0.11763168 -0.36596522 -0.32675466
-0.13070187 -0.8495621 0.31368446 0.091491304 -0.43131617 0.013070187 0.11763168 0.13070187
0.23526336 0.11763168 0.026140373 -0.4966671 -0.5489478 0.43131617 -0.14377205 -0.13070187
-0.5489478 0.2875441 0.31368446 -0.31368446 0.3790354 -0.026140373 0.36596522 -0.31368446
0.35289505 -0.22219317 0.15684223 0.22219317 -0.13070187 -0.13070187 0.16991243 0.35289505
-0.13070187 0.4966671 -0.026140373 0.0 -0.039210558 0.43131617 -0.078421116 0.33982486
0.14377205 -0.8495621 -0.18298261 -0.3921056 0.35289505 -0.10456149 0.43131617 0.039210558
-0.36596522 -0.61429876 0.039210558 0.0 -0.052280746 0.0 -0.26140374 -0.3006143
0.23526336 -0.33982486 -0.2744739 0.33982486 -0.16991243 -0.13070187 -0.4835969 -0.11763168
0.23526336 0.22219317 0.23526336 -0.31368446 -0.58815837 -0.41824597 -0.013070187 0.32675466
-0.026140373 -0.35289505 -0.13070187 0.026140373 -0.18298261 0.31368446 0.40517578 -0.5489478
-0.039210558 -0.11763168 -0.052280746 0.039210558 -0.3790354 -0.23526336 -0.24833354 0.22219317
-0.091491304 0.052280746 -0.026140373 0.16991243 -0.73193043 -0.9018429 -0.052280746 0.32675466
-0.052280746 0.026140373 -0.56201804 -0.40517578 -0.091491304 0.1960528 0.22219317 -0.20912299
0.13070187 0.052280746 0.26140374 -0.052280746 -0.078421116 0.20912299 0.2744739 0.10456149
-0.091491304 0.4966671 -0.20912299 0.18298261 -0.24833354 -0.32675466 -0.83649194 0.1960528
0.3790354 0.41824597 0.44438633 0.091491304 0.3790354 -0.5489478 0.2875441 0.078421116
-0.15684223 0.065350935 -0.039210558 -0.980264 -0.11763168 -0.24833354 0.20912299 -0.33982486
-0.31368446 -0.26140374 0.052280746 0.31368446 -0.23526336 -0.039210558 0.15684223 -0.26140374
-0.33982486 -0.065350935 -0.3790354 -0.58815837 -0.45745653 0.065350935 -0.35289505 0.16991243
0.32675466 0.33982486 -0.41824597 -0.47052673 -0.41824597 -0.3006143 -0.078421116 -0.013070187
-0.039210558 -0.53587765 -0.7842112 -0.013070187 0.1960528 -0.3006143 0.10456149 0.31368446
0.23526336 0.013070187 0.3921056 -0.14377205 0.16991243 0.20912299 -0.20912299 0.091491304
