model/customModel/modelB/ASLclassifier3.tflite (tflite, 7708 bytes, 6 tensors)

sequential_1/dense_5/BiasAdd/ReadVariableOp f4 [28]
0	0xbef8ddde	-0.4860677
1	0xbf7f933a	-0.99834025
2	0xc021e13b	-2.529372
3	0x3ecdb326	0.40175742
4	0x4001b661	2.0267565
5	0x3e0f6a2d	0.14005347
6	0x3f3c6e6e	0.73606
7	0x3cb787a0	0.022403538
8	0x3f2a119f	0.6643314
9	0x3f544d7c	0.8293073
10	0x3e5123c3	0.20423798
11	0x3fcbbb9e	1.5916631
12	0xbf9520d0	-1.1650639
13	0xbfc84025	-1.5644575
14	0x3ea5f48c	0.32413137
15	0x3f7a648a	0.9780966
16	0x4032fc3b	2.796645
17	0xbe0995b8	-0.1343602
18	0x3f2a0f9a	0.66430056
19	0xbf9507dd	-1.1643025
20	0xbd200061	-0.03906286
21	0x3f925354	1.143168
22	0x3f13d4aa	0.57746375
23	0xbed5ce4e	-0.4175896
24	0xbfd65729	-1.6745349
25	0xbef4cbe0	-0.47811794
26	0xc01a49e1	-2.4107592
27	0xbfda8856	-1.7072856

sequential_1/dense_4/BiasAdd/ReadVariableOp f4 [10]
0	0x4021f278	2.530424
1	0x3faee25b	1.3662828
2	0x3fd99d7d	1.7001187
3	0xbee0f9e1	-0.43940642
4	0x3ba046ca	0.004891251
5	0x393dc2a4	0.00018096954
6	0x3fe98913	1.8244957
7	0x400123b7	2.0178049
8	0x3f154f21	0.58323866
9	0x3fdf2165	1.7432066

sequential_1/dense_3/BiasAdd/ReadVariableOp f4 [20]
0	0xbfecba31	-1.8494321
1	0xbf7e757b	-0.9939801
2	0xbec11e09	-0.37718228
3	0xbed41865	-0.41424862
4	0xbf38605c	-0.7202203
5	0xbf896912	-1.073519
6	0xbe118d62	-0.1421409
7	0xbf1d92d7	-0.61552185
8	0xbf3dce4a	-0.741429
9	0xbfc3560d	-1.5260636
10	0x3ee7d84e	0.45282215
11	0xbeaa54f0	-0.33267927
12	0xbfab12d8	-1.3365126
13	0xbf54af20	-0.8307972
14	0x3f34de1d	0.7065142
15	0xbf1d89be	-0.615383
16	0x3f01602a	0.5053736
17	0xbf58691e	-0.84535396
18	0xbfdc8eea	-1.7231114
19	0xbf3762be	-0.71635044

sequential_1/dense_3/MatMul f4 [20, 43]
0	0xbda5a934	-0.080889136
1	0xbcbec300	-0.023286343
2	0x3e2cab70	0.16862273
3	0x3e0bef5b	0.13665526
4	0x3f51f2d7	0.8201117
5	0xbe9da268	-0.3078797
6	0x3e839b22	0.25704294
7	0xbf385d74	-0.720176
8	0x3d16f96d	0.036858965
9	0xbf85f5f2	-1.0465682
10	0xbdf91df1	-0.12163914
11	0xbf055008	-0.52075243
12	0xbd63fad3	-0.055659126
13	0xbe8dec03	-0.27719125
14	0xbdc52c8f	-0.096276395
15	0xbe072134	-0.1319626
16	0xbca51094	-0.020149507
17	0xbded8e7e	-0.11599444
18	0xbcaa48db	-0.020786693
19	0xbf3de433	-0.7417633
20	0xbdd816e6	-0.105512425
21	0xbe48f01d	-0.19622846
22	0xbdee5875	-0.116379656
23	0x3e7427b0	0.23843265
24	0x3dad25df	0.08454489
25	0x3e9d8504	0.30765545
26	0x3dbc4281	0.09192372
27	0xbeec56aa	-0.4615987
28	0xbe85ca85	-0.26131073
29	0xbe00488f	-0.12527679
30	0xbeec1e24	-0.46116745
31	0x3ef60779	0.48052576
32	0xbf272b38	-0.6530032
33	0x3f5bbad5	0.8583196
34	0x3e7cd95b	0.2469229
35	0x3b4f2335	0.0031606678
36	0xbf07ff93	-0.5312435
37	0x3dffb9a5	0.12486581
38	0xbf304435	-0.68854076
39	0x3ec1ea90	0.3787427
40	0xbf01dead	-0.507304
41	0x3f046f69	0.517325
42	0xbf18b2d5	-0.59647876
43	0xbcc20a2d	-0.023686493
44	0xbe6d92ff	-0.23200606
45	0xbe151a05	-0.14560707
46	0xbda03c4c	-0.07824001
47	0xbf15cc52	-0.58514893
48	0x3d0fe645	0.03513171
49	0x3d4ff365	0.05076923
50	0x3e82634c	0.25466383
51	0x3d93661b	0.071972094
52	0x3f4cf4c8	0.80061007
53	0x3df8731e	0.12131332
54	0xbea1c8d3	-0.3159853
55	0x3dce7526	0.10080938
56	0x3eb56eb1	0.35436013
57	0x3c2e0e5f	0.0106235435
58	0x3f33fbb2	0.7030593
59	0xbe2a9885	-0.16659744
60	0x3f6558aa	0.89588416
61	0xbe714aba	-0.23563662
62	0xbefaaac3	-0.48958406
63	0x3e00ef06	0.1259118
64	0x3ea69706	0.32537097
65	0x3d87f2d3	0.06638112
66	0x3f15a5b9	0.58456
67	0x3d9d2d9e	0.076747164
68	0x3f2e831f	0.68168825
69	0x3dc9965c	0.09843132
70	0xbd45025a	-0.048097946
71	0x3e1b76e1	0.15182067
72	0x3ee294ec	0.44254243
73	0x3dd9dd08	0.106378615
74	0x3ece724f	0.40321586
75	0x3d6fce8f	0.0585466
76	0x3ea4af8c	0.32165182
77	0x3de3ccae	0.11123024
78	0x3eb1bafc	0.3471297
79	0x3e021fd3	0.12707452
80	0x3efd85a8	0.49516034
81	0x3c87c57d	0.016573662
82	0x3efe7e57	0.49705765
83	0xbda857db	-0.08219882
84	0x3ed6d173	0.41956672
85	0xbdcdaf5e	-0.10043214
86	0xbd6a6c6e	-0.057232313
87	0x3e61b02e	0.22039863
88	0xbe580915	-0.21097215
89	0x3d8783f3	0.06616964
90	0x3eabd942	0.33564192
91	0x3cad9b34	0.02119217
92	0x3e5785fd	0.21047206
93	0x3c9b3e0c	0.018950485
94	0x3e3a732d	0.18207999
95	0xbc7ab3fc	-0.015301701
96	0x3e043db6	0.12914166
97	0xbd157952	-0.036492653
98	0x3d9ba59a	0.07599945
99	0xbd62e56b	-0.05539457
100	0x3ded9325	0.11600331
101	0xbcad4e59	-0.021155523
102	0x3dcba702	0.099439636
103	0xbd427cc5	-0.04748227
104	0x3e079ef9	0.13244237
105	0x3cd28a75	0.025700787
106	0x3dc4dff3	0.096130274
107	0x3cdfbae2	0.027310792
108	0x3da8d72e	0.08244167
109	0xbc45a6d8	-0.012063704
110	0x3d98976c	0.074507564
111	0xbc271af6	-0.010199299
112	0xc0114224	-2.269662
113	0xbc82f720	-0.015986979
114	0x3e0ec285	0.13941391
115	0xbd052be8	-0.032512575
116	0x3dd42340	0.10358286
117	0x3c3e0556	0.011597952
118	0x3c295ebc	0.010337528
119	0x3da04f62	0.07827641
120	0x3ed51ba8	0.41622663
121	0x3d06fb25	0.032954354
122	0x3e49d0f5	0.19708617
123	0xbb93a399	-0.0045055863
124	0x3e0b017c	0.13574785
125	0x3d068311	0.03283984
126	0x3c5f03cf	0.013611748
127	0x3d248c52	0.040172882
128	0x3dbc63be	0.09198712
129	0xbea62ae0	-0.32454586
130	0xbe8e119a	-0.27747804
131	0x3e56d92e	0.20981285
132	0x3ec4cf73	0.3843952
133	0xbe333e19	-0.17504157
134	0x3e8524db	0.2600468
135	0x3d4b266c	0.04959719
136	0x3f50a9ef	0.815093
137	0x3dcda963	0.100420736
138	0x3f89d759	1.0768844
139	0x3c6e66f4	0.014550913
140	0xbed75b21	-0.42061713
141	0x3da29c49	0.07939965
142	0xbceb8cdc	-0.02875369
143	0x3b946dad	0.004529676
144	0x3e207a8b	0.15671746
145	0xbe2c081d	-0.1679997
146	0x3e78d3ac	0.24299496
147	0xbe09ba9e	-0.13450095
148	0xbf4afe58	-0.7929435
149	0x3e04e0bb	0.12976353
150	0x3dbce659	0.09223623
151	0x3d5bd9ff	0.053674694
152	0x3f1cfab0	0.6132002
153	0x3ddd7847	0.10813957
154	0x3f51a461	0.8189145
155	0x3db15b61	0.08660007
156	0xbf1df37d	-0.6169966
157	0x3e310d6c	0.17290276
158	0x3e07defe	0.13268659
159	0x3ce74cda	0.028234888
160	0x3f144d6c	0.57930636
161	0x3cc673f7	0.024225218
162	0x3f4a6dc3	0.79073733
163	0x3e07d531	0.1326492
164	0xbde01f5e	-0.10943483
165	0x3debb5a1	0.11509252
166	0x3e815955	0.25263467
167	0xbd47d713	-0.048789095
168	0x3f271faf	0.6528272
169	0x3c1950fb	0.009357686
170	0x3f75f8a5	0.96082526
171	0x3d323a03	0.043512356
172	0x3dc6a403	0.096992515
173	0x3e6c3796	0.2306808
174	0x3e913b2f	0.28365466
175	0x3b3dc3b6	0.0028955764
176	0xbea01c50	-0.312716
177	0xbe26fff8	-0.16308582
178	0x3d1c0fa8	0.03810087
179	0xbf01c75b	-0.5069482
180	0x3e0d9796	0.13827357
181	0xbf67bf06	-0.90525854
182	0x3dd7be77	0.10534375
183	0x3efd89e2	0.4951926
184	0x3dc6fef1	0.09716595
185	0xbe30d12f	-0.17267297
186	0xbbc6a271	-0.006061845
187	0xbf0577ee	-0.52136123
188	0xbe145bd1	-0.1448815
189	0xbf3fa304	-0.7485812
190	0xbe4a5812	-0.19760159
191	0x3f181384	0.5940478
192	0x3e2c2a5c	0.16813034
193	0xbe8c590d	-0.2741169
194	0x3de6ac3e	0.11263321
195	0xbf0157fa	-0.50524867
196	0x3da65511	0.08121694
197	0xbf2e38fd	-0.6805571
198	0x3d8e6dfb	0.06954571
199	0x3ddd8ae0	0.10817504
200	0x3e30f45d	0.17280717
201	0xbea9755d	-0.33097354
202	0x3d8b5443	0.06803181
203	0xbeb902c7	-0.3613493
204	0x3d0b91cd	0.034074593
205	0xbef841b8	-0.4848764
206	0x3d50c0bf	0.050965067
207	0xbec138f3	-0.3773876
208	0x3e16226b	0.14661567
209	0xbed68baf	-0.41903445
210	0xbb1e1fd5	-0.002412786
211	0xbee77516	-0.45206517
212	0xbd7d248f	-0.061802443
213	0xbeeb6b5a	-0.4598034
214	0xbd8cc253	-0.06873002
215	0x3c4b663e	0.012414513
216	0xbe99903e	-0.2999286
217	0xbdc09f1c	-0.09405348
218	0xbdb0eeda	-0.08639307
219	0x3eae33c9	0.34023884
220	0xbc3eb07c	-0.011638757
221	0xbd1a0b8d	-0.037608672
222	0x3c498a32	0.012301015
223	0xbd602190	-0.054719508
224	0x3d6e3e70	0.058165014
225	0xbc9122cf	-0.017716793
226	0x3d1cb76f	0.038260873
227	0xbcc36a32	-0.023854349
228	0x3d0f7e55	0.03503259
229	0xbc673f43	-0.014114204
230	0x3d8b6090	0.06805527
231	0x3d78782a	0.060661472
232	0x3d148fd1	0.036269967
233	0xbc8a191b	-0.016857674
234	0x3dac782b	0.08421358
235	0x3b9f9c6d	0.0048709423
236	0x3c865c3e	0.016401406
237	0xbc6f94ff	-0.014622926
238	0xbbbba8d1	-0.0057269116
239	0x3df48691	0.11939729
240	0xbd59b6c9	-0.053152833
241	0x3ddf1b8d	0.10893927
242	0x3db43630	0.08799398
243	0x3cbcba94	0.023038186
244	0xbcb60410	-0.022218734
245	0x3d0af868	0.033928305
246	0xbd4f6bc6	-0.05063989
247	0x3e31f67d	0.17379184
248	0xbdcffe57	-0.10155933
249	0x3ea81f83	0.32836542
250	0xbc9bc4b2	-0.01901469
251	0x3da6a1b2	0.0813631
252	0xbcf4303c	-0.029808156
253	0x3db717dc	0.08940098
254	0x3c3466c1	0.011010827
255	0xc0487594	-3.1321764

sequential_1/dense_4/MatMul f4 [10, 20]
0	0x3e92877b	0.28618988
1	0xbddaf3ce	-0.10691033
2	0x3fe1e112	1.7646811
3	0xbe251e5b	-0.16124861
4	0xbe045d22	-0.12926152
5	0x3f9edb5a	1.2410691
6	0xbe8603e0	-0.2617483
7	0x3fb6f4bf	1.429344
8	0x3f665d7e	0.8998641
9	0xbef53606	-0.4789278
10	0xbfa705a6	-1.3048599
11	0xbdf0c960	-0.11757159
12	0x3f54bd5e	0.8310145
13	0x3f1edc24	0.6205466
14	0xbf2b13b3	-0.66826934
15	0xbe5fb8f0	-0.21847892
16	0xbec12ea4	-0.37730896
17	0x3f524908	0.82142687
18	0xbf1155c6	-0.56771505
19	0xbe12b8db	-0.1432833
20	0x3f739162	0.9514371
21	0xbb8d2a7d	-0.0043080435
22	0xbeffd96e	-0.49970573
23	0xbdd36551	-0.10322059
24	0x3e2041c3	0.15650086
25	0x3fe46015	1.7841822
26	0x3e26aaef	0.16276143
27	0x3e8b1d6c	0.27170885
28	0xbdcfc9bd	-0.101459004
29	0x3f0d300b	0.5515143
30	0xbf8933ba	-1.0718911
31	0x3e8a3bf2	0.2699886
32	0xbd91deba	-0.0712256
33	0x3f986fdf	1.190914
34	0x3ebd9018	0.37023997
35	0x3e6831e3	0.2267528
36	0xbe447ea4	-0.19188935
37	0xbd8e8996	-0.06959836
38	0x3f922616	1.1417873
39	0x3e0d5848	0.13803208
40	0x3d93cb85	0.07216553
41	0xbc0acfc3	-0.008472386
42	0xbe1684b8	-0.14699066
43	0x3e1fed41	0.15617849
44	0xbcd8b324	-0.026452608
45	0x3efe6963	0.4968978
46	0x3fb4a35a	1.4112351
47	0xbedb4c6b	-0.4283174
48	0xbf16ef49	-0.5895887
49	0x3ec71db7	0.38889858
50	0x3eca9b62	0.39571673
51	0xbe865297	-0.26234886
52	0x3ea5084c	0.32232893
53	0xbf73e6d3	-0.95274085
54	0x3d7bea72	0.06150288
55	0xbe77e5ce	-0.24208757
56	0x3d9b5931	0.07585371
57	0xbf0ef306	-0.55839574
58	0x3ee0ae2e	0.4388289
59	0x3e06e3b7	0.13172804
60	0x3d977a72	0.073964015
61	0x3f27879f	0.65441316
62	0x3fd9d532	1.7018187
63	0x3eca1e27	0.3947613
64	0x3ec58ed2	0.38585526
65	0x3f5add58	0.85493994
66	0x3f211c11	0.6293345
67	0x3cd0e0eb	0.025497874
68	0x3f381085	0.71900207
69	0x3f8bd207	1.092347
70	0xbe91b03f	-0.28454778
71	0x3f63cbd3	0.88982886
72	0x3ed78aca	0.42098075
73	0x3f2096c5	0.62730056
74	0xbd670d56	-0.056409203
75	0x3f594e28	0.8488488
76	0x3d68e169	0.056855593
77	0x3f2cf9bb	0.6756856
78	0x3f665d0c	0.8998573
79	0x3e007c06	0.12547311
80	0x3ea0cbcd	0.31405488
81	0x3f9c846a	1.222791
82	0x3c958a8b	0.018254539
83	0x3fae7b91	1.363146
84	0x3f91c90d	1.1389481
85	0x3f98c477	1.1934956
86	0x3e428749	0.1899692
87	0x3f12c011	0.5732432
88	0x356ebe00	8.8938395e-07
89	0xbe8c3cea	-0.27390224
90	0xbed84d79	-0.42246607
91	0x3f20a1d1	0.6274691
92	0x3f56e54b	0.83943623
93	0x3f5411a0	0.82839394
94	0xbda7f767	-0.08201485
95	0x3f2743e8	0.6533799
96	0x3cc9e220	0.024643958
97	0x3ac9d494	0.0015398436
98	0xbeb5b333	-0.3548828
99	0x3f84d26d	1.0376717
100	0xc0282ea8	-2.6278477
101	0x3f014c39	0.5050693
102	0xbb8a9bea	-0.004230012
103	0x3f0328b8	0.51234007
104	0xbfd2403e	-1.6425855
105	0x3f0cc0f6	0.54981935
106	0x3d01a220	0.031648755
107	0xbbf532bb	-0.007482854
108	0x3c78f36b	0.015194754
109	0x3f3c14a8	0.7346902
110	0xbed7c2c6	-0.42140788
111	0x3d937903	0.072008155
112	0x3fe29c86	1.7704017
113	0x3e68bfc2	0.227294
114	0xbf8a5eb3	-1.081015
115	0x3e03d02e	0.12872383
116	0x3f33036c	0.69927096
117	0x3af5a342	0.0018740671
118	0xbffb8d9f	-1.9652594
119	0xc03c7630	-2.9447136
120	0x3da6b4e2	0.081399694
121	0xbc71f41c	-0.014767673
122	0xbd59ac8c	-0.05314307
123	0x3d771888	0.06032613
124	0x3e02291a	0.12710992
125	0x3db74953	0.08949532
126	0x3dd6070d	0.104505636
127	0x3e12d14f	0.14337657
128	0xbd8503d4	-0.06494871
129	0xc04b3b78	-3.1755047
130	0xbe09edfc	-0.1346969
131	0x3e6de8d4	0.23233348
132	0x3e770ec1	0.24126722
133	0xbd03973f	-0.03212666
134	0x3d83f784	0.06443694
135	0x3e8685e9	0.2627404
136	0x3e21c902	0.15799335
137	0xbd49ac0c	-0.049236342
138	0xc02728ef	-2.6118734
139	0x3e44fe3b	0.19237606
140	0x3e560b37	0.20902716
141	0x3ecd607e	0.4011268
142	0x3f92540d	1.14319
143	0x3eb8b556	0.36075848
144	0x3ee502cb	0.44728693
145	0x3eb9626c	0.36207902
146	0x3ecfedf6	0.40611237
147	0x403874f5	2.8821385
148	0x3e7c7138	0.24652565
149	0x3e564a65	0.20926817
150	0xbf0be504	-0.54646325
151	0x3ebb1aa8	0.36543775
152	0xbe06aef4	-0.13152677
153	0xbf15b421	-0.5847798
154	0xbd0b5943	-0.034020673
155	0x3ea92b61	0.33040908
156	0xbe61b0ac	-0.22040051
157	0x3e82bdd4	0.25535452
158	0x3ed45d8b	0.41477618
159	0x3ea01874	0.31268656
160	0x3f677ada	0.9042183
161	0xbe20be72	-0.15697649
162	0xbe262286	-0.16224107
163	0x3dc4a1eb	0.09601196
164	0x3e8ca1a8	0.27467084
165	0x3ef71292	0.48256356
166	0x3d992537	0.07477801
167	0xbccc4551	-0.024935396
168	0x3f30a63e	0.69003665
169	0xbd966f9e	-0.07345508
170	0x3f9b692b	1.214147
171	0xbb75a053	-0.0037479594
172	0x3e88fba5	0.2675449
173	0xbef5d76f	-0.48015925
174	0x3fc8bb29	1.5682117
175	0x3c1aedc8	0.0094561055
176	0x3faf47b7	1.3693761
177	0x3f28c386	0.65923345
178	0x3f2cb405	0.6746219
179	0x3f07d8ef	0.5306539
180	0xbd232311	-0.039828364
181	0xbc229b5c	-0.009924736
182	0xbec6d7b8	-0.38836455
183	0xbe0c0a39	-0.13675775
184	0x391cc976	0.0001495237
185	0xbd866038	-0.06561321
186	0x3edc0a37	0.42976543
187	0x3deea1a4	0.11651924
188	0xc0c8dc9a	-6.276929
189	0xbe592b48	-0.21207917
190	0x3db9bf92	0.09069742
191	0x3e18929e	0.1489968
192	0x3c9a16c8	0.018809691
193	0xc095e8dc	-4.684675
194	0x3dd7d73a	0.10539098
195	0x3e0c1bb8	0.13682449
196	0x3df162b6	0.11786406
197	0xc0cdd151	-6.4318013
198	0xbe0421df	-0.12903546
199	0xbda03168	-0.078219235

sequential_1/dense_5/MatMul f4 [28, 10]
0	0xbf267d1a	-0.6503464
1	0x3f0f3cc2	0.55952084
2	0x3f2b2e24	0.6686728
3	0xbf33a6be	-0.70176303
4	0xbec24fc9	-0.37951496
5	0x3f427a3a	0.7596775
6	0x3e9dc4bb	0.30814156
7	0xbe406c30	-0.1879127
8	0x3cc7138d	0.024301315
9	0xbf10bd74	-0.5653908
10	0x3fb77668	1.433301
11	0x3e8fd8c6	0.28095073
12	0xbf60cc58	-0.87811804
13	0xbf532d55	-0.82491046
14	0xbf2b4b38	-0.6691165
15	0xbd5365ad	-0.051610637
16	0xbf33fe88	-0.7031026
17	0xbee8fe69	-0.455066
18	0xbe8bad6f	-0.27280757
19	0xbe9549a7	-0.29157755
20	0x3dc816e5	0.09769992
21	0xbe5c67c8	-0.21523964
22	0xbf2329f8	-0.63735914
23	0x3e4e15f7	0.20125566
24	0x3f0e3280	0.55545807
25	0xbd598f3c	-0.053115115
26	0x3ec18e55	0.37803903
27	0xbebdca24	-0.37068284
28	0x3e94dcaf	0.29074618
29	0xbf73206b	-0.9497134
30	0x3f2acd6a	0.66719687
31	0xbeadd6fb	-0.3395308
32	0x3ea7ed70	0.32798338
33	0xbfa7d03f	-1.3110427
34	0x3f591758	0.84801245
35	0xbe9b40b8	-0.30322814
36	0xbd431119	-0.047623727
37	0xbdabf482	-0.083962455
38	0xbed31ead	-0.4123434
39	0xbfef1f69	-1.8681461
40	0x3f565b51	0.8373309
41	0x3e38b290	0.18036866
42	0x3f6458ad	0.8919781
43	0xbf8773e7	-1.0582246
44	0xbf128905	-0.57240325
45	0x3db38633	0.08765831
46	0xbf68917d	-0.90847
47	0xbf5202cf	-0.82035536
48	0x3e28f085	0.16498001
49	0xc015c107	-2.3399065
50	0xbe0a4d8f	-0.13506149
51	0x3e86543d	0.26236144
52	0xbf17d4c1	-0.5930901
53	0x3f419191	0.7561274
54	0xbf51414e	-0.8174027
55	0x3e892ca8	0.26791883
56	0x3f421661	0.758154
57	0xbee19650	-0.44059992
58	0x3e1fadf6	0.15593705
59	0xbf67611d	-0.9038256
60	0xbf9f9c39	-1.246955
61	0xbf105816	-0.5638441
62	0xbe51721d	-0.20453687
63	0x3d9e35f5	0.07725135
64	0x3d70eb09	0.058817897
65	0xbf5ba7a0	-0.8580265
66	0xbea01053	-0.31262454
67	0x3f65895d	0.89662725
68	0xbf98717e	-1.1909635
69	0x3f89fff9	1.0781242
70	0xbf1a4ebf	-0.60276407
71	0xbf9949a8	-1.1975603
72	0xbd46c50c	-0.048527762
73	0x3ebb6ac7	0.36604902
74	0x3e70b936	0.23508152
75	0xbf56dec4	-0.83933663
76	0x3f0ecf67	0.5578522
77	0x3f1869bb	0.5953633
78	0xbf1586fe	-0.58409107
79	0xbd252ce2	-0.040326007
80	0x3ea33251	0.31874326
81	0x3f7f6fbb	0.9977986
82	0xbed060bc	-0.40698802
83	0xbed1adaf	-0.40952823
84	0xbe77bef2	-0.24193934
85	0x3d3baf74	0.045821622
86	0xbf2437f1	-0.6414786
87	0xbf9bb0c8	-1.2163324
88	0xbf23a84a	-0.63928664
89	0x3f7fa508	0.9986119
90	0xbf7bab0e	-0.98307884
91	0x3f2fdf74	0.6870034
92	0x3e0c48ed	0.13699694
93	0x3e904aeb	0.28182158
94	0x3e62eeb7	0.22161375
95	0xbefad699	-0.4899185
96	0x3f39589f	0.7240085
97	0xbe302cea	-0.17204633
98	0xbf7aed53	-0.9801838
99	0xbf804763	-1.0021785
100	0x3e478161	0.19482948
101	0xbf0a9750	-0.54137135
102	0x3e4a8ae1	0.1977954
103	0xbe127ce9	-0.14305462
104	0xbf9fee0a	-1.2494519
105	0xbff0a08c	-1.8798995
106	0x3d3cfc4c	0.046139047
107	0x3ee99204	0.45619214
108	0xbfa0f0bf	-1.257347
109	0x3eb07b05	0.34468856
110	0xbeee7e7d	-0.46580878
111	0x3cfef648	0.031123295
112	0xbf3287a3	-0.69738215
113	0xbfd57e70	-1.6679211
114	0x3dfbf873	0.12303247
115	0x3f85231c	1.040134
116	0xbf8344c4	-1.0255361
117	0x3f088ed7	0.53342956
118	0x3edb9c8c	0.42892873
119	0xbb3097bb	-0.0026945907
120	0xbefcaa49	-0.49348667
121	0xbe5a28aa	-0.21304575
122	0x3e678ee6	0.22613105
123	0x3e64eb89	0.22355475
124	0xbea68919	-0.32526472
125	0x3e9b3ca1	0.30319694
126	0x3e74285d	0.23843522
127	0xbeafd0e7	-0.34339067
128	0x3f0714e0	0.5276623
129	0xbe326966	-0.17423019
130	0xbf042dab	-0.51632184
131	0xbe56770f	-0.20943855
132	0x3e17c8a7	0.14822637
133	0x3f15ea05	0.5856021
134	0xbeaa7eb2	-0.33299786
135	0x3e70ed89	0.23528112
136	0x3ef0581f	0.4694223
137	0xbf160ed4	-0.58616376
138	0x3f0a1767	0.5394196
139	0xbe34bf1b	-0.17651026
140	0x3edd889b	0.43268284
141	0xbe5773a7	-0.21040212
142	0xbd7b5e28	-0.06136909
143	0xbe1ed59b	-0.15511172
144	0x3f29d0c0	0.6633415
145	0xbe661c89	-0.22471823
146	0xbee5a2fe	-0.44850916
147	0xbf448455	-0.7676442
148	0x3e7179b1	0.23581578
149	0xbfa3c537	-1.279456
150	0xbfb61009	-1.4223644
151	0xbfa010b1	-1.2505094
152	0xbf699fc0	-0.91259384
153	0x3e076908	0.1322366
154	0x3e20deb0	0.15709949
155	0xbd5b4b16	-0.053538404
156	0xbd954f91	-0.07290567
157	0x3f249afa	0.64298975
158	0x3efb5584	0.4908868
159	0x3eed01c6	0.46290416
160	0xbfb2534e	-1.3931673
161	0xbf4f574d	-0.80992585
162	0xbf6acdfa	-0.91720545
163	0x3ecda402	0.4016419
164	0x3f040ad9	0.5157905
165	0xbe530f57	-0.2061132
166	0xbcd656c3	-0.026164418
167	0xbf31fe20	-0.6952839
168	0x3eefd698	0.4684341
169	0x3e82a348	0.255152
170	0x3f2b4196	0.6689695
171	0xbea1f1aa	-0.31629688
172	0x3dfb7da8	0.122798264
173	0xbee42229	-0.44557312
174	0xbf6d1d16	-0.92622507
175	0xbfb783bc	-1.4337077
176	0x3e02f4df	0.12788723
177	0x3dd52a1e	0.10408424
178	0xbf974464	-1.1817746
179	0x3dd85a00	0.10564041
180	0xbc96f642	-0.018427972
181	0x3edfdc58	0.43722796
182	0x3f4d93dd	0.80303746
183	0xbf5900d9	-0.8476692
184	0xbf238bd5	-0.6388524
185	0x3f04860a	0.5176703
186	0xbe6b1bfd	-0.22959895
187	0xbe8af68b	-0.27141222
188	0xbd59449d	-0.05304395
189	0xbf77aab1	-0.9674483
190	0xbf1a835c	-0.6035669
191	0x3e7cd0da	0.24689046
192	0x3e40458d	0.18776532
193	0xbf47d275	-0.78055507
194	0xbe8a80ff	-0.2705154
195	0x3f702519	0.93806607
196	0x3e7c8531	0.24660183
197	0x3f23d38d	0.63994676
198	0x3e9e5e79	0.30931452
199	0xbfa79dc2	-1.3095019
200	0x3f04a8c1	0.5182
201	0xbe949c6d	-0.29025593
202	0x3dbaba77	0.091175966
203	0xbeb22770	-0.34795713
204	0xbf9f0b6d	-1.2425362
205	0xbfbdae1c	-1.4818759
206	0x3e29fe6f	0.16600965
207	0x3e6180f9	0.22021855
208	0xbfa60e1d	-1.2973057
209	0x3ddc28f9	0.107500024
210	0x3e464664	0.1936279
211	0xbf46fdd3	-0.77731055
212	0xbe9e5454	-0.30923712
213	0xbe3a8db1	-0.18218113
214	0xbf898ca8	-1.074605
215	0xbfed1948	-1.852334
216	0x3e6f5c3e	0.23375031
217	0x3ec2782b	0.37982306
218	0xbfbb719f	-1.464405
219	0x3f04541f	0.5169086
220	0x3f78301e	0.9694842
221	0xbef05ed3	-0.46947345
222	0xbf38664b	-0.72031087
223	0xbf4b8574	-0.7950051
224	0xbfcddd93	-1.6083244
225	0xbf96a24a	-1.1768277
226	0xbc71509e	-0.014728693
227	0xbb04732c	-0.002021025
228	0x3cee24f4	0.029070355
229	0xbef09a1f	-0.46992585
230	0x3ee59ea4	0.44847596
231	0xbd3de6cd	-0.046362687
232	0x3ec61f4e	0.3869576
233	0xbfa18c67	-1.2620972
234	0xbf016b69	-0.5055452
235	0x3e7a735b	0.24458067
236	0xbf9f4879	-1.2443992
237	0x3e74ddd6	0.23912749
238	0xbd1cf89e	-0.038323037
239	0x3ebdf4a7	0.37100717
240	0xbf53b04e	-0.82690895
241	0x3f876d5e	1.0580251
242	0x3d8c6c1f	0.0685656
243	0x3f1f59bc	0.622463
244	0xbf0f0531	-0.55867296
245	0x3f110eb5	0.56663066
246	0x3fe958df	1.8230246
247	0xbfbc9d4f	-1.4735507
248	0xbd5ecfaf	-0.05439728
249	0xbeb08419	-0.34475783
250	0xbefa3bbf	-0.48873708
251	0x3eaded41	0.33970073
252	0xbf65ef62	-0.89818394
253	0xbf013ea8	-0.5048623
254	0x3e4ab431	0.197953
255	0x3f1ce397	0.61284775
