model/customModel/modelB/ASLclassifier3a.tflite (tflite, 16064 bytes, 10 tensors)

sequential/dense_4/MatMul f4 [28, 30]
00000000: e168 0c3f b6d1 71be b4a1 25bd f9d2 753e
00000010: 17de 353f f7e7 0b3d 1ef3 db3e 765f bbbd
00000020: 5512 4bbf 99fa cfbd 8f66 ebbe 93b1 5ebe
00000030: 8052 fbbe aef0 8abe d258 ef3c 5dd6 01bf
00000040: aff9 f8be e7b6 6a3e 635f 503e c3fa abbd
00000050: 2a3a 0dbf f605 b0be 66d0 40bf 2e24 f5bd
00000060: 00f2 75be dcdd 90be 7374 863e 9c4c c5bd
00000070: 48c3 5a3e 143a 853e e620 1abf c066 f7be
00000080: 5e1f 56bc 6e9e a3bf 1864 133f 5ed6 58bf
00000090: f8f9 f3bd 3544 f9be da12 6abf 73ac 963e
000000a0: 8ba0 37be a6ea 453f c428 f1bd 718a ed3e
000000b0: a212 473e 8a99 0d3f e027 a43e 1d6c 21be
000000c0: 7f05 44bf a757 473e 7e00 0bbf 7957 203e
000000d0: 52b0 af3e 3093 383e 98eb f63e 16e1 06bf
000000e0: aa1c 30be effd ecbd 4206 19be 05d9 49bf
000000f0: 23db 58bf a4de 85bf 84e3 9d3d a008 2bbf
00000100: d8eb f5be b336 0b3d 81db c73e 22c6 843e
00000110: 1433 22bf 275f aebe b0a0 82be 79c5 bbbe
00000120: f799 39bf efa2 7a3d af50 bf3e 9847 e3be
00000130: e207 27bf 9bee 04be e9da 01bf 4ee3 ba3e
00000140: 8b09 443e 9dd0 233f 5c8f df3d 2aed eabc
00000150: 7543 a2be ed0c d53e e92a 023f a6ae 8cbe
00000160: 4c75 103e d8fb 94bf b1f0 88bf 9108 1dbf
00000170: 743e 9a3e 95ea 71be 6435 ddbe bf46 dbbe
00000180: 770c 8ebe 2111 12be ebfe 44bf a73e c13e
00000190: fd3e 80be e016 633e 1486 163e c5dd 52bf
000001a0: 33a5 593e f9de fb3d 7ae5 69bf 76bf 22bf
000001b0: 4321 cabc 31a5 943e b24c 233e 4991 a03d
000001c0: 3525 0abf 300a 35bf 43de 9c3d 35d3 f73e
000001d0: aa5d 7fbe eb03 533f da39 aa3e bee3 29be
000001e0: 9cc2 0fbf abf2 d1be 734c 56bf b118 03bf
000001f0: a5e1 2c3e e701 aabd 4c8a 52bf c7c9 42bf
00000200: e36a 0abf 7a08 d63e c469 9ebe 138f 3fbb
00000210: fae1 d13e 20e1 dcbb f713 d23e 4b7e 5ebf
00000220: cc1c 9b3e 67e5 dc3e ed91 233f 6506 1fbe
00000230: 0898 9ebe 909e 9fbe 8f03 99bb 1852 023f
00000240: 679e 0fbf d669 babd 1fc5 b03e 77f2 4d3c
00000250: 74bf e7be 628d 093e 478e 68bf 2c3d 1bbf
00000260: 26fa 78be 1ca3 45bf cee6 32bf 593f dfbd
00000270: 217a debd 8e6f 11bf a9a5 29bf d9d2 e13e
00000280: 77bf b53d 5a37 cbbe 1d47 51bf a17d 353e
00000290: edb1 023f f462 8f3e 2ba9 07bf f58f 0f3e
000002a0: 1823 dabe b2cc 1e3c 0771 9c3e 3310 d6be
000002b0: 21a7 053d f585 f7be cb30 053f c9fe 11bf
000002c0: e365 a73e f44c 3dbf afd2 00bf 20b4 173f
000002d0: 58d5 a6bd f062 003f 294f 143f a7ef 08bf
000002e0: 62f2 be3d 9b76 cdbc 2829 84be f465 e9be
000002f0: d871 103f c2e7 05bf 787a b93d 0bb8 14be
00000300: 436e e2be 1a3d a2be 25d0 2dbe afb8 bebc
00000310: 4007 92be f57f 64bf 7e89 b5be b779 2abe
00000320: b492 6dbd 9788 67be 00cb 6e3e 841d 63be
00000330: e77f 1fbe 18f1 a3bd bf16 34bc 8266 9bbe
00000340: 04bd ccbc 4026 9a3e 0bd9 a9be 73a5 bbbe
00000350: 7a87 1b3e e83b 01bf 281a 1ebf 1e86 e63e
00000360: 798b 81be 070b 22bf 5581 363f edca 88bf
00000370: 1433 3d3e d44f 12be a7ad e33d 9b9c 31bf
00000380: 6902 eb3e 338a c8be 7ca7 f4bd c122 0dbf
00000390: 181b 82be 150a 17bf d975 4d3e d38f 013f
000003a0: f535 333e 2f33 f2be 6269 f8bd b514 9ebe
000003b0: 8789 d4bd 4f29 31be 7765 d3bc edaf 583d
000003c0: 6db9 96be ce54 343e 2d38 143f 2d9a 4f3f
000003d0: 68e0 21bf 64d4 47bf 10fe e9be 7883 01bf
000003e0: 5262 1bbf 828b a43e db8d 153f de0c 58be
000003f0: f158 d03e 597f 553e 441c 35bb faca 913e
0.5484753 -0.23615155 -0.040437415 0.24006261 0.7104201 0.034156766 0.4295892 -0.09149067
-0.7932485 -0.101552196 -0.45976683 -0.21747427 -0.4908638 -0.2713675 0.029217158 -0.5071772
-0.48627993 0.22921334 0.20348887 -0.083974384 -0.55166876 -0.34379548 -0.7531799 -0.11969791
-0.24018097 -0.28294265 0.2626072 -0.09633753 0.21363556 0.26020873 -0.6020645 -0.4832058
-0.013069002 -1.2782724 0.57574606 -0.847021 -0.11912912 -0.4868485 -0.91435015 0.29428443
-0.17932336 0.7731117 -0.117753536 0.46394685 0.19440702 0.55312407 0.32061672 -0.15763898
-0.76570886 0.1946703 -0.54297626 0.15658368 0.3431421 0.18024898 0.4822662 -0.52687204
-0.17198434 -0.115718715 -0.14943793 -0.7884677 -0.84709376 -1.045857 0.07709411 -0.66810036
-0.48031497 0.033987712 0.39034656 0.25932413 -0.6335919 -0.3405697 -0.2551322 -0.36674097
-0.72500557 0.06119054 0.37366244 -0.4439056 -0.65246403 -0.12981646 -0.50724655 0.36501545
0.19144265 0.63990194 0.109160155 -0.028677542 -0.3169209 0.41611424 0.50846726 -0.27476996
0.14107245 -1.1639357 -1.0698453 -0.61341196 0.30125773 -0.23624642 -0.43204796 -0.42827412
-0.27743885 -0.14264347 -0.76951474 0.37743112 -0.25048056 0.22176695 0.14699584 -0.82369643
0.21254425 0.12298388 -0.9136578 -0.63573396 -0.024674064 0.2903228 0.15947226 0.07840211
-0.53963023 -0.7071867 0.076595806 0.48403326 -0.24938074 0.82427853 0.33247262 -0.16590783
-0.56156325 -0.41005453 -0.837104 -0.5120955 0.16882952 -0.08301144 -0.82242274 -0.7608914
-0.54069346 0.41803342 -0.30940068 -0.0029229566 0.4099272 -0.006740704 0.41030857 -0.8691146
0.30295408 0.4314377 0.6389454 -0.15529783 -0.30975366 -0.3117566 -0.0046696137 0.50906515
-0.5610108 -0.09102218 0.3452539 0.012570015 -0.45263255 0.1343284 -0.908421 -0.60640216
-0.24314174 -0.7720201 -0.6988343 -0.109007545 -0.10863138 -0.56810844 -0.662684 0.44106176
0.0887441 -0.39690667 -0.81749135 0.17723705 0.51052743 0.28005183 -0.52992505 0.14019759
-0.426049 0.009692358 0.30554983 -0.41809234 0.03263009 -0.4834439 0.5202758 -0.57029396
0.3269492 -0.73945546 -0.5032148 0.59259224 -0.08146161 0.50150967 0.5793329 -0.5349068
0.093235746 -0.02508097 -0.2581265 -0.45585597 0.5642371 -0.5230676 0.09056562 -0.14523332
-0.44224748 -0.31687242 -0.16973932 -0.023281423 -0.28521156 -0.89257747 -0.3545646 -0.16647993
-0.058001235 -0.22610699 0.23319626 -0.22179228 -0.15576135 -0.08004969 -0.010991751 -0.30351645
-0.024992473 0.30107307 -0.33173403 -0.36649665 0.15188399 -0.50482035 -0.6175866 0.45024198
-0.25301722 -0.63298076 0.71291095 -1.0686928 0.18476516 -0.14288265 0.11117106 -0.69379586
0.45900276 -0.39167938 -0.119460076 -0.55131155 -0.25411296 -0.5899976 0.20064487 0.50610083
0.17501052 -0.47304675 -0.12129475 -0.30875173 -0.10377794 -0.17300914 -0.025805218 0.05290215
-0.29438344 0.17610475 0.5789822 0.8109463 -0.6323304 -0.7805846 -0.45701647 -0.5059123
-0.606969 0.32137686 0.5841958 -0.21098658 0.40692857 0.2084936 -0.0027635256 0.2847517

sequential/dense/BiasAdd/ReadVariableOp f4 [60]
00000000: f903 6dbf e066 5cbf fb7c 55bf 4f90 d9be
00000010: 462b 0bbf 2068 82bf e623 91bd f592 8cbf
00000020: df2f 59bf b6ad 2bbf ae12 42be 24d7 3cbe
00000030: a5ba 89be 2427 c0be fa7b 34bf 5b99 33bf
00000040: 6202 d2be 0466 59bf cb15 b0be 3239 b2be
00000050: 40c5 6abf 0016 51bf 602b 71bf fd2a 89be
00000060: fc41 12bf e65e 32bf 7e7a a4be 6548 2ebf
00000070: ef8a 80be d63c 673e ac47 0dbf f69f 49bf
00000080: 17ee 11bf e1a2 2abf 0b96 84be bbde 27bf
00000090: 8ee1 3bbf 13d2 67bf 7b1a 15bf dab8 17bf
000000a0: ebf8 55bf 5251 26bf 7b6d 34bf c507 89bf
000000b0: 6894 cebe 9466 d6be 87c8 a3be 372c fdbe
000000c0: 1a90 4ebf 183f 6a3e 80bc a2be 4783 b3be
000000d0: 35b4 2fbf 3484 13bf b0d6 58bf 47c3 67bf
000000e0: c95f 18bf 2083 02bf 9d8b dbbd 28d4 f4be
-0.92584187 -0.86094475 -0.8339383 -0.4249291 -0.54362905 -1.0188026 -0.07086925 -1.0982348
-0.8483867 -0.67061937 -0.18952438 -0.18441445 -0.2690021 -0.37529862 -0.70501673 -0.70155877
-0.41017443 -0.8492129 -0.34391627 -0.34809262 -0.9170723 -0.81674194 -0.9420681 -0.2679061
-0.57131934 -0.69676054 -0.32124704 -0.68079215 -0.25105998 0.22581801 -0.5518749 -0.78759706
-0.5700392 -0.66654783 -0.25895724 -0.65574235 -0.73391044 -0.9055492 -0.5824353 -0.59266436
-0.83582944 -0.64967835 -0.70479554 -1.0705496 -0.403476 -0.41875136 -0.31988928 -0.49447796
-0.8068863 0.22875631 -0.3178444 -0.35061094 -0.6863435 -0.576236 -0.8470259 -0.90532345
-0.59521157 -0.5098133 -0.107199885 -0.47818112

sequential/dense_4/BiasAdd/ReadVariableOp f4 [28]
00000000: 9a3c a93e 524c 84be 95d2 34bf 9108 f83d
00000010: bda6 53bd 7334 c53e a32c 943d 3bc6 c4be
00000020: a5af 05bf 342b 013f 9a0e 8fbe d807 c6bd
00000030: 8c68 d93e 6b07 1f3f 6ca0 483d 53ee 1b3f
00000040: b891 533f b4da 973d c3e8 243e 963a 76bb
00000050: cf1b 47be bd6c 6b3d 8a70 37be 4c86 babe
00000060: 5a7a dabe 2632 9abe 464a 0dbf 5741 a9be
0.33054048 -0.25839478 -0.7063382 0.12111009 -0.051672686 0.38516578 0.07235076 -0.38432488
-0.5222114 0.5045655 -0.27940828 -0.09669465 0.42462575 0.62120694 0.048981115 0.6091053
0.82644224 0.07414761 0.16104417 -0.003757154 -0.19444202 0.057476748 -0.17914024 -0.36430585
-0.42671472 -0.30116385 -0.5519146 -0.33057663

sequential/dense_3/BiasAdd/ReadVariableOp f4 [30]
00000000: 9806 6b3f ca3d 893f 3816 da3e 82a0 183f
00000010: 6368 843f e2d6 4d3f 5abe 873f 34e4 853f
00000020: 6619 583f f1dd f93f 7962 b83e efdf c7be
00000030: 9572 a03f fd5e aa3f ec39 8c3f f924 893f
00000040: 1c81 b33f 3bf6 b03f 67d6 233f d5d3 6f3f
00000050: 6075 d13e ebd4 913f 0f36 703f 3b06 0c3e
00000060: d48f 1d3e b54c 973f fe3c 163f 6925 b13f
00000070: 0cf1 573f 7099 653f
0.91806936 1.0721982 0.42595077 0.59619915 1.0344356 0.8040601 1.0604966 1.0460267
0.84413755 1.9520856 0.3601263 -0.39038035 1.2534968 1.3310238 1.0955176 1.0714408
1.4023776 1.3825144 0.63999027 0.93682605 0.40909863 1.1393102 0.93832487 0.13674252
0.15386897 1.1820284 0.58686817 1.3839542 0.84352183 0.8968725

sequential/dense_2/BiasAdd/ReadVariableOp f4 [40]
00000000: 6336 383e bafb 88bc 66cb 053e f72f 843e
00000010: d301 823e fba9 b93e 5977 e13e 6edf 043d
00000020: 1a3e a03e 51bf 143e e767 253d cf26 06bf
00000030: ceb3 5abe b0ba 123f dc5e 67bd 05c5 df3d
00000040: 1dff d73d 2116 35be f3dd 5b3e 90b0 30bd
00000050: 1583 5bbd 0429 103f 15ef 313e 2bc9 d13e
00000060: 4337 3c3d 6bec c73e 0ec7 353e 0a38 9d3e
00000070: c961 1e3d da62 5ebe 40e0 babe 4ba8 263e
00000080: 7c1f c43e 05d5 9a3e 8f6c e53d b37e ba3e
00000090: 9886 5a3e 1c16 c23e 726d 663e 17a2 4dbc
0.17989497 -0.016721595 0.13065872 0.25817844 0.25392017 0.36262497 0.44036368 0.03243964
0.3129738 0.14526106 0.040382292 -0.5240297 -0.21357653 0.5731611 -0.05648695 0.1092625
0.10546706 -0.17684223 0.21471386 -0.043137133 -0.053591806 0.56312585 0.17376359 0.4097379
0.04595114 0.3904756 0.17751715 0.30706817 0.038667474 -0.21717396 -0.36499214 0.16275136
0.3830527 0.30240646 0.112023465 0.3642479 0.21340406 0.37907493 0.22502688 -0.012550852

sequential/dense_1/BiasAdd/ReadVariableOp f4 [50]
00000000: 630c e43d 3a25 cdbd 9a5b 943d af27 f73c
00000010: 64bb 6abf faae 22bd 7e7f 7cbe 48aa 7e3e
00000020: 0c54 8c3d b1df 693d 90e8 d4bc 3173 7c3e
00000030: ba10 d0be f3f5 473d 2448 083e eb53 153e
00000040: 894d 823e bc83 15be 67e1 043d b0bf 8c3e
00000050: 8e70 903c c2b4 8b3e efbe c53c 503c 91be
00000060: f731 1fbe 7aef 7c3c d574 2cbd 6504 ddbd
00000070: daa6 7dbe ba24 0e3f e063 99bd f57d 18be
00000080: a460 1fbd 3baf 1bbd b50f a1bd d661 553e
00000090: 0e42 f8be 59bb b3be 8190 9f3d b2fa 70be
000000a0: 826c f83b a2ef f1be d600 12bd 28c3 cdbe
000000b0: 39a3 8ebd 3f3f e43d 4631 bcbc 9e09 8e3e
000000c0: de0f a0bd bfc9 5fbd
0.11135175 -0.10016866 0.07244034 0.03017029 -0.91692185 -0.039717652 -0.2465801 0.24869645
0.06851968 0.057098094 -0.0259898 0.24653317 -0.4063776 0.04881854 0.1330877 0.14582793
0.2544978 -0.14601034 0.032441523 0.27489996 0.017631795 0.27286345 0.024138896 -0.28366327
-0.15546404 0.015437955 -0.042103607 -0.10791854 -0.2477068 0.5552479 -0.07489753 -0.14891799
-0.038910523 -0.03800891 -0.07864324 0.20838103 -0.48487896 -0.35103872 0.07791234 -0.23533133
0.0075812945 -0.47253138 -0.03564533 -0.40187955 -0.06964726 0.11144876 -0.022972714 0.27741712
-0.078155264 -0.05463576

sequential/dense/MatMul i1 [60, 43] scale=0.01970365 zero_point=0
00000000: 0101 0bf3 07f1 01fe 02f4 02f9 fde3 fdeb
00000010: 02ef fffc fdf6 00f3 01f4 fe1b fc0b fc1b
00000020: ff31 0111 fe0a ff08 fa11 faff 0801 0210
00000030: 0003 0101 fd03 ff00 0201 0101 0300 00ff
00000040: ff02 0002 ffff 0200 0201 fd03 0002 0102
00000050: 0004 01ac 0508 fff9 f5fe 1602 0600 0100
00000060: 0400 00ff 00fe 0100 00ff 0003 ff00 04fd
00000070: 0400 0100 0100 ac00 0a02 0200 0101 0302
00000080: 0602 f8f5 fb0d f902 fb02 fd01 0202 0303
00000090: 0600 0aff 0c03 0303 feff fd00 0803 fc00
000000a0: f908 f50d 0205 0005 fd0e 00a6 e9f8 ff22
000000b0: fe13 070d 0804 01e4 05f6 0101 0108 01cf
000000c0: 04f6 0112 ff1b fed0 00fd ff2d ff2e 00f1
000000d0: fe03 fc18 fc2e fb00 0500 ece6 f6fe 00fe
000000e0: f9ff f9f9 ffff fa00 feff 03fc fc00 e902
000000f0: e101 1bfe 0eff 0600 f300 18ff 24ff 2501
0.01970365 0.01970365 0.21674016 -0.25614747 0.13792555 -0.29555476 0.01970365 -0.0394073
0.0394073 -0.23644382 0.0394073 -0.13792555 -0.059110954 -0.5714059 -0.059110954 -0.41377667
0.0394073 -0.33496207 -0.01970365 -0.0788146 -0.059110954 -0.1970365 0.0 -0.25614747
0.01970365 -0.23644382 -0.0394073 0.5319986 -0.0788146 0.21674016 -0.0788146 0.5319986
-0.01970365 0.9654789 0.01970365 0.33496207 -0.0394073 0.1970365 -0.01970365 0.1576292
-0.11822191 0.33496207 -0.11822191 -0.01970365 0.1576292 0.01970365 0.0394073 0.3152584
0.0 0.059110954 0.01970365 0.01970365 -0.059110954 0.059110954 -0.01970365 0.0
0.0394073 0.01970365 0.01970365 0.01970365 0.059110954 0.0 0.0 -0.01970365
-0.01970365 0.0394073 0.0 0.0394073 -0.01970365 -0.01970365 0.0394073 0.0
0.0394073 0.01970365 -0.059110954 0.059110954 0.0 0.0394073 0.01970365 0.0394073
0.0 0.0788146 0.01970365 -1.6551067 0.09851825 0.1576292 -0.01970365 -0.13792555
-0.21674016 -0.0394073 0.43348032 0.0394073 0.11822191 0.0 0.01970365 0.0
0.0788146 0.0 0.0 -0.01970365 0.0 -0.0394073 0.01970365 0.0
0.0 -0.01970365 0.0 0.059110954 -0.01970365 0.0 0.0788146 -0.059110954
0.0788146 0.0 0.01970365 0.0 0.01970365 0.0 -1.6551067 0.0
0.1970365 0.0394073 0.0394073 0.0 0.01970365 0.01970365 0.059110954 0.0394073
0.11822191 0.0394073 -0.1576292 -0.21674016 -0.09851825 0.25614747 -0.13792555 0.0394073
-0.09851825 0.0394073 -0.059110954 0.01970365 0.0394073 0.0394073 0.059110954 0.059110954
0.11822191 0.0 0.1970365 -0.01970365 0.23644382 0.059110954 0.059110954 0.059110954
-0.0394073 -0.01970365 -0.059110954 0.0 0.1576292 0.059110954 -0.0788146 0.0
-0.13792555 0.1576292 -0.21674016 0.25614747 0.0394073 0.09851825 0.0 0.09851825
-0.059110954 0.2758511 0.0 -1.7733285 -0.45318398 -0.1576292 -0.01970365 0.66992414
-0.0394073 0.37436935 0.13792555 0.25614747 0.1576292 0.0788146 0.01970365 -0.5517022
0.09851825 -0.1970365 0.01970365 0.01970365 0.01970365 0.1576292 0.01970365 -0.9654789
0.0788146 -0.1970365 0.01970365 0.35466573 -0.01970365 0.5319986 -0.0394073 -0.9457753
0.0 -0.059110954 -0.01970365 0.8866643 -0.01970365 0.90636796 0.0 -0.29555476
-0.0394073 0.059110954 -0.0788146 0.47288764 -0.0788146 0.90636796 -0.09851825 0.0
0.09851825 0.0 -0.394073 -0.51229495 -0.1970365 -0.0394073 0.0 -0.0394073
-0.13792555 -0.01970365 -0.13792555 -0.13792555 -0.01970365 -0.01970365 -0.11822191 0.0
-0.0394073 -0.01970365 0.059110954 -0.0788146 -0.0788146 0.0 -0.45318398 0.0394073
-0.6108132 0.01970365 0.5319986 -0.0394073 0.2758511 -0.01970365 0.11822191 0.0
-0.25614747 0.0 0.47288764 -0.01970365 0.70933145 -0.01970365 0.7290351 0.01970365

sequential/dense_1/MatMul i1 [50, 60] scale=0.05438775 zero_point=0
00000000: ffff 0301 01f8 02f6 00f8 fd01 0001 e700
00000010: 03b6 ff00 0082 0400 0201 0003 00ff 0000
00000020: ff00 02d9 0102 0201 00fb 0102 0001 0102
00000030: fc00 0001 0100 be01 01e4 00d0 fc02 0000
00000040: 00fc ff00 00fa f100 ff17 ffff 0101 01ff
00000050: fe00 02f7 01fb fa19 f2f5 1601 fc01 fff6
00000060: 01ff fe10 fcfd edff 00ff f901 ff00 03fc
00000070: fefe fef9 f901 0802 020e 0608 fc06 0005
00000080: 010a 04f0 0afe fe01 fcff 0702 00fa 0cfc
00000090: fefe 01fd fff4 0000 feff ef05 01ea fefd
000000a0: ff02 f4f4 0109 ff06 02fd 0201 03fd 00f4
000000b0: fbfb fdfc 03e6 02f4 f1e8 01e9 01f8 e100
000000c0: eeed 0101 fdff e9fb fd00 0308 00ff 04ec
000000d0: 07e6 f500 ff00 00ee fc01 f2ed fff8 0406
000000e0: 01e5 07db fb00 0709 fefe ff02 f4ff f600
000000f0: 0203 0601 0100 0202 040e 0afe 0003 0402
-0.05438775 -0.05438775 0.16316324 0.05438775 0.05438775 -0.435102 0.1087755 -0.5438775
0.0 -0.435102 -0.16316324 0.05438775 0.0 0.05438775 -1.3596938 0.0
0.16316324 -4.0246935 -0.05438775 0.0 0.0 -6.852856 0.217551 0.0
0.1087755 0.05438775 0.0 0.16316324 0.0 -0.05438775 0.0 0.0
-0.05438775 0.0 0.1087755 -2.1211221 0.05438775 0.1087755 0.1087755 0.05438775
0.0 -0.27193874 0.05438775 0.1087755 0.0 0.05438775 0.05438775 0.1087755
-0.217551 0.0 0.0 0.05438775 0.05438775 0.0 -3.5895915 0.05438775
0.05438775 -1.522857 0.0 -2.610612 -0.217551 0.1087755 0.0 0.0
0.0 -0.217551 -0.05438775 0.0 0.0 -0.3263265 -0.8158162 0.0
-0.05438775 1.2509181 -0.05438775 -0.05438775 0.05438775 0.05438775 0.05438775 -0.05438775
-0.1087755 0.0 0.1087755 -0.48948973 0.05438775 -0.27193874 -0.3263265 1.3596938
-0.7614285 -0.59826523 1.1965305 0.05438775 -0.217551 0.05438775 -0.05438775 -0.5438775
0.05438775 -0.05438775 -0.1087755 0.870204 -0.217551 -0.16316324 -1.0333672 -0.05438775
0.0 -0.05438775 -0.38071424 0.05438775 -0.05438775 0.0 0.16316324 -0.217551
-0.1087755 -0.1087755 -0.1087755 -0.38071424 -0.38071424 0.05438775 0.435102 0.1087755
0.1087755 0.7614285 0.3263265 0.435102 -0.217551 0.3263265 0.0 0.27193874
0.05438775 0.5438775 0.217551 -0.870204 0.5438775 -0.1087755 -0.1087755 0.05438775
-0.217551 -0.05438775 0.38071424 0.1087755 0.0 -0.3263265 0.652653 -0.217551
-0.1087755 -0.1087755 0.05438775 -0.16316324 -0.05438775 -0.652653 0.0 0.0
-0.1087755 -0.05438775 -0.9245917 0.27193874 0.05438775 -1.1965305 -0.1087755 -0.16316324
-0.05438775 0.1087755 -0.652653 -0.652653 0.05438775 0.48948973 -0.05438775 0.3263265
0.1087755 -0.16316324 0.1087755 0.05438775 0.16316324 -0.16316324 0.0 -0.652653
-0.27193874 -0.27193874 -0.16316324 -0.217551 0.16316324 -1.4140815 0.1087755 -0.652653
-0.8158162 -1.305306 0.05438775 -1.2509181 0.05438775 -0.435102 -1.6860201 0.0
-0.97897947 -1.0333672 0.05438775 0.05438775 -0.16316324 -0.05438775 -1.2509181 -0.27193874
-0.16316324 0.0 0.16316324 0.435102 0.0 -0.05438775 0.217551 -1.087755
0.38071424 -1.4140815 -0.59826523 0.0 -0.05438775 0.0 0.0 -0.97897947
-0.217551 0.05438775 -0.7614285 -1.0333672 -0.05438775 -0.435102 0.217551 0.3263265
0.05438775 -1.4684691 0.38071424 -2.0123467 -0.27193874 0.0 0.38071424 0.48948973
-0.1087755 -0.1087755 -0.05438775 0.1087755 -0.652653 -0.05438775 -0.5438775 0.0
0.1087755 0.16316324 0.3263265 0.05438775 0.05438775 0.0 0.1087755 0.1087755
0.217551 0.7614285 0.5438775 -0.1087755 0.0 0.16316324 0.217551 0.1087755

sequential/dense_2/MatMul i1 [40, 50] scale=0.045396343 zero_point=0
00000000: 05c1 f607 f9f7 e909 ffe9 ea04 dc05 0205
00000010: 0ad6 ea07 0007 0de4 e803 ddf8 fdfc 01df
00000020: 02ee 06fb 02f5 f900 ed08 04ff cd02 f405
00000030: f2da ed00 02ec ff03 f602 0400 00dd 0307
00000040: f4f9 0d03 0b00 dd0b 0b03 04f8 0204 0006
00000050: d001 f5ff 0102 e402 fcfe 0009 feee ff00
00000060: ff02 0902 0601 ef1e fbfc f6fe e001 04fe
00000070: fd01 0200 04c6 0b01 04fc 0001 0204 d300
00000080: 0000 0002 1701 0506 fdd5 e302 fc00 fd02
00000090: d203 0301 0b02 06ff ccf1 fc01 0504 fb02
000000a0: 0101 0100 060a d9fc fc00 e9fe 04ff 05fd
000000b0: f201 ff0b 0001 b700 e2e6 cad0 ffe7 00f1
000000c0: fdfc feff 05ff 0903 f601 03f6 ff03 fee4
000000d0: fa08 08f4 03f9 fec0 ff00 0403 0303 d6f4
000000e0: 02f5 0202 0000 fcf5 04fb fa0f 0003 f702
000000f0: 0103 fe01 00fd 0200 07ff fbf6 fc09 fe00
0.22698171 -2.8599696 -0.45396343 0.31777442 -0.31777442 -0.40856707 -1.0441159 0.40856707
-0.045396343 -1.0441159 -0.9987196 0.18158537 -1.6342683 0.22698171 0.090792686 0.22698171
0.45396343 -1.9066464 -0.9987196 0.31777442 0.0 0.31777442 0.59015244 -1.2710977
-1.0895122 0.13618903 -1.588872 -0.36317074 -0.13618903 -0.18158537 0.045396343 -1.4980793
0.090792686 -0.81713414 0.27237806 -0.22698171 0.090792686 -0.4993598 -0.31777442 0.0
-0.8625305 0.36317074 0.18158537 -0.045396343 -2.3152134 0.090792686 -0.5447561 0.22698171
-0.63554883 -1.725061 -0.8625305 0.0 0.090792686 -0.90792686 -0.045396343 0.13618903
-0.45396343 0.090792686 0.18158537 0.0 0.0 -1.588872 0.13618903 0.31777442
-0.5447561 -0.31777442 0.59015244 0.13618903 0.4993598 0.0 -1.588872 0.4993598
0.4993598 0.13618903 0.18158537 -0.36317074 0.090792686 0.18158537 0.0 0.27237806
-2.1790245 0.045396343 -0.4993598 -0.045396343 0.045396343 0.090792686 -1.2710977 0.090792686
-0.18158537 -0.090792686 0.0 0.40856707 -0.090792686 -0.81713414 -0.045396343 0.0
-0.045396343 0.090792686 0.40856707 0.090792686 0.27237806 0.045396343 -0.7717378 1.3618903
-0.22698171 -0.18158537 -0.45396343 -0.090792686 -1.452683 0.045396343 0.18158537 -0.090792686
-0.13618903 0.045396343 0.090792686 0.0 0.18158537 -2.632988 0.4993598 0.045396343
0.18158537 -0.18158537 0.0 0.045396343 0.090792686 0.18158537 -2.0428355 0.0
0.0 0.0 0.0 0.090792686 1.0441159 0.045396343 0.22698171 0.27237806
-0.13618903 -1.9520427 -1.316494 0.090792686 -0.18158537 0.0 -0.13618903 0.090792686
-2.0882318 0.13618903 0.13618903 0.045396343 0.4993598 0.090792686 0.27237806 -0.045396343
-2.3606098 -0.68094516 -0.18158537 0.045396343 0.22698171 0.18158537 -0.22698171 0.090792686
0.045396343 0.045396343 0.045396343 0.0 0.27237806 0.45396343 -1.7704574 -0.18158537
-0.18158537 0.0 -1.0441159 -0.090792686 0.18158537 -0.045396343 0.22698171 -0.13618903
-0.63554883 0.045396343 -0.045396343 0.4993598 0.0 0.045396343 -3.3139331 0.0
-1.3618903 -1.1803049 -2.4514024 -2.1790245 -0.045396343 -1.1349086 0.0 -0.68094516
-0.13618903 -0.18158537 -0.090792686 -0.045396343 0.22698171 -0.045396343 0.40856707 0.13618903
-0.45396343 0.045396343 0.13618903 -0.45396343 -0.045396343 0.13618903 -0.090792686 -1.2710977
-0.27237806 0.36317074 0.36317074 -0.5447561 0.13618903 -0.31777442 -0.090792686 -2.905366
-0.045396343 0.0 0.18158537 0.13618903 0.13618903 0.13618903 -1.9066464 -0.5447561
0.090792686 -0.4993598 0.090792686 0.090792686 0.0 0.0 -0.18158537 -0.4993598
0.18158537 -0.22698171 -0.27237806 0.68094516 0.0 0.13618903 -0.40856707 0.090792686
0.045396343 0.13618903 -0.090792686 0.045396343 0.0 -0.13618903 0.090792686 0.0
0.31777442 -0.045396343 -0.22698171 -0.45396343 -0.18158537 0.40856707 -0.090792686 0.0

sequential/dense_3/MatMul i1 [30, 40] scale=0.031037286 zero_point=0
00000000: ef04 160f 0301 0ffd fb06 fe00 03fa fd03
00000010: f801 f903 010c e606 00ff ddfd f3f7 03ff
00000020: 090e fb03 d6f8 e904 0a05 0000 0308 ffc1
00000030: 0d09 00f5 0005 03ea d1fb f002 0110 08fc
00000040: ff07 da07 fffd f205 07fe 0308 d81b f1ef
00000050: fb04 092c fc0b 0101 fe0c 12ff 07fa 07fe
00000060: 0002 f8fd 0004 d50a 000d faff 0400 fc00
00000070: 2c0d 18ed ff0c 0700 ef0b 04ad 0ae8 04fe
00000080: 02e1 fd01 0106 0203 dffd abfd fefe 0cfc
00000090: fc05 c30b 0307 0005 960a 090b ec12 b8fb
000000a0: 0fe5 0503 f402 fd04 fefc cb00 c303 b8e9
000000b0: 01f5 0af5 fd07 f9f8 fc03 0303 07f9 f7e6
000000c0: 00fb bf01 030f 03f6 0b03 01fb 0406 f4f9
000000d0: 04fd fb00 0316 05ff ffff 0b02 07ef ef00
000000e0: 0100 01fb 0003 0309 f5f7 0e15 04fd 0005
000000f0: 0102 01fd ff00 03f5 0101 10fd 03fa 02fe
-0.52763385 0.12414914 0.6828203 0.4655593 0.09311186 0.031037286 0.4655593 -0.09311186
-0.15518643 0.18622372 -0.06207457 0.0 0.09311186 -0.18622372 -0.09311186 0.09311186
-0.24829829 0.031037286 -0.217261 0.09311186 0.031037286 0.37244743 -0.8069694 0.18622372
0.0 -0.031037286 -1.086305 -0.09311186 -0.4034847 -0.27933556 0.09311186 -0.031037286
0.27933556 0.434522 -0.15518643 0.09311186 -1.303566 -0.24829829 -0.7138576 0.12414914
0.31037286 0.15518643 0.0 0.0 0.09311186 0.24829829 -0.031037286 -1.955349
0.4034847 0.27933556 0.0 -0.34141016 0.0 0.15518643 0.09311186 -0.6828203
-1.4587524 -0.15518643 -0.49659657 0.06207457 0.031037286 0.49659657 0.24829829 -0.12414914
-0.031037286 0.217261 -1.1794169 0.217261 -0.031037286 -0.09311186 -0.434522 0.15518643
0.217261 -0.06207457 0.09311186 0.24829829 -1.2414914 0.83800673 -0.4655593 -0.52763385
-0.15518643 0.12414914 0.27933556 1.3656406 -0.12414914 0.34141016 0.031037286 0.031037286
-0.06207457 0.37244743 0.5586711 -0.031037286 0.217261 -0.18622372 0.217261 -0.06207457
0.0 0.06207457 -0.24829829 -0.09311186 0.0 0.12414914 -1.3346033 0.31037286
0.0 0.4034847 -0.18622372 -0.031037286 0.12414914 0.0 -0.12414914 0.0
1.3656406 0.4034847 0.74489486 -0.58970845 -0.031037286 0.37244743 0.217261 0.0
-0.52763385 0.34141016 0.12414914 -2.5760946 0.31037286 -0.74489486 0.12414914 -0.06207457
0.06207457 -0.9621559 -0.09311186 0.031037286 0.031037286 0.18622372 0.06207457 0.09311186
-1.0242305 -0.09311186 -2.6381693 -0.09311186 -0.06207457 -0.06207457 0.37244743 -0.12414914
-0.12414914 0.15518643 -1.8932744 0.34141016 0.09311186 0.217261 0.0 0.15518643
-3.2899523 0.31037286 0.27933556 0.34141016 -0.6207457 0.5586711 -2.2346845 -0.15518643
0.4655593 -0.83800673 0.15518643 0.09311186 -0.37244743 0.06207457 -0.09311186 0.12414914
-0.06207457 -0.12414914 -1.6449761 0.0 -1.8932744 0.09311186 -2.2346845 -0.7138576
0.031037286 -0.34141016 0.31037286 -0.34141016 -0.09311186 0.217261 -0.217261 -0.24829829
-0.12414914 0.09311186 0.09311186 0.09311186 0.217261 -0.217261 -0.27933556 -0.8069694
0.0 -0.15518643 -2.0174236 0.031037286 0.09311186 0.4655593 0.09311186 -0.31037286
0.34141016 0.09311186 0.031037286 -0.15518643 0.12414914 0.18622372 -0.37244743 -0.217261
0.12414914 -0.09311186 -0.15518643 0.0 0.09311186 0.6828203 0.15518643 -0.031037286
-0.031037286 -0.031037286 0.34141016 0.06207457 0.217261 -0.52763385 -0.52763385 0.0
0.031037286 0.0 0.031037286 -0.15518643 0.0 0.09311186 0.09311186 0.27933556
-0.34141016 -0.27933556 0.434522 0.651783 0.12414914 -0.09311186 0.0 0.15518643
0.031037286 0.06207457 0.031037286 -0.09311186 -0.031037286 0.0 0.09311186 -0.34141016
0.031037286 0.031037286 0.49659657 -0.09311186 0.09311186 -0.18622372 0.06207457 -0.06207457
