model/customModel/modelB/ASLclassifier5a.tflite (tflite, 9088 bytes, 6 tensors)

sequential/dense/BiasAdd/ReadVariableOp f4 [25]
000000 f6 c6 05 bf 6d 27 1b bf e4 65 c2 bf 54 60 13 c0
       -0.52256715 -0.60607034 -1.5187345 -2.3027544
000010 24 17 9a bf 15 30 68 bf 80 d7 0a bf 26 78 06 bd
       -1.2038312 -0.9069837 -0.54235077 -0.032829426
000020 17 f9 21 bf 7e 4b 04 be 2e 71 92 bf c3 40 12 bf
       -0.63270706 -0.12919423 -1.144079 -0.5713007
000030 36 f6 e5 3e e0 ac d0 bf fe 4c 7d 3f b0 35 6d bf
       0.44914407 -1.6302757 0.98945606 -0.92660046
000040 a6 33 22 c0 53 9f 63 bd 31 5b e9 3d 5d d1 b9 be
       -2.5344024 -0.055571865 0.113943465 -0.36292544
000050 e8 e3 c8 be 00 f3 76 bf 09 d6 1c bf cd fd 8e be
       -0.3923638 -0.9646454 -0.6126409 -0.2792801
000060 c1 a6 49 bf
       -0.7877007

sequential/dense_2/BiasAdd/ReadVariableOp f4 [28]
000000 7c 71 11 3e c0 29 99 3e 0e 8e 1d 3e 82 30 40 3f
       0.14203447 0.29914665 0.15386221 0.7507402
000010 cd 38 4c bf 65 5e b5 3f bc be 0b bf 35 8f a5 3e
       -0.7977417 1.4169432 -0.5458791 0.3233582
000020 ca bc bb bc ea 87 5d 3d 68 94 9d 3f 18 c4 8d 3e
       -0.02291717 0.054084696 1.2310915 0.2768867
000030 98 c3 35 c0 5b 3d 20 bf a1 00 c7 be 20 34 03 3f
       -2.840063 -0.6259362 -0.38867667 0.5125141
000040 25 83 c4 3e 22 29 e7 3e 1b f0 3d 3d 45 31 6e 3e
       0.38381305 0.4514857 0.04637156 0.23260982
000050 33 b4 ac be 7f 14 43 bf 0a ec 36 bf 80 ae bd 3e
       -0.3373123 -0.7620315 -0.7145392 0.37047195
000060 6f ec 2d bd 38 7c 41 3b 19 dd 4b be 4c 52 5c be
       -0.04246181 0.0029523503 -0.19908561 -0.21515769

sequential/dense_1/BiasAdd/ReadVariableOp f4 [40]
000000 33 71 a5 bf 6d 05 be 3f 9d 36 07 40 50 ae 37 3f
       -1.2925171 1.4845406 2.1127083 0.71750355
000010 6b 81 1f be 78 aa 6c 3f e4 dc e9 3f 06 38 69 3e
       -0.15576713 0.92447615 1.8270535 0.22775277
000020 d3 6f b0 3f 1f 5b 38 40 3b 82 cd 3f 29 8f 01 40
       1.3784126 2.8805616 1.6055368 2.0243628
000030 c5 10 a3 bf b2 21 de 3f e3 26 ec 3f 99 6d 64 3e
       -1.2739493 1.7354033 1.8449367 0.22307433
000040 72 03 36 be d4 df 87 3f 2c 40 5d 3f 5a 02 d5 3f
       -0.17774752 1.0615182 0.86426044 1.6641343
000050 fb 3c fb be 16 d0 aa be bf 68 dd 3e c2 42 b5 3e
       -0.49069962 -0.33361882 0.43243977 0.35402495
000060 99 f8 07 40 97 3d d8 be 40 89 da 3f a8 05 0c 40
       2.1245482 -0.4223449 1.7073135 2.1878452
000070 12 b0 06 40 e8 1a 65 3f e7 af e5 be 50 5c 38 3f
       2.1044965 0.8949418 -0.44860765 0.7201586
000080 d6 1c cc bd 1a 15 06 40 f5 74 8b 3f 2c fa c5 3e
       -0.099664375 2.095038 1.0895067 0.38667428
000090 d6 48 e5 bf ce 90 3f be fc 51 4b c0 c3 d8 cb 3f
       -1.7912853 -0.18707582 -3.176879 1.5925525

sequential/dense/MatMul f4 [25, 14]
000000 d0 27 02 be e1 f1 13 be ff 70 12 3d d9 f5 0d 3e
       -0.127105 -0.14447738 0.035752293 0.13863315
000010 5f 12 f6 bd 4d 47 ae bd 28 de 9b 3c 92 fb 8d bd
       -0.12015223 -0.08509693 0.01902683 -0.06932749
000020 9a ba 0b bf cc de 12 bd e9 47 57 bd ff 74 b1 bd
       -0.54581606 -0.035857007 -0.052558813 -0.08664893
000030 34 95 c9 bc 34 cd 42 3f 59 69 74 3d 77 8c 2c bf
       -0.024607278 0.76094365 0.05967078 -0.6740183
000040 ec 21 b0 bc 6a 74 4f bd 5b 3f b3 3d a4 88 19 40
       -0.02150055 -0.05064813 0.087523185 2.398965
000050 11 07 68 bd b7 66 71 bf e5 b8 43 bd d5 33 10 3b
       -0.056647364 -0.94297355 -0.04778375 0.002200355
000060 5e 28 86 3d 60 19 23 3c c4 c9 2a be d4 0f 0f 3d
       0.06550668 0.00995478 -0.1667853 0.034927204
000070 99 22 f6 3d 22 9b cf 3e cc 43 3a 3f e9 dd 37 bf
       0.12018318 0.40548044 0.727597 -0.71822983
000080 b0 5c a6 bd 60 6f 03 bc 87 61 3d be ab 9b 0b 3f
       -0.081231475 -0.008022159 -0.18494235 0.54534405
000090 cf be ea be 00 5f 22 3f 0e 30 92 3e 58 d2 7c 3b
       -0.458487 0.6342621 0.28552288 0.0038577523
0000a0 b5 78 25 3d 1b c9 e4 bc 53 05 91 bc 6c 40 a3 bc
       0.04039832 -0.027927926 -0.017702734 -0.01992818
0000b0 6a 9b 84 3d d8 b1 d5 bd 40 8e 43 3c 86 7a c0 3c
       0.064749554 -0.10434312 0.0119357705 0.023495924
0000c0 95 a9 2a bd 97 80 34 3f 21 10 06 bd 1c 54 01 bc
       -0.041665632 0.7050871 -0.032730225 -0.007893588
0000d0 8a ec 22 bd b9 32 80 3b 2d 33 31 3c 56 2a 30 3f
       -0.039776362 0.0039122966 0.010815424 0.688146
0000e0 ef f5 5c 3d 2e f2 e0 be 57 7a 72 bf 7e b2 16 be
       0.053945478 -0.43934768 -0.94717926 -0.14716527
0000f0 a0 f7 65 be dc 6e d2 3f db df 35 3e 24 df 09 3d
       -0.22457743 1.6440082 0.17761175 0.03366007
000100 45 cc 08 3d 27 44 af bc bd 1d 84 be f7 f8 83 3c
       0.03339793 -0.021394802 -0.25803939 0.016109927
000110 34 8c 94 be e5 c6 db 3c a2 92 2c 3c 50 d9 53 be
       -0.29013216 0.026828239 0.010533007 -0.20688367
000120 0a 49 89 c0 26 59 08 40 6d fa 62 bd fe 84 dc 3c
       -4.290166 2.1304412 -0.055414606 0.026918884
000130 d9 45 9b 3e 2a b7 e2 bc a9 83 af 3d 47 de 44 bc
       0.30326727 -0.02767523 0.08570034 -0.012015886
000140 be 16 d4 bc cf 80 ca 3b c0 62 dc b8 6c a6 a5 bc
       -0.02588975 0.006179906 -0.00010508811 -0.020220958
000150 2a aa 37 3d 3e a2 19 3e 49 f1 11 3e 25 4e e8 3e
       0.044840015 0.15003297 0.14252199 0.4537212
000160 3d f0 cc be 3a 7a 08 be e3 30 07 40 05 61 4b bd
       -0.40027037 -0.13327876 2.1123588 -0.049653072
000170 34 73 8c bd 87 25 ba bc b6 94 07 bf 72 ae d6 bb
       -0.06857911 -0.022722973 -0.5296129 -0.006551557
000180 53 5b b7 be 48 56 04 3d 1f 58 36 bc 4a c6 f6 be
       -0.35811862 0.032308847 -0.011129408 -0.48198158
000190 ea 14 db bd 36 be 72 bd 93 cf 9b bd d1 9b dc bd
       -0.106973484 -0.05926343 -0.07607951 -0.10771907
0001a0 37 41 44 bd 39 d7 05 be 75 0a 4b 3d 3a 8d 98 bd
       -0.047913756 -0.13070382 0.04957052 -0.07448812
0001b0 ed b0 7a bc 47 f4 77 bd b9 52 9b 3b 6d 9a 33 3f
       -0.015300971 -0.060535695 0.004740086 0.7015751
0001c0 d1 f8 93 3d 41 33 1f 3f ce 2f 5a 3e 56 de e6 be
       0.07225192 0.6218758 0.21307299 -0.45091504
0001d0 cd b4 02 3d 72 18 f7 bc 4a cc 0d 40 d3 d1 8c be
       0.031910706 -0.030163024 2.2155938 -0.27503833
0001e0 78 b2 08 bf b1 f3 f7 bd cc 2b 5a 3e a3 b5 5b 3c
       -0.5339732 -0.12107027 0.2130577 0.013410005
0001f0 cc 39 30 be a5 32 9b ba f2 1e d0 bc 7c e1 09 bd
       -0.17209548 -0.0011840655 -0.02540538 -0.033662304
000200 62 c4 8a 3d 86 81 12 bd 7a 1e a0 3c 20 e3 41 3c
       0.06775738 -0.035768054 0.019545782 0.011833936
000210 b0 ae 8e bd 73 88 00 40 fc 07 d0 3d 28 ea dc bf
       -0.06966913 2.0083282 0.10157773 -1.7258959
000220 4f e7 cb 3b 3a df ab 3a cd 68 f5 3c 20 8b 00 3c
       0.0062226425 0.0013112791 0.0299572 0.00784567
000230 a0 7f 89 bd d4 5a 85 40 f0 8c e7 bb 6b 28 93 bf
       -0.06713796 4.1673374 -0.0070663616 -1.149671
000240 50 78 5a 3e ac cd 6c 39 9e b0 0a 3c 7c 45 ae bd
       0.21334958 0.00022583333 0.00846496 -0.08509347
000250 3a 86 e4 3e a8 68 ff 3b b8 b6 76 3d 58 13 4a ba
       0.44633657 0.0077944584 0.060232848 -0.0007708571
000260 5c e6 64 3e 9e 8c 0e 3d 26 fd f3 3e 04 8e 01 be
       0.223535 0.03480207 0.47654074 -0.12651831
000270 fb e6 b1 40 db ab cc 3e 54 e4 db bd 34 5e 59 bc
       5.559446 0.39974865 -0.107369095 -0.013267089
000280 44 b6 5f 3c 57 c3 0f bd bb bd 91 3e 50 d4 2d bd
       0.013654295 -0.0350984 0.28465065 -0.042438805
000290 84 49 b9 bd 1c 1d 92 bb 45 a3 cf 3d c5 86 01 3c
       -0.09047225 -0.0044590365 0.10138563 0.007905667
0002a0 83 fa 17 3d 2b fa ba 3d 35 91 12 bd 5b 75 08 be
       0.03710414 0.09129747 -0.03578301 -0.13326018
0002b0 dd 17 fb bc 4a 20 8f 3c 4f 48 fa bc 70 77 63 3d
       -0.030651027 0.017471451 -0.030552058 0.055533826
0002c0 4f 99 aa 3c 48 da 10 3d 3d 36 00 be 0b 0f 7c c1
       0.020825056 0.03536442 -0.1252069 -15.753673
0002d0 2e 37 40 be 88 e9 73 3b f5 02 7e 3b 34 19 a8 bd
       -0.1877105 0.0037218053 0.0038759087 -0.08207932
0002e0 d0 76 8f 3c 72 ad 63 be 3a f9 58 3d 57 2c ee 3f
       0.017512709 -0.22234133 0.052972056 1.8607281
0002f0 22 ab ab 3d 40 63 7d 3c a8 b1 98 3d 0b 8c 28 3c
       0.0838225 0.015465558 0.0745576 0.010287295
000300 16 62 f0 3b d8 4a a7 3b 9f 94 88 3c e5 7f 25 bd
       0.0073359115 0.0051053576 0.01667243 -0.040405173
000310 35 d7 c8 3c 47 51 11 3f 0f c8 95 3d 42 56 42 be
       0.024516681 0.56764644 0.07313549 -0.18978217
000320 12 ce 16 3f 11 7d d2 3d 35 20 67 be 19 09 d2 be
       0.5890819 0.10277761 -0.2257088 -0.41022566
000330 e7 60 21 bf 04 6e 4d be 70 d0 b4 3b 35 0c 02 3c
       -0.63038486 -0.20061499 0.0055180117 0.007937481
000340 9e 43 3d 3e 64 c8 83 bc b1 3c 80 3c eb 75 f0 3e
       0.18482825 -0.016086765 0.01565394 0.46964964
000350 d2 1a c3 bd e4 49 a9 3d 30 5c 31 40 b3 d9 7f bd
       -0.095266 0.08266047 2.7712517 -0.062463474
000360 04 a5 9c bd f4 6b 28 bd f9 cb 96 3d 11 df bc ba
       -0.07648662 -0.041118577 0.073631234 -0.0014409741
000370 1d 53 84 be 4c 9e f4 3c 71 75 40 be 9f 94 0c 3d
       -0.2584466 0.029860638 -0.187948 0.034321424
000380 9a cf ae 3a 3a 6a 89 3c 2d 4c 42 3e d4 3e 08 3e
       0.0013337017 0.016774286 0.18974371 0.13305217
000390 5d 03 cd bc 09 25 5f bc 18 f0 17 3d e2 15 6f 3c
       -0.025026018 -0.01361967 0.037094206 0.01459262
0003a0 35 fd 08 bb e7 86 86 bc b5 0d d6 bd 48 f9 7b 3f
       -0.0020902876 -0.016421748 -0.10451833 0.9842725
0003b0 80 1c 3c bd ac 94 42 bc da ae 34 bd ed be d9 c0
       -0.045925617 -0.011876266 -0.044112064 -6.8045564
0003c0 bf ef 2f be 33 d3 44 bc 92 89 b7 3e f5 fe 9a 3c
       -0.171813 -0.012013244 0.35847145 0.018920401
0003d0 d3 29 81 3c 3a 2d 12 bd 70 2a 9d 3d fc 25 d5 ba
       0.015767014 -0.035687663 0.0767411 -0.001626193
0003e0 19 50 48 bd 5f fd c8 ba 0c e1 2a 3d b4 0f 62 3b
       -0.048904512 -0.00153343 0.041718528 0.0034494223
0003f0 ed f4 ff 3c 63 2e c9 3d 4e 29 39 be a1 37 e2 3c
       0.03124472 0.09823301 -0.18082163 0.027614417

sequential/dense_1/MatMul f4 [40, 25]
000000 3c 8b 0d 3e de d1 5f be 9f b2 0b 3e 3e e4 fa be
       0.13822645 -0.21857402 0.13642357 -0.4900226
000010 28 66 25 3f a2 db 07 bd e0 6b b7 3e ff 35 61 3c
       0.64609003 -0.033168443 0.3582449 0.013745784
000020 24 eb e9 3e 70 ee 18 3d f2 1f 93 3f 71 42 8a be
       0.4568721 0.037336767 1.1494124 -0.27003816
000030 2c ab a0 bd 51 b8 a7 3f 39 41 2e 3c 63 a2 ac 3f
       -0.078451484 1.3103124 0.0106356675 1.3487056
000040 74 75 ba 3d 44 b9 96 bf 03 e6 ac bc aa 45 b2 3f
       0.09104434 -1.1775289 -0.021105772 1.392751
000050 23 2a 40 be ef 33 54 be a3 85 de 3e da ab 46 ba
       -0.18766074 -0.20722936 0.43461332 -0.00075787085
000060 0a 6a 23 3f c5 84 d6 3d e6 0f 36 3d 2b c7 fb bf
       0.6383368 0.104745425 0.044448756 -1.9670156
000070 68 4d 07 3e 17 89 40 3f 7d 43 c4 be fc 87 d7 be
       0.13213122 0.7520918 -0.3833274 -0.42095935
000080 b6 71 a8 3c df 26 07 bf 22 5d b8 bf df a8 73 be
       0.020562034 -0.5279369 -1.4403422 -0.23794888
000090 17 5d e0 be 71 85 43 3e 83 b3 c2 3e cf 15 c7 3e
       -0.43821022 0.19093873 0.38027582 0.38883826
0000a0 e9 c1 a8 3f 8e c9 21 be 33 57 c5 bd 0b 16 2e be
       1.3184177 -0.15799543 -0.096357726 -0.17000596
0000b0 0c c1 40 be 11 7c 20 3e 7f a5 81 be 33 e4 c1 3f
       -0.18823642 0.15672328 -0.25321576 1.5147766
0000c0 b4 9d 18 3e ad c1 07 3f 0d 6b 9e 3d c2 b8 c8 3d
       0.14903909 0.530299 0.07735262 0.09800865
0000d0 04 fb a7 3e 1b 53 e1 bb 15 5f a9 3f 3c d4 5b 3d
       0.32808697 -0.006876362 1.3232142 0.0536692
0000e0 66 f1 19 3f 2d 67 a4 3d 50 14 38 be 75 e0 8d 3e
       0.6013397 0.08027492 -0.17976499 0.2771031
0000f0 7a de 8c 3c b8 b8 01 be 55 1c 87 bf bb 59 1d 3f
       0.017195929 -0.12668121 -1.0555521 0.6146504
000100 96 5f db 3e 4e 59 48 3c b1 55 04 c0 ad c5 e1 3d
       0.42846364 0.012228323 -2.0677302 0.11024032
000110 f9 6b 3b 3e 88 46 5f 3d 10 f7 59 3e d5 20 5e bd
       0.18302907 0.054510623 0.21285653 -0.05423053
000120 1f 6d 3c 3d d6 8b 58 be d8 6b 41 3e cc 93 b5 3d
       0.046002503 -0.21147093 0.18888795 0.08866081
000130 dd 08 58 bc a6 2b d4 bd 33 60 be bf 90 c5 02 3f
       -0.013185707 -0.10359888 -1.4873108 0.51082706
000140 35 77 5f 3f 61 9b 2d 3d 23 0a 1a 3d e3 7c 06 3f
       0.8729127 0.04238451 0.037607323 0.5253431
000150 47 f3 31 bd cd 3e 1b 3e 48 13 fb bd f7 26 d8 bd
       -0.043444898 0.15160675 -0.12259537 -0.10554307
000160 3c be 95 be 33 16 b6 3e 79 0d 96 3e 23 d7 fb 3d
       -0.292467 0.35563812 0.29307154 0.122968934
000170 a3 63 bd 3e 2b 65 73 3c 8b e0 31 be ab 24 e2 bd
       0.3699008 0.014855663 -0.17370813 -0.1104215
000180 80 5c 26 bd 2d 2f 31 be 4d fb 16 3e a9 25 cc 3e
       -0.04061556 -0.17303152 0.14744301 0.39872482
000190 e3 05 ee 3f ca 97 56 be b9 c2 12 3c 26 a2 88 3f
       1.8595546 -0.2095634 0.008957558 1.0674484
0001a0 f1 f4 22 bd 32 76 93 be 9a 76 ac 3d 3d bd 8d 3f
       -0.039784376 -0.28801113 0.08421059 1.1073376
0001b0 43 4e 41 3d dd c9 8e 3c bf e6 33 3e f0 d6 28 be
       0.047193777 0.01743024 0.17568491 -0.16488242
0001c0 25 0c 93 bd 57 2a c9 bd 5b 11 e2 bd e5 38 79 bd
       -0.07180051 -0.09822529 -0.110384665 -0.060845274
0001d0 80 5b c6 3f 5a 0f 24 bd 5e 28 50 3e db fb 36 bc
       1.5496674 -0.040053703 0.20327899 -0.011168445
0001e0 05 d6 80 3f 52 1a 19 be c4 49 5f bc a9 b6 0d 3e
       1.0065314 -0.14951447 -0.013628427 0.1383921
0001f0 e7 89 a9 be c3 cf b9 c0 cf 49 fc 3e dd b0 8c 3e
       -0.33113024 -5.8066115 0.4927506 0.27478686
000200 fa d8 81 be 05 f0 72 3f 64 8a 9a 3d a7 56 9a 3e
       -0.25360852 0.9489749 0.07545927 0.30144235
000210 3b 49 ac c0 22 89 f4 bc 00 90 01 3e f2 dc 8b 3e
       -5.3839393 -0.029850546 0.12652588 0.27317005
000220 91 09 60 be e4 75 ca 3e 44 c0 31 3f 41 0d 97 3e
       -0.2187865 0.39543068 0.69434 0.295023
000230 d7 75 5c 3f 1a 58 23 be c8 6e 70 be 58 b6 4f 3d
       0.8611731 -0.15951577 -0.2347976 0.050711006
000240 1d 66 90 3f 31 3a de bd cc 8d 09 bd 4b 40 b6 be
       1.1281163 -0.10850943 -0.033582494 -0.35595927
000250 08 2f 90 bc 44 b9 29 bf 52 0c 86 3e 61 c1 ff 3e
       -0.017600551 -0.6629832 0.26181275 0.49952224
000260 80 5d 24 bf 97 2c 62 c0 05 9c ca 3d 97 9f 9c 3d
       -0.6420517 -3.5339715 0.098930396 0.07647627
000270 27 59 8d bf c3 ac 9b 3e 94 2c 8a bf e7 49 92 be
       -1.1042832 0.30405244 -1.0794854 -0.28572008
000280 08 b4 37 bb 26 82 83 3e 98 1f bd 3e 88 11 8e 3e
       -0.002803089 0.25685233 0.36938167 0.2774775
000290 ba 41 89 3e b8 14 28 3e 85 d9 eb 3e eb 49 bb bd
       0.26807958 0.16414154 0.46064392 -0.09144958
0002a0 9f f5 59 3e 21 08 4c 3e d1 53 98 3e 84 e1 d4 3e
       0.21285103 0.19924976 0.29751447 0.41578305
0002b0 b4 00 25 be 8f 4c 8e bf d5 82 7b be 72 4d 91 3e
       -0.1611355 -1.1117114 -0.24561627 0.283794
0002c0 00 df c8 be 84 77 90 3d dd c4 de bd 3f 46 b8 3e
       -0.39232635 0.07054046 -0.108773924 0.35991094
0002d0 6c 95 a5 3e 3a 36 38 3f ee 1b 50 3e 25 89 6b 3d
       0.32340562 0.71957743 0.20323154 0.057503838
0002e0 98 7f 8c bd 11 9f 18 bf 56 c8 c7 3d 1f 54 46 3f
       -0.06860274 -0.59617716 0.09755008 0.7747211
0002f0 2b 79 67 3f d5 df be 3e 7e 56 26 3f 3f 2c f8 3e
       0.9041926 0.37280145 0.64975727 0.48471257
000300 dc e7 af 3d 17 64 9b bc 70 9a 30 bf 9c d8 d9 3e
       0.085891455 -0.018968625 -0.6898565 0.42548072
000310 5b 14 b2 3e 9a 7e 07 c0 8d fc 86 be c1 3b 92 bd
       0.34781155 -2.1171021 -0.26364556 -0.071403034
000320 1a ad 59 be a7 37 d2 3a 65 82 88 bc 86 ef 79 3d
       -0.2125744 0.0016038314 -0.01666374 0.061019443
000330 d2 99 b5 bc 4b 81 00 3f fa 7c 22 3f 68 c8 ed 3c
       -0.022168074 0.50197285 0.6347195 0.029026225
000340 0a ef f1 3e 9e 86 5a 3c 3e 78 a4 be 40 1e ec 3f
       0.47252685 0.013337759 -0.32122988 1.8446732
000350 cb 07 4f 3c 95 98 3d bf c9 10 9c bd f2 ab 33 3f
       0.012636135 -0.74060947 -0.07620389 0.7018424
000360 89 eb c2 be f8 0f 57 3e a3 ab 88 3e ee 93 1b bf
       -0.38070324 0.21002185 0.26693448 -0.607726
000370 54 d2 28 3e d5 8f 85 3e da b1 2f be f5 8c 28 bd
       0.16486484 0.26086298 -0.17157689 -0.041150052
000380 20 c4 48 be 14 c4 c3 3d 09 05 e6 bc f0 29 da bd
       -0.19606066 0.09558883 -0.028078573 -0.1065253
000390 dd 72 e4 3c 08 fb 20 bc db ca 11 be 5e 43 59 3e
       0.027886802 -0.0098254755 -0.1423754 0.21217105
0003a0 01 6a a7 3d 39 a1 54 be 25 13 34 bd 32 31 c0 be
       0.081745155 -0.20764627 -0.04396357 -0.37537533
0003b0 d9 a0 c1 3d 89 ae 3c bf 4d 9e d9 be 17 c1 6e 3c
       0.094545074 -0.7370382 -0.42503586 0.014572403
0003c0 60 2d 60 bd c5 6f c6 c0 9f 2c d0 3d 89 0e f2 bc
       -0.054730773 -6.2011437 0.10164761 -0.029547947
0003d0 0f bb 1f bc 36 e8 ef 3e cc 40 68 bd 6f c9 d3 3d
       -0.009749188 0.4685685 -0.05670242 0.10341155
0003e0 25 c9 c8 bd 99 dc 51 be 71 96 50 3e 39 c1 22 3e
       -0.0980399 -0.20494308 0.20369889 0.15894021
0003f0 bf 45 4c be af 19 fc be 12 19 73 3d b5 5f 52 3e
       -0.19948481 -0.49238345 0.05935008 0.20544322

sequential/dense_2/MatMul i1 [28, 40] scale=0.029042067 zero_point=0
000000 f4 09 f6 fd 02 01 ec f7 f1 d5 2f ec f2 eb fa e7
       -0.3485048 0.26137862 -0.29042068 -0.0871262 0.058084134 0.029042067 -0.58084136 -0.26137862 -0.435631 -1.2488089 1.3649771 -0.58084136 -0.40658894 -0.6098834 -0.1742524 -0.7260517
000010 04 f0 fc fb c7 ff ff f5 e9 1c 07 03 0b 16 16 0c
       0.11616827 -0.46467307 -0.11616827 -0.14521034 -1.6553978 -0.029042067 -0.029042067 -0.31946275 -0.66796756 0.8131779 0.20329447 0.0871262 0.31946275 0.6389255 0.6389255 0.3485048
000020 2b 2f f5 85 08 04 28 e6 0e f7 05 0f 02 36 fd 10
       1.2488089 1.3649771 -0.31946275 -3.5721743 0.23233654 0.11616827 1.1616827 -0.75509375 0.40658894 -0.26137862 0.14521034 0.435631 0.058084134 1.5682716 -0.0871262 0.46467307
000030 0f fe ea 10 c2 e8 f1 81 ec 27 e0 e4 ff b9 f9 fa
       0.435631 -0.058084134 -0.6389255 0.46467307 -1.8006082 -0.6970096 -0.435631 -3.6883426 -0.58084136 1.1326406 -0.92934614 -0.8131779 -0.029042067 -2.0619867 -0.20329447 -0.1742524
000040 07 d6 08 43 00 ec 06 ba 04 ef 05 26 0f eb ed fa
       0.20329447 -1.2197669 0.23233654 1.9458185 0.0 -0.58084136 0.1742524 -2.0329447 0.11616827 -0.49371514 0.14521034 1.1035986 0.435631 -0.6098834 -0.5517993 -0.1742524
000050 1a f9 0f f5 c0 fa eb 08 fe 0d cc da ef 16 2b fa
       0.75509375 -0.20329447 0.435631 -0.31946275 -1.8586923 -0.1742524 -0.6098834 0.23233654 -0.058084134 0.37754688 -1.5101875 -1.1035986 -0.49371514 0.6389255 1.2488089 -0.1742524
000060 f1 14 05 ea 08 14 f7 14 04 c7 00 0d 1b f6 ec 02
       -0.435631 0.58084136 0.14521034 -0.6389255 0.23233654 0.58084136 -0.26137862 0.58084136 0.11616827 -1.6553978 0.0 0.37754688 0.7841358 -0.29042068 -0.58084136 0.058084134
000070 1a d3 f1 f9 13 10 dd fc 01 ee 0f ff f5 fa 09 f4
       0.75509375 -1.306893 -0.435631 -0.20329447 0.5517993 0.46467307 -1.0164723 -0.11616827 0.029042067 -0.52275723 0.435631 -0.029042067 -0.31946275 -0.1742524 0.26137862 -0.3485048
000080 f8 f7 d4 e2 0a 37 21 14 02 ff 18 f8 03 04 ff 1a
       -0.23233654 -0.26137862 -1.277851 -0.871262 0.29042068 1.5973136 0.9583882 0.58084136 0.058084134 -0.029042067 0.6970096 -0.23233654 0.0871262 0.11616827 -0.029042067 0.75509375
000090 07 ce c9 dc 05 df f2 0e ef e1 ff 04 11 0a d6 ff
       0.20329447 -1.4521034 -1.5973136 -1.0455145 0.14521034 -0.9583882 -0.40658894 0.40658894 -0.49371514 -0.9003041 -0.029042067 0.11616827 0.49371514 0.29042068 -1.2197669 -0.029042067
0000a0 09 ff f3 ed fb fb ee 1c e3 fe 09 f9 05 01 f2 ff
       0.26137862 -0.029042067 -0.37754688 -0.5517993 -0.14521034 -0.14521034 -0.52275723 0.8131779 -0.84221995 -0.058084134 0.26137862 -0.20329447 0.14521034 0.029042067 -0.40658894 -0.029042067
0000b0 01 f6 00 fe 07 03 06 02 11 fe 0e ef dd 06 00 01
       0.029042067 -0.29042068 0.0 -0.058084134 0.20329447 0.0871262 0.1742524 0.058084134 0.49371514 -0.058084134 0.40658894 -0.49371514 -1.0164723 0.1742524 0.0 0.029042067
0000c0 16 08 03 11 ff 05 0b 02 0e eb 1a f4 8d f2 01 fb
       0.6389255 0.23233654 0.0871262 0.49371514 -0.029042067 0.14521034 0.31946275 0.058084134 0.40658894 -0.6098834 0.75509375 -0.3485048 -3.3398378 -0.40658894 0.029042067 -0.14521034
0000d0 0d 07 e7 ce f2 24 ff df 0b 14 0a fb f6 fc 0f f0
       0.37754688 0.20329447 -0.7260517 -1.4521034 -0.40658894 1.0455145 -0.029042067 -0.9583882 0.31946275 0.58084136 0.29042068 -0.14521034 -0.29042068 -0.11616827 0.435631 -0.46467307
0000e0 fe ba ff f1 22 0f 0e fa 29 f7 12 fc 1c 02 dc cf
       -0.058084134 -2.0329447 -0.029042067 -0.435631 0.9874303 0.435631 0.40658894 -0.1742524 1.1907247 -0.26137862 0.52275723 -0.11616827 0.8131779 0.058084134 -1.0455145 -1.4230613
0000f0 ef c2 dc e2 0d 09 1e ef 01 1e 04 1d 30 04 e6 1b
       -0.49371514 -1.8006082 -1.0455145 -0.871262 0.37754688 0.26137862 0.871262 -0.49371514 0.029042067 0.871262 0.11616827 0.84221995 1.3940192 0.11616827 -0.75509375 0.7841358
