model/customModel/modelB/ASLclassifier6b.tflite (tflite, 5376 bytes, 4 tensors)

sequential_9/dense_21/BiasAdd/ReadVariableOp f4 [28]
000000 bf af 92 bf 7c 67 d9 3e 7d f3 af bd 04 98 56 3f
       -1.1459883 0.42461765 -0.085913636 0.8382571
000010 8b f3 48 be 84 03 93 3f e9 95 5f 3d 5c 0b 2d 3e
       -0.19624154 1.1485448 0.054586325 0.16898865
000020 06 58 41 3f 45 d2 5e 3d 63 7d 84 3e e8 1e 04 3b
       0.7552494 0.054399747 0.25876912 0.0020160023
000030 40 7a f4 bf 30 72 9f bf c3 cc 17 3f 4e 21 85 3e
       -1.9099808 -1.2456722 0.59296817 0.26001972
000040 c2 fd 00 3f c0 c9 f9 3e 49 9e 18 bf 27 ff ea be
       0.50387204 0.48786736 -0.59616524 -0.4589779
000050 c6 91 58 3e c3 f2 6e 3e 38 be f6 3e a2 44 36 be
       0.21149358 0.23334794 0.48192 -0.17799619
000060 f6 a7 a2 be 2e 4e a5 bc ce 49 90 bf 34 67 6c 3e
       -0.3176877 -0.02017888 -1.1272523 0.23086244

sequential_9/dense_20/BiasAdd/ReadVariableOp f4 [21]
000000 00 c0 49 be d6 20 0e 3e 4a a5 14 3f 95 39 ed bd
       -0.19702148 0.13879713 0.5806471 -0.115832485
000010 68 ba 80 3e b3 24 f3 bf c4 d0 b5 bc d7 85 93 be
       0.25142217 -1.8995575 -0.022194274 -0.2881305
000020 0b 8a 30 3f db 27 eb 3e fb 3c 7e 3f 58 15 99 bf
       0.68960637 0.45928845 0.993118 -1.1959639
000030 82 1a 71 bd 8d 2a 06 40 b4 43 ee bf c6 15 81 3f
       -0.05886317 2.096347 -1.8614411 1.008477
000040 b0 db 88 3f 0e fa 09 40 6b c5 13 3f 55 58 88 3e
       1.0692043 2.1558871 0.5772311 0.26629892
000050 6a 59 63 bf
       -0.8880831

sequential_9/dense_20/MatMul f4 [21, 13]
000000 8f e9 80 be 37 02 cb be 12 52 6d be 8a f5 30 bd
       -0.2517819 -0.39650127 -0.23175839 -0.043202914
000010 33 59 8a bd 4b 51 25 be 18 7e 64 3d 37 2a 46 be
       -0.06755295 -0.16144292 0.055784315 -0.19352041
000020 be 72 07 bf f4 92 23 3c bd 78 c3 3c 34 34 12 3e
       -0.5290946 0.009983767 0.023861283 0.14277726
000030 7a dc 91 be a1 48 de 3d 02 b0 a1 40 a8 8c 33 3f
       -0.28488523 0.108536966 5.0527353 0.701365
000040 23 48 32 bf 20 65 87 3f 27 1d 04 40 68 bb 30 bf
       -0.6964132 1.0577736 2.0642793 -0.6903596
000050 28 eb 6c 3e 14 81 d2 be 3d b8 49 be 09 e7 67 3f
       0.2313658 -0.41114104 -0.19699188 0.90586907
000060 5b 0d 32 3f 03 ee 26 3f c4 b2 df bd a3 ec ec 3f
       0.6955163 0.6520693 -0.10922769 1.8509716
000070 d8 7f 3e be 36 6b f7 3f 5b f7 85 be 04 9b a0 3f
       -0.18603456 1.9329593 -0.2616528 1.2547307
000080 63 9a b5 3f e0 db e6 3e 5b 67 00 3e c3 da 80 3e
       1.418774 0.45089626 0.12539427 0.25166902
000090 40 be ea 3e e9 37 0b bf 3f 1e 02 3f b6 50 a6 be
       0.45848274 -0.5438219 0.508274 -0.32483453
0000a0 48 c0 4d be c5 5f 51 3d 44 04 93 3e ff 56 b4 be
       -0.2009288 0.051116724 0.28714192 -0.35222623
0000b0 2c 23 98 be 5e ef 4a be 08 e0 cd bd 6f c3 3a be
       -0.29714334 -0.19817874 -0.10052496 -0.18238614
0000c0 c1 ba 15 be 20 2a 9b be 03 fd 25 be 65 09 8d be
       -0.14622022 -0.30305576 -0.16209798 -0.2754623
0000d0 4d 89 2c 3d d3 a5 4a be ca ae d7 3d fb b5 dc bf
       0.042123128 -0.1978982 0.10531385 -1.7243036
0000e0 f9 1d dc be f2 91 a4 3f 25 c9 30 3f 63 0d 88 3f
       -0.42991617 1.2857039 0.6905692 1.0629085
0000f0 cd d7 aa 3e b0 16 a6 3e f3 a4 3a 3f 50 ba 35 be
       0.33367768 0.32439184 0.7290794 -0.17746854
000100 47 a2 b1 3f 89 48 11 3c 8b 7c 8a 40 e9 eb 41 3f
       1.3877648 0.008867391 4.327703 0.75750595
000110 6f f1 07 40 26 99 35 3f 3a be b9 3f 2b 14 d4 3f
       2.124111 0.7093681 1.4511178 1.6568655
000120 98 f4 28 3f ed 01 80 3e 54 43 5c 3d 1b 65 a2 3e
       0.6599822 0.2500147 0.053775147 0.31717762
000130 43 b4 d8 3d 7f e2 d3 3e 4d 24 6e 3d 60 07 83 3f
       0.10581257 0.4138374 0.058140088 1.0236626
000140 18 2b 99 3e 01 d7 1d 40 f3 d5 d2 be 63 84 ad 3f
       0.2991569 2.4662478 -0.41178855 1.3556026
000150 d7 97 99 bc a6 61 7e be c0 96 a3 3b 9d 83 6f 3f
       -0.01874916 -0.24841937 0.004992336 0.935602
000160 eb 6d b0 be c9 53 04 3f c5 44 13 bf 61 65 9c 3c
       -0.3445886 0.51690346 -0.5752681 0.01909131
000170 f6 79 22 c0 df a5 c3 3e 1b 73 3e 40 9f 3c 28 bf
       -2.538694 0.38212487 2.9757755 -0.657175
000180 61 71 bb be d4 ab 68 3f cc 83 df bd 57 cf 9d 3e
       -0.3660994 0.9088719 -0.1091381 0.3082225
000190 f1 e5 e8 bd 7f b4 78 3e 7b e3 99 3f 3d b5 8c 3e
       -0.11371983 0.24287604 1.2022547 0.27482024
0001a0 c8 a2 0a 3e 86 89 9e c0 14 d1 64 3f b7 34 b0 bf
       0.13538659 -4.9542875 0.8938153 -1.3766087
0001b0 69 ba f3 3e c6 bd c3 3f 3e 52 1b 3f 49 60 e1 be
       0.47603157 1.5292289 0.60672367 -0.44018772
0001c0 6a 89 7d 3f 3b 4b 9f be b2 95 97 3f 76 c1 a2 be
       0.990378 -0.31112084 1.1842558 -0.31788224
0001d0 23 58 74 3f e3 0e 25 3e 2d 58 8d c0 42 a9 fd 3e
       0.95446986 0.1611896 -4.4170136 0.49543196
0001e0 59 ed 54 bf 6c b7 43 3f 7c 2f d5 bb 2c 10 96 be
       -0.83174664 0.76451755 -0.0065059047 -0.29309213
0001f0 cf b2 1c 3f f0 71 8e 3f 2b c4 12 3e 5f e2 e5 3f
       0.6121034 1.1128521 0.14332645 1.7959708
000200 5b 34 0d bf 18 05 e4 3f 2a 31 de 3d 48 34 90 40
       -0.55158013 1.7814054 0.10849221 4.506382
000210 6b dd b6 3e 07 63 0d 40 aa 02 70 3f 73 22 19 bf
       0.35715804 2.2091691 0.93754065 -0.5981819
000220 38 fb b5 be f6 1d 84 bf c7 06 65 3f ac b0 7b bd
       -0.35543227 -1.0321643 0.89463466 -0.061447784
000230 38 6a 55 3f a6 d6 83 3d 8d 78 cb 3f 74 95 15 3d
       0.833652 0.06437425 1.5896164 0.036519483
000240 e5 85 cc bf 69 58 0e 3e 63 73 7d be 7a 98 21 3f
       -1.5978361 0.13900913 -0.24751048 0.63123286
000250 af 5a 39 bd 07 5d 77 3f 29 17 7f 3f ea 52 87 3f
       -0.0452525 0.96626323 0.99644715 1.0572178
000260 3a 9b 38 3f d2 69 aa 3f 2f a4 dc 3f 49 27 c0 3f
       0.72111857 1.3313544 1.7237605 1.5011989
000270 0e af a9 3d 4d 9d 61 c0 74 20 4a 3e ec 29 8e bf
       0.08285342 -3.5252259 0.19738942 -1.1106544
000280 63 1c 9d 3f 04 2e b9 3f 00 e2 35 bf 54 7a 89 3f
       1.2274288 1.4467168 -0.71047974 1.0740457
000290 05 57 51 be 4e af 47 3e aa 18 0a be 30 c9 61 3f
       -0.20443352 0.19500467 -0.13485971 0.8819761
0002a0 97 39 ea be 23 49 3f bd 08 89 61 c0 85 8b bf 3e
       -0.45747063 -0.046700608 -3.5239887 0.37411132
0002b0 61 e0 99 bd a4 2f ed 3e ed 29 9a bf 96 57 85 bf
       -0.075135 0.4632541 -1.2044045 -1.0417354
0002c0 39 05 13 3f 64 1e 94 be 95 eb 85 3e e2 07 f8 3d
       0.57429844 -0.28929436 0.26156297 0.121108785
0002d0 5b 74 1c 3f 8d 13 f0 3e 38 99 12 3e 15 33 67 40
       0.61115044 0.46889916 0.14316261 3.6124928
0002e0 16 67 b3 3e b0 e4 d9 3f df ef 2f 3f 40 f9 86 3f
       0.35039586 1.7022915 0.6872539 1.0544815
0002f0 07 8a a2 3e 6a 59 ad 3f 7c 6c df 3f 30 33 41 3e
       0.31745932 1.3542912 1.7454982 0.18867183
000300 be d5 85 3f d6 fb d5 3e 32 d0 8d 3f 96 4f d1 3d
       1.0455854 0.41793698 1.1079161 0.10220258
000310 1c e9 92 c0 6e c2 e6 3d 6b 5f 7b 3f cb 23 40 3f
       -4.5909557 0.11267553 0.9819247 0.75054616
000320 f7 88 38 3f 64 df a2 3e cd ca d4 be bb aa 3d bd
       0.7208399 0.3181106 -0.41560975 -0.0463054
000330 e2 d4 ad 3e e1 38 d6 be 80 a4 cd be 62 79 03 3e
       0.3395148 -0.4184027 -0.40164566 0.12839273
000340 e5 c6 89 3d 15 e8 f7 3e 70 c8 99 3e 65 4c 6c c0
       0.06727389 0.48419252 0.30035734 -3.6921628
000350 b5 e7 90 3e e0 18 a0 bd 90 8a 0c 40 2f 9b 61 bf
       0.28301778 -0.078172445 2.1959572 -0.88127416
000360 0c 70 a7 3f c0 95 e7 be 29 c2 0b 3f 2b 4e 72 3e
       1.3081069 -0.45231438 0.5459314 0.23662631
000370 31 a5 1b 3f a5 9f 98 3e 04 f4 0c 40 44 d9 a1 3d
       0.6079894 0.298093 2.2023935 0.07902768
000380 96 e2 14 40 b8 ea 52 be 55 80 b2 bf 35 fa 8a 3f
       2.3263297 -0.2059735 -1.3945414 1.0857607
000390 fb 6b 15 3d 25 ba 48 be 7d 35 16 bd 83 ee 82 be
       0.03647993 -0.19602259 -0.036672104 -0.25572595
0003a0 65 df b0 3e 5a b8 8c bf 2e 6c 90 3d 5e 70 4b c0
       0.34545437 -1.099376 0.07051884 -3.1787333
0003b0 71 b1 46 3d b4 26 bb 3f db 4b f9 3e 00 b9 f4 bd
       0.048509065 1.4621186 0.48690686 -0.119493484
0003c0 45 bb a8 3e 6f d1 63 c0 d1 d5 c7 3e 83 0b e3 3e
       0.32955375 -3.5596578 0.39030316 0.4434472
0003d0 d7 2f b4 3e 61 ea 7c 3f 4f 5b 36 3e 40 6d 43 3d
       0.3519275 0.98795134 0.17808269 0.04771161
0003e0 30 91 b3 be 28 9b 9b 3e a8 80 de bf e6 1c 1b 3f
       -0.35071707 0.30391812 -1.7383013 0.6059097
0003f0 62 6e 5f be 3b 03 62 3f d7 0e fe be 2c 90 b4 3d
       -0.21819451 0.8828618 -0.49620697 0.08816561

sequential_9/dense_21/MatMul f4 [28, 21]
000000 20 bc e2 3d 81 a7 13 3e 25 6e 87 bf 07 67 bf be
       0.11071038 0.14419366 -1.0580488 -0.3738329
000010 da f7 0c 3f 7e 19 a3 be 18 19 5d bf b5 00 1f bf
       0.5506569 -0.31855386 -0.86366415 -0.62110454
000020 75 48 bb 3e 42 6c b9 3e bd 2f ee bf 95 3e 25 3f
       0.36578718 0.36215407 -1.8608319 0.6454862
000030 b3 9d 4c 3f 63 59 c9 be 63 c3 a0 bd 2e aa 81 be
       0.7992813 -0.3932601 -0.07849767 -0.2532515
000040 1e 93 49 3f b2 a1 00 c0 72 32 d6 3e f4 21 30 3f
       0.7874011 -2.009869 0.41835362 0.6880181
000050 01 58 29 3f bb c4 8c be 76 e4 02 bf 7c 60 92 be
       0.6614991 -0.27493843 -0.51129854 -0.28589237
000060 53 f0 48 be 3f 61 56 bf 70 f3 e6 bf 26 d2 c7 bf
       -0.19622926 -0.83742136 -1.8043041 -1.5611007
000070 3a 11 e3 3d 66 8b d1 3e 4d fa a4 3d 97 03 36 3f
       0.1108727 0.40926665 0.080555536 0.7109923
000080 62 61 3b c0 b5 04 6c c0 4c ab 10 3f 99 64 1b c0
       -2.9278188 -3.6877873 0.5651138 -2.428015
000090 da d3 8c 3e de 30 49 3f b1 07 49 3f f2 5d bc be
       0.2750538 0.7859019 0.7852736 -0.36790425
0000a0 51 c4 13 bf f6 3f 53 c0 0c c5 c7 be af 5e 8e 3d
       -0.5772143 -3.3007789 -0.39017522 0.06951653
0000b0 c6 77 d3 3e 3e d8 98 3a 0a f4 d4 be ac 2f b3 3e
       0.41302317 0.0011661125 -0.41592437 0.34997308
0000c0 71 ac 2a 3e ea 8a 9c 3e 6c d2 c1 3e 0c 46 fd bd
       0.16667344 0.30574733 0.37855852 -0.12366876
0000d0 79 12 28 3f 27 cc 75 3d f8 ff 5c bf 60 fd 72 be
       0.6565319 0.060009148 -0.8632808 -0.23729467
0000e0 08 74 1b 3e b6 ca 35 3e e4 93 cd 3d 62 6e c8 be
       0.15180981 0.1775311 0.100379735 -0.39146715
0000f0 39 f8 ca bf 40 27 70 be f0 c8 94 bf 73 d5 5f 3e
       -1.5857002 -0.23452473 -1.1623821 0.21858768
000100 1a 4f c7 be 64 64 b9 3d 1b 56 c8 bc f0 de 03 3f
       -0.38927537 0.09052351 -0.02445512 0.5151205
000110 48 eb 22 c0 d0 70 53 be 93 0e 8e 3e 9b 8c 55 3e
       -2.5456104 -0.20648503 0.27745494 0.20854418
000120 21 e9 27 3e 7f cc 9b bf 34 b9 9c 3b b6 c5 34 3e
       0.16397525 -1.2171782 0.00478282 0.17653546
000130 17 97 8f 3f 43 32 cc bf bf 8d cc 3c a1 b8 b5 be
       1.1217984 -1.5952839 0.024969934 -0.35492423
000140 1d 1f 0a 3f ab 61 8b bf 06 b7 b6 3e 5e e5 f3 be
       0.53953725 -1.0889181 0.3568651 -0.4763593
000150 e1 0b c6 3c 8c a3 70 bd 12 f5 9a be 21 b7 93 be
       0.024175586 -0.05874972 -0.302651 -0.28850654
000160 8f d9 e3 3d 9e 10 c4 3e 16 45 24 3f a6 ea e3 3e
       0.111254804 0.38293928 0.64167917 0.4451496
000170 a3 12 4f 3e c7 b0 b7 bd 38 b7 62 bf 48 89 ac 3e
       0.20221953 -0.089692645 -0.8856082 0.33698487
000180 14 02 72 3f 89 56 a6 3d 3f 71 6a bd 82 72 0c be
       0.9453442 0.08121974 -0.057236906 -0.13715556
000190 91 98 ca bf 96 fc 01 bf dd a6 e4 3e 57 91 0d bf
       -1.582781 -0.5077604 0.44658557 -0.55299896
0001a0 c8 d1 bd be d3 3c 5c 3d 97 c4 1c 3f 24 11 50 3e
       -0.37074113 0.053768944 0.6123747 0.20319039
0001b0 f6 15 00 3e f9 63 5b 3f d9 95 d9 bf 09 d6 7b bf
       0.12508377 0.8569942 -1.6998855 -0.98373467
0001c0 1b ba 40 c0 bc e7 8f 3f d6 c8 4d 3f fe 5d 90 be
       -3.011359 1.1242595 0.80384576 -0.2819671
0001d0 ff cd 0a c0 a3 da 20 be 56 3c 43 be 8a 76 cd bf
       -2.168823 -0.15708403 -0.19065985 -1.60518
0001e0 b1 87 f7 3e 3a 2a 86 3f fe b8 dd bd dd 11 5f c0
       0.48345712 1.0481637 -0.108263 -3.4854653
0001f0 a6 44 1f bf 2a 3a c9 bf 6a 4d d6 be 65 da d9 3e
       -0.62214124 -1.5720875 -0.41855937 0.42549434
000200 2d e1 81 3e bd 50 3e be dd 03 e1 3d 90 2b 15 3e
       0.25367108 -0.18585487 0.10987065 0.14567399
000210 6c 9f 54 3e 7f 12 18 bf 45 0f 09 bf 21 02 c6 be
       0.2076394 -0.5940322 -0.53538924 -0.386735
000220 5d c1 f7 3e f0 e5 cb 3e 93 86 4f bf 90 13 08 bf
       0.48389712 0.39823866 -0.8106472 -0.5315485
000230 8e 24 f8 3e a4 6e 80 bf b8 e5 55 3d 57 a3 12 3d
       0.4846539 -1.0033765 0.05222103 0.035800304
000240 51 56 37 bf f8 1b 41 3d 8c d0 d0 bc 70 e7 6d be
       -0.71616083 0.047145814 -0.025490068 -0.23232818
000250 eb 25 5e 3f df e8 9b 3e 8a 8f 17 3e b2 dd c1 be
       0.8677661 0.30451104 0.1480085 -0.37864453
000260 ab 37 89 3d 00 7c 32 bd aa f9 2b 3e ac 11 5c bf
       0.06700071 -0.043575287 0.16794458 -0.85964465
000270 21 d1 17 bf fa c1 57 3f 6f 05 3c bd 26 63 a3 bf
       -0.5930348 0.8428036 -0.04590362 -1.2764633
000280 8a a7 06 bf 32 d7 4d 3e 8c dd 7c 3e c1 b5 59 be
       -0.52599394 0.20101622 0.24693888 -0.2126074
000290 d5 e3 3c 3c fa 70 17 be 0f 88 4d be 87 6d f6 bd
       0.011528929 -0.14789191 -0.20071433 -0.120326094
0002a0 1d 2c 2e 3e d4 ad e8 be 02 b6 21 3f b9 d2 e0 bc
       0.17009015 -0.4544512 0.63168347 -0.02744423
0002b0 1c 2f 52 3f 04 76 f3 bd 27 9c 24 3e 6e c8 0b c0
       0.82103133 -0.11887744 0.16075192 -2.1841083
0002c0 3f 71 0e 3f 24 6a 30 3f cf ef 86 bf 74 da 50 bf
       0.5564155 0.6891196 -1.0541934 -0.81583333
0002d0 36 91 d7 bd 07 9d 12 3c 9f 40 f7 bd 86 58 7f 3f
       -0.10525744 0.008948571 -0.12072872 0.9974445
0002e0 d0 62 04 c0 88 8c 9f bc b4 9e 3f 3f de 7a 87 bf
       -2.068531 -0.01947619 0.74851537 -1.0584371
0002f0 87 40 0e be 10 02 49 3e 65 e7 d3 3e f6 5e f7 3e
       -0.13891803 0.19629693 0.41387478 0.48314637
000300 55 96 d5 be 1e 12 4d 3e 6c 67 8f 3e ac d8 32 3f
       -0.41716257 0.20026442 0.28008592 0.69861865
000310 82 38 e9 be 2a 35 17 be c4 27 17 3e 62 49 41 3f
       -0.45550925 -0.14766374 0.14761263 0.755026
000320 d6 c8 0d bf a7 82 95 be e2 bc 13 bf 4a bc 1f 3e
       -0.55384576 -0.29201242 -0.5771009 0.1559917
000330 d0 d4 ab 3d 55 7e 9d bf 16 35 01 bf 22 c8 85 bf
       0.083902 -1.2304178 -0.5047163 -1.0451701
000340 91 ab ff be e6 60 87 be ef 20 f1 bd e5 cd b8 bf
       -0.49935582 -0.26441115 -0.1177386 -1.4437834
000350 06 db 67 bf db c8 1f be 69 db 15 bf 99 63 48 c0
       -0.9056858 -0.15603964 -0.5853792 -3.131079
000360 11 16 eb be ae 50 a3 3e 7c 09 2b bf 62 90 4a 3e
       -0.45915273 0.3189749 -0.66811347 0.1978164
000370 d7 52 15 be 99 dd 26 3d 67 96 bf bd e0 c1 17 3f
       -0.14582382 0.040738676 -0.09354859 0.59280205
000380 51 75 cc bf dc c7 24 3f d0 d5 41 bc 71 df e7 3e
       -1.5973302 0.6436746 -0.011830762 0.4528766
000390 b6 53 1f 3f 3a 14 03 3f 2c 8e 3b 3d b2 e5 46 be
       0.6223711 0.5120274 0.045789883 -0.1942356
0003a0 25 d7 1b bf 17 72 a2 bd 81 8b 67 be 5d d8 8b be
       -0.6087516 -0.07931917 -0.2261181 -0.2731351
0003b0 18 29 94 be 71 5c 8e bf 64 aa cc bc e3 3c db bf
       -0.28937602 -1.1121961 -0.024983592 -1.7127956
0003c0 08 0a e8 bd 2a 39 14 3e e5 62 fa 3e 04 29 f5 be
       -0.11330038 0.14474931 0.48903576 -0.47882855
0003d0 6e 0a 23 3f 23 ca c8 3e 68 59 a0 bf 3e 57 3e bf
       0.6368779 0.39216718 -1.2527285 -0.7435187
0003e0 9e e1 40 3f d7 02 ce 3e d7 12 db bd d4 b4 29 3f
       0.75344265 0.40236542 -0.10696953 0.66291547
0003f0 0c 47 13 3d 5b fe b4 be e9 9d 07 3f e4 ed ac bd
       0.035956427 -0.35350308 0.52975327 -0.084438115
