model/customModel/modelB/ASLclassifier3b.tflite (tflite, 16064 bytes, 10 tensors)

sequential/dense_4/MatMul f4 [28, 30]
000000 f1 14 50 3e 0c 7e 40 be 8c b5 30 3e be d1 c0 3d
       0.20320489 -0.18798083 0.17256755 0.09415005
000010 3f f9 a3 3e 72 70 cb be db 7e ee be d3 f5 3c bf
       0.32026097 -0.39734226 -0.46581158 -0.738126
000020 2d 06 d6 be 01 09 c2 3e 48 03 ad be d0 b4 18 3f
       -0.41801587 0.37897494 -0.33791566 0.596509
000030 c9 53 08 bf fc 2e 7c ba 68 ee aa 3e 93 3b a9 be
       -0.53252846 -0.00096200383 0.33385015 -0.33053264
000040 0d 8e 0a bf f9 c8 98 3e 45 e9 90 3d 09 0e 7f be
       -0.54123 0.2984083 0.07075743 -0.24907698
000050 0f cc 41 be 86 70 7e 3d 01 85 89 bf bb 8e 7c be
       -0.18925498 0.06211903 -1.0743715 -0.24663822
000060 cc 3f c7 3d 58 60 25 bf e7 b9 9e 3e cd 92 9b be
       0.09728965 -0.64600134 0.31001207 -0.30385438
000070 d0 da f3 be 55 77 1e bf de 3b f8 be 70 2b 2a bf
       -0.47627878 -0.61900836 -0.48483175 -0.6647253
000080 f7 7c be 3d b5 cf 8c be 51 2e de 3e 16 56 13 bf
       0.09301179 -0.27502218 0.43394712 -0.5755323
000090 4e 8a 81 3f b9 e3 72 be 2d 11 88 3e 62 f2 66 bf
       1.0120332 -0.23719682 0.26575604 -0.90213597
0000a0 53 d1 90 be 24 4c 40 bf c1 6e bb bb b0 70 d5 be
       -0.28284702 -0.7511618 -0.00571999 -0.41687536
0000b0 04 81 08 bf 9f ad 00 3f 2f 17 58 bf 72 70 b9 be
       -0.5332186 0.50264925 -0.84410375 -0.362186
0000c0 30 e1 42 be 7c 21 59 be ed 12 81 3e 12 4b 06 bf
       -0.19031215 -0.2120418 0.25209752 -0.524583
0000d0 fa d3 69 bf 9d cf ad be aa 0e 6b 3f 5c 6a ad be
       -0.91339076 -0.3394746 0.9181925 -0.33870208
0000e0 09 bc 43 3b e6 bd 58 be 9b a2 ed be ce e8 4f 3e
       0.0029866716 -0.2116619 -0.4641312 0.20303652
0000f0 d4 71 5d be ee fc 89 bc ce 58 7e be 7b cf 9c be
       -0.21625453 -0.01684424 -0.24838564 -0.30627045
000100 bf 8d 36 3f c1 90 5b bf c8 d2 00 bf a5 5c 3e bf
       0.7131004 -0.8576775 -0.50321627 -0.74360114
000110 a8 25 af be 37 8a 98 be b4 59 74 3e e7 e8 cb be
       -0.34208417 -0.2979295 0.23862344 -0.39826128
000120 75 db d5 bd b5 f9 c6 3e ff a2 25 bf 41 ad 76 3e
       -0.10442249 0.38862386 -0.6470184 0.24089529
000130 86 37 3b bf 6c e0 40 bf 04 ab 34 3e 85 27 b0 be
       -0.731316 -0.7534244 0.17643362 -0.3440515
000140 88 f4 3e bf 6b 10 93 bc 64 45 a7 be 08 61 2e 3e
       -0.74591875 -0.017952165 -0.32670128 0.17029202
000150 72 02 b1 be 2a 31 aa 3d 20 b4 ba be b4 2f 8f 3e
       -0.34572178 0.083101586 -0.3646555 0.27966082
000160 4e 1f 05 3e 9d 3b 98 be 1d 09 ea be 41 6f b4 bd
       0.13000223 -0.2973298 -0.45710078 -0.088102825
000170 e9 f6 9d 3d 9e fe 31 3e c2 2c ad 3e d1 f7 9b be
       0.0771311 0.17382285 0.3382321 -0.30462506
000180 78 be 41 bf e0 be db be ba e1 39 3f 0b 3b 45 bf
       -0.7568126 -0.42919064 0.72610056 -0.7704322
000190 24 bf 08 bd 50 a8 cb be 78 71 58 be 34 34 e4 3e
       -0.03338541 -0.3977685 -0.21137035 0.44571078
0001a0 38 24 0c bf 16 e4 c1 be 88 f0 54 bf a5 95 29 bf
       -0.54742765 -0.37869328 -0.8317952 -0.66243964
0001b0 90 26 a3 3e 65 ba 76 3f 7c 6c 2a bf f5 8a 2a bf
       0.31865358 0.96378165 -0.66571784 -0.6661828
0001c0 61 ba 10 bf 1e ce d9 be 46 07 15 bf 3d 9a ed be
       -0.5653439 -0.42540067 -0.58214223 -0.46406737
0001d0 66 2f 1b bf a2 8c cb bd 4b f7 7b 3d 6f 18 37 3f
       -0.606192 -0.09938933 0.061515134 0.7152166
0001e0 dc ef 19 3f b5 f6 f8 3e 1c ae 8b bd 72 01 ba be
       0.6013162 0.48625723 -0.06820318 -0.36329228
0001f0 7a b0 a7 3e 37 f7 83 be e1 72 1b 3f 9d 7e 0a bf
       0.32751828 -0.25774547 0.60722166 -0.54099447
000200 51 3d d5 3e 6f d2 dd 3e ae 48 c2 be 23 34 dd be
       0.41648343 0.4332461 -0.37946075 -0.4320384
000210 7a 1c 0e 3d 32 f5 f2 be b4 79 10 bf d0 99 a0 be
       0.034695126 -0.47452694 -0.56435704 -0.3136735
000220 ae cc 01 3e 14 de c1 be 39 da 28 bd a6 eb 78 be
       0.12675735 -0.37864745 -0.04122374 -0.24308643
000230 d2 05 13 be 0c 57 39 bf f6 e0 3a bf 3b 19 4a be
       -0.14357689 -0.7239845 -0.72999513 -0.19736187
000240 05 a7 99 be ca 52 1e bf e9 8b 8e 3e 8f a3 05 bf
       -0.30010238 -0.61845076 0.27841118 -0.52202696
000250 d0 71 56 be 86 87 4b bf 12 03 2f 3f c9 44 8e be
       -0.20941854 -0.7950367 0.6836406 -0.27786854
000260 4a 62 96 3d ea 2c c2 3e cb 8a a5 3d 17 4b 5f bf
       0.07342966 0.37924892 0.08083113 -0.87223953
000270 28 12 3a bf cc 94 44 bc 77 c9 3f bf a5 92 64 bf
       -0.72683954 -0.011998367 -0.74916786 -0.8928626
000280 a4 a7 0f 3f b6 18 45 bf 03 87 15 bf 5b e5 dc be
       0.56115174 -0.7699083 -0.58409137 -0.43143734
000290 ff 9a 31 bf 2b 14 3c be 06 f7 28 bf aa fc 19 bf
       -0.6937713 -0.18367068 -0.6600193 -0.6015116
0002a0 d0 b6 31 be 04 d2 67 3f 45 c5 94 bd 80 71 62 bf
       -0.17354894 0.90554833 -0.07264189 -0.8845444
0002b0 cf a1 9c be f8 e7 ec 3e 3e a8 96 be a1 0b 19 bf
       -0.305922 0.46270728 -0.29425234 -0.5978337
0002c0 39 6b 75 3e f2 9e 70 be 4d 90 ca bd e2 23 30 bf
       0.23966683 -0.23498133 -0.098908044 -0.6880475
0002d0 54 05 e1 bc 3b 93 a2 be 40 9a 1d 3e ad 2e 3d 3e
       -0.027468361 -0.31752953 0.15390873 0.18474837
0002e0 46 2f 98 3d 45 22 f0 be 22 a1 12 bf 54 b4 28 be
       0.07430892 -0.46901146 -0.5727712 -0.1647504
0002f0 09 11 48 bf 8f 58 1b bf ff 3c d9 be 08 76 11 be
       -0.78150994 -0.60682005 -0.4242935 -0.14205182
000300 35 39 01 3e 08 79 d0 bd 68 e7 7e be 35 c3 86 be
       0.12619479 -0.10179335 -0.24892962 -0.26320806
000310 85 e2 61 be 7a e7 0f 3f bb 4a da bd 9c 6e 7a 3d
       -0.22059067 0.5621258 -0.10658785 0.06114064
000320 3e 31 2a bf 50 0f df 3e a8 1b 23 3f f6 7d db 3d
       -0.6648139 0.4356637 0.63714075 0.107173845
000330 8f 93 94 3d 13 7e 25 3e 40 67 1c bf 6f 86 83 3d
       0.07254707 0.16161375 -0.61095047 0.064221255
000340 8b 86 59 3e 27 38 b0 be 6a 8b ac be 76 6f 12 be
       0.2124273 -0.3441784 -0.33700114 -0.14300331
000350 77 ec 13 3e d2 e8 4c 3b c5 eb 6c 3e 16 93 1e bf
       0.14445673 0.0031266701 0.23136814 -0.61943185
000360 9b 22 56 bf d2 d1 ba 3e 9c c6 93 bf 15 34 3a be
       -0.83646554 0.36488205 -1.1544986 -0.1818393
000370 8b 31 d1 3e 50 c9 64 bc bd fc cd 3d 64 8a 14 be
       0.4085811 -0.013964012 0.100579716 -0.14505917
000380 f5 a7 99 3c 90 89 c9 be 3c a2 c4 be 1c 8e 2e 3f
       0.018756846 -0.39362764 -0.38405025 0.6818559
000390 97 32 0d bf 88 26 4f be 9d db eb bd c2 f0 fb be
       -0.5515532 -0.20229542 -0.11516497 -0.4920712
0003a0 f6 e8 91 3e 0a ce c1 be 7c ae 0b bf f4 10 b7 3e
       0.28498048 -0.37852508 -0.5456312 0.35755122
0003b0 1d d4 15 bf 15 9c ef bd 94 21 87 3e 68 df 0e 3e
       -0.58526784 -0.11699692 0.26392806 0.1395241
0003c0 48 51 08 3f e0 4e 00 bf 4e 90 18 3f 9a 46 86 bd
       0.53249025 -0.50120354 0.5959519 -0.06556435
0003d0 c6 1d ba be 88 d0 99 be 39 52 d8 3e 23 a3 f9 bd
       -0.3635084 -0.3004191 0.4225023 -0.12189319
0003e0 b5 4e 40 3e b5 45 b6 be bc dd c8 be 58 21 24 bf
       0.18780024 -0.35600057 -0.3923167 -0.6411338
0003f0 18 40 aa bd 34 61 02 bf 9c c9 0f bd 52 dd f3 be
       -0.08313006 -0.5092957 -0.03510438 -0.47629791

sequential/dense/BiasAdd/ReadVariableOp f4 [60]
000000 97 78 0b bf 34 19 fd be 87 79 5d bf 6c a8 13 bf
       -0.5448088 -0.4943329 -0.8651356 -0.57678866
000010 7f 8b af bf a7 7f 5b bf 28 24 5d bf 90 45 9d bf
       -1.3714446 -0.85741657 -0.86383295 -1.2286854
000020 cf 3e 98 be 2d e8 c4 be 36 57 99 bf 54 41 89 bf
       -0.2973542 -0.38458386 -1.197974 -1.0723062
000030 8e 52 fe be 26 31 5f bf 56 bc 16 bf 44 7d 7e bf
       -0.4967236 -0.8718437 -0.5888113 -0.9940989
000040 db 7b 9c bf 72 65 56 3d b4 cd 12 be 23 c1 5f bf
       -1.2225298 0.05234284 -0.14336282 -0.8740408
000050 bd 78 99 bf 7c 06 62 bf 17 d7 c1 bf 0f 1b c9 be
       -1.1989971 -0.88291144 -1.5143765 -0.39278457
000060 b7 2a 4a bf c3 a9 03 bf d8 dc 46 be 85 86 8f 3e
       -0.7897143 -0.5143091 -0.19420183 0.28032318
000070 6c c7 b9 bf 62 c9 27 bf 12 30 79 bf e1 aa 02 bf
       -1.4513984 -0.6554166 -0.97338974 -0.5104199
000080 2f 5b a8 bf cc c3 83 bf a4 48 d8 be b2 39 99 bf
       -1.3152827 -1.0294127 -0.4224292 -1.1970732
000090 92 a8 4c bf 40 96 44 bf 4b e1 0e 3f 20 b0 0d bf
       -0.7994472 -0.76791763 0.5581252 -0.5534687
0000a0 1d 7d a9 bf 9b c7 97 bf 0e c1 5b bf 3c 78 a1 bf
       -1.3241307 -1.185779 -0.85841453 -1.2614818
0000b0 8a 7b b5 bf 72 99 29 bf e2 c2 d0 be f7 d4 b9 be
       -1.4178326 -0.66249764 -0.40773684 -0.36295292
0000c0 c5 04 99 bf 1b 2e 7a bf 06 b4 f2 3d 6f 3b 99 be
       -1.195458 -0.977266 0.11850743 -0.29928157
0000d0 c2 ce 94 bf fc b1 4d bf 6c bf 0a bf 1f 8e 04 bf
       -1.1625597 -0.8034971 -0.54198337 -0.5177936
0000e0 ed 16 b4 be 70 41 ed be 76 fe 8e bf 69 df 87 be
       -0.3517374 -0.46338987 -1.1171405 -0.26537636

sequential/dense_4/BiasAdd/ReadVariableOp f4 [28]
000000 23 37 b9 bc bc 2a d8 bd 02 65 cb be 83 df 5d bc
       -0.022609299 -0.10555026 -0.397255 -0.013542059
000010 97 a0 65 3e 4b 4a 42 3f 39 18 d3 be ac ec 88 3e
       0.22424541 0.7589461 -0.41229418 0.26743066
000020 47 93 b9 bc 3d a7 ef 3e b0 f1 5d 3d d9 e0 37 3e
       -0.022653235 0.4680728 0.05418557 0.17956866
000030 3a 4c 10 3f 84 10 16 3f 8e bf 03 3e bc cc 46 3e
       0.5636631 0.5861895 0.12866041 0.19414037
000040 81 7d aa 3e 86 1e 4e be e1 08 8c bd 38 45 3f 3f
       0.33298877 -0.20128831 -0.06837631 0.74714994
000050 02 47 70 be 17 b5 28 bf bf e4 b8 bd 0d 85 7b 3e
       -0.23464587 -0.6590132 -0.09028005 0.24562474
000060 48 8c 0d bf 59 06 4a bf 2c bb 74 bf fd 72 ef be
       -0.5529218 -0.78915936 -0.955981 -0.46767417

sequential/dense_3/BiasAdd/ReadVariableOp f4 [30]
000000 52 b5 f0 3f 3d c5 72 3f 5d bc 51 3f ce 68 98 3d
       1.8805335 0.9483221 0.81928045 0.07441865
000010 b5 db c4 3f fe e9 ff 3f a1 e8 8c 3f df 71 a3 3f
       1.5379549 1.9993284 1.1008493 1.2769126
000020 81 c5 fb 3f 2d 1f 43 3f e8 68 5e 3f d7 21 eb 3f
       1.9669648 0.76219445 0.86878824 1.8369702
000030 b3 97 cc be a3 f2 81 3f b8 35 e8 3e 20 59 8a 3f
       -0.39959487 1.0152172 0.45353484 1.0808449
000040 d8 60 b4 3f 24 9d aa 3f b5 e9 05 3f 07 9d b9 3f
       1.4092054 1.3329206 0.52309734 1.4501046
000050 56 25 72 3f cd 69 0a 3f 6b 04 99 3f 1b a8 86 3f
       0.9458822 0.5406769 1.1954473 1.0520052
000060 31 71 c4 3f 11 59 a5 3f 62 99 b1 3f 98 f3 2a bf
       1.5347043 1.2917806 1.3874934 -0.66777945
000070 7f a6 85 3f 9d 4b bd 3f
       1.0441436 1.47887

sequential/dense_2/BiasAdd/ReadVariableOp f4 [40]
000000 43 0d 74 3d 11 df 1c 3e 6c 2d 83 3e c5 d9 c6 bd
       0.05958296 0.15319468 0.25620592 -0.09709505
000010 69 c5 17 3e ce 7b da 3d 7e f7 20 3d 7c 33 d6 3e
       0.148214 0.10668145 0.039298527 0.41836154
000020 8b 4f e8 bd 76 66 3e 3e cb 0b 3a 3e 90 d9 b0 3d
       -0.113432966 0.18593773 0.18168561 0.08635247
000030 64 65 ce 3d a9 45 65 bc 1a 5b 84 bd 3e 0f 4c 3d
       0.100779325 -0.013993659 -0.06462689 0.049819224
000040 d7 c5 30 3f 37 f1 e4 3e 7f d3 a2 3e ac e1 f1 3e
       0.6905188 0.44715282 0.31801984 0.47242486
000050 96 52 e3 be 8c a6 df 3e 83 2f 6f 3d 46 29 22 ba
       -0.44398946 0.43681753 0.05839492 -0.000618596
000060 5f 0e a1 3e 86 21 6f 3e fd 34 09 3d 21 13 85 bd
       0.31456277 0.23352632 0.0334978 -0.06497789
000070 91 79 04 3f 5a 79 ce 3e e7 01 bb 3d 23 0b 40 3e
       0.51747996 0.4032696 0.09131222 0.18754248
000080 3a 35 e4 3d 9e 6a ca bd 5f 7e dd 3e 00 1e ff 3e
       0.11142965 -0.09883617 0.43260476 0.49827576
000090 7f 12 f1 3e af 2e 9f be ff 1e a5 3d 3e 17 71 3e
       0.47084424 -0.31090304 0.08062553 0.23544022

sequential/dense_1/BiasAdd/ReadVariableOp f4 [50]
000000 2f f2 8b 3d 5a 21 31 bf c8 2a 04 bf d4 46 8e be
       0.06833302 -0.69191515 -0.5162778 -0.27788413
000010 4b 95 35 3e 5c 4b 80 3d 7d 55 9a bd 25 cc 0a be
       0.17732732 0.06264374 -0.07535837 -0.13554437
000020 9b d7 27 3e 58 3b f5 3b 32 10 c6 3d 9a bd b5 3d
       0.1639084 0.007483881 0.09671058 0.08874054
000030 c3 94 7c be 43 49 20 bf e7 18 ca 3e c2 42 2b 3e
       -0.24666123 -0.6261179 0.39472124 0.16724685
000040 13 b6 10 3e 4f 81 ab 3b 13 1c a5 3e c0 30 d4 bd
       0.14131956 0.0052339206 0.3224798 -0.10360861
000050 c8 8f ca bd 3c b7 50 bf 92 8b 23 bf 4c 99 58 bd
       -0.09890705 -0.81529593 -0.6388484 -0.05288057
000060 70 68 ad 3d 03 a8 4b 3d 0e 70 2b bf 22 38 d8 be
       0.084671855 0.049720775 -0.66967857 -0.42230326
000070 77 35 f8 3d 3e e5 58 3e d4 8d 78 3e 5b 0c 8a 3e
       0.121195726 0.21181199 0.24272853 0.2696255
000080 6c 07 81 3e 5d 76 c4 be bb dd 03 be 7a d3 d6 be
       0.25200975 -0.38371554 -0.12877552 -0.4195822
000090 6e 18 34 be 6f 45 4c 3e 23 56 8b bf b4 21 a4 bd
       -0.17587444 0.19948362 -1.0885662 -0.08014241
0000a0 1c 0a d7 3e 01 da 4c be c5 0d b3 be d1 44 a5 3e
       0.419999 -0.20005037 -0.34971443 0.32279065
0000b0 1e 40 93 3e 9a 72 36 bf 11 d9 24 bd cf 5a 26 be
       0.28759855 -0.7126862 -0.040246073 -0.16245578
0000c0 8b d2 82 bf 90 cf fa 3d
       -1.0220503 0.12246621

sequential/dense/MatMul i1 [60, 43] scale=0.026296506 zero_point=0
000000 fe 02 f8 fc 05 fe 00 fb fe 04 01 00 01 01 01 fe
       -0.05259301 0.05259301 -0.21037205 -0.10518602 0.13148253 -0.05259301 0.0 -0.13148253 -0.05259301 0.10518602 0.026296506 0.0 0.026296506 0.026296506 0.026296506 -0.05259301
000010 01 00 02 04 02 fe 01 02 05 01 bf 00 04 ff 02 fd
       0.026296506 0.0 0.05259301 0.10518602 0.05259301 -0.05259301 0.026296506 0.05259301 0.13148253 0.026296506 -1.7092729 0.0 0.10518602 -0.026296506 0.05259301 -0.07888952
000020 07 fe 0f ff 04 fd 02 fe 01 ff 04 fe fd 08 fb f0
       0.18407553 -0.05259301 0.3944476 -0.026296506 0.10518602 -0.07888952 0.05259301 -0.05259301 0.026296506 -0.026296506 0.10518602 -0.05259301 -0.07888952 0.21037205 -0.13148253 -0.4207441
000030 fa ff f8 ff fa 01 f7 ff f6 00 f5 fe 6f ff f0 00
       -0.15777904 -0.026296506 -0.21037205 -0.026296506 -0.15777904 0.026296506 -0.23666856 -0.026296506 -0.26296505 0.0 -0.28926155 -0.05259301 2.9189122 -0.026296506 -0.4207441 0.0
000040 f8 ff fc 00 fc ff f7 00 f2 01 f1 03 f7 01 04 01
       -0.21037205 -0.026296506 -0.10518602 0.0 -0.10518602 -0.026296506 -0.23666856 0.0 -0.36815107 0.026296506 -0.3944476 0.07888952 -0.23666856 0.026296506 0.10518602 0.026296506
000050 00 01 ff 00 04 ff 00 05 f8 fe 17 00 02 fe fe fe
       0.0 0.026296506 -0.026296506 0.0 0.10518602 -0.026296506 0.0 0.13148253 -0.21037205 -0.05259301 0.60481966 0.0 0.05259301 -0.05259301 -0.05259301 -0.05259301
000060 01 02 03 00 ff 01 02 fe 01 02 02 ff 00 fc 02 02
       0.026296506 0.05259301 0.07888952 0.0 -0.026296506 0.026296506 0.05259301 -0.05259301 0.026296506 0.05259301 0.05259301 -0.026296506 0.0 -0.10518602 0.05259301 0.05259301
000070 04 00 00 00 01 02 04 01 ac 00 01 00 00 04 04 02
       0.10518602 0.0 0.0 0.0 0.026296506 0.05259301 0.10518602 0.026296506 -2.2089064 0.0 0.026296506 0.0 0.0 0.10518602 0.10518602 0.05259301
000080 04 00 06 00 01 10 00 02 ff fe 00 00 fe 01 ff 01
       0.10518602 0.0 0.15777904 0.0 0.026296506 0.4207441 0.0 0.05259301 -0.026296506 -0.05259301 0.0 0.0 -0.05259301 0.026296506 -0.026296506 0.026296506
000090 ff ff ff ff 02 01 fe 01 01 01 01 01 fd 01 fe 03
       -0.026296506 -0.026296506 -0.026296506 -0.026296506 0.05259301 0.026296506 -0.05259301 0.026296506 0.026296506 0.026296506 0.026296506 0.026296506 -0.07888952 0.026296506 -0.05259301 0.07888952
0000a0 ff 02 01 af ff 03 fe 01 02 05 02 05 00 09 07 ea
       -0.026296506 0.05259301 0.026296506 -2.130017 -0.026296506 0.07888952 -0.05259301 0.026296506 0.05259301 0.13148253 0.05259301 0.13148253 0.0 0.23666856 0.18407553 -0.5785231
0000b0 de f8 f8 08 fe 0d ff f7 fb 05 fc 35 fd 0b ff 00
       -0.8940812 -0.21037205 -0.21037205 0.21037205 -0.05259301 0.34185457 -0.026296506 -0.23666856 -0.13148253 0.13148253 -0.10518602 1.3937148 -0.07888952 0.28926155 -0.026296506 0.0
0000c0 ff 0b fd 09 fe 08 fd 0b fc 13 00 00 02 ef 02 10
       -0.026296506 0.28926155 -0.07888952 0.23666856 -0.05259301 0.21037205 -0.07888952 0.28926155 -0.10518602 0.4996336 0.0 0.0 0.05259301 -0.4470406 0.05259301 0.4207441
0000d0 02 11 03 08 01 fd fe b5 04 01 22 0d 0e 04 04 01
       0.05259301 0.4470406 0.07888952 0.21037205 0.026296506 -0.07888952 -0.05259301 -1.972238 0.10518602 0.026296506 0.8940812 0.34185457 0.36815107 0.10518602 0.10518602 0.026296506
0000e0 f6 02 1b ff 0b 01 02 00 ff ff 2a 00 20 00 15 01
       -0.26296505 0.05259301 0.71000564 -0.026296506 0.28926155 0.026296506 0.05259301 0.0 -0.026296506 -0.026296506 1.1044532 0.0 0.8414882 0.0 0.5522266 0.026296506
0000f0 0b 00 06 ff ff 04 ef fe e3 01 ea f9 f8 00 fc fe
       0.28926155 0.0 0.15777904 -0.026296506 -0.026296506 0.10518602 -0.4470406 -0.05259301 -0.7625987 0.026296506 -0.5785231 -0.18407553 -0.21037205 0.0 -0.10518602 -0.05259301

sequential/dense_1/MatMul i1 [50, 60] scale=0.100609 zero_point=0
000000 00 ff 00 00 00 00 f6 00 fd 00 ff 00 06 fb ff fd
       0.0 -0.100609 0.0 0.0 0.0 0.0 -1.0060899 0.0 -0.30182698 0.0 -0.100609 0.0 0.60365397 -0.50304496 -0.100609 -0.30182698
000010 00 ff fd ff ff fd 00 f2 11 0b ff fa fb 02 00 04
       0.0 -0.100609 -0.30182698 -0.100609 -0.100609 -0.30182698 0.0 -1.408526 1.7103529 1.106699 -0.100609 -0.60365397 -0.50304496 0.201218 0.0 0.402436
000020 00 01 fc 00 1c 00 fa ff fc fd 02 fa 00 00 fe 00
       0.0 0.100609 -0.402436 0.0 2.817052 0.0 -0.60365397 -0.100609 -0.402436 -0.30182698 0.201218 -0.60365397 0.0 0.0 -0.201218 0.0
000030 fc 00 f9 f6 fe ff 00 01 08 f9 01 00 01 ff 00 ff
       -0.402436 0.0 -0.704263 -1.0060899 -0.201218 -0.100609 0.0 0.100609 0.804872 -0.704263 0.100609 0.0 0.100609 -0.100609 0.0 -0.100609
000040 00 00 00 00 01 ff fe fa 01 00 ff 01 01 00 01 fe
       0.0 0.0 0.0 0.0 0.100609 -0.100609 -0.201218 -0.60365397 0.100609 0.0 -0.100609 0.100609 0.100609 0.0 0.100609 -0.201218
000050 ff 00 00 01 00 ff 01 fd ff 00 00 01 ff fa 01 00
       -0.100609 0.0 0.0 0.100609 0.0 -0.100609 0.100609 -0.30182698 -0.100609 0.0 0.0 0.100609 -0.100609 -0.60365397 0.100609 0.0
000060 ff ff 01 00 fb 04 f7 fa ff 00 00 ff 00 14 01 00
       -0.100609 -0.100609 0.100609 0.0 -0.50304496 0.402436 -0.905481 -0.60365397 -0.100609 0.0 0.0 -0.100609 0.0 2.0121799 0.100609 0.0
000070 00 ff ff 01 00 ff fb 00 f9 ff fc fd 00 01 05 e4
       0.0 -0.100609 -0.100609 0.100609 0.0 -0.100609 -0.50304496 0.0 -0.704263 -0.100609 -0.402436 -0.30182698 0.0 0.100609 0.50304496 -2.817052
000080 00 ec 00 08 01 00 00 00 f8 f6 01 ff f7 00 02 00
       0.0 -2.0121799 0.0 0.804872 0.100609 0.0 0.0 0.0 -0.804872 -1.0060899 0.100609 -0.100609 -0.905481 0.0 0.201218 0.0
000090 01 00 01 fc 02 01 01 02 f7 09 01 00 00 02 ff 00
       0.100609 0.0 0.100609 -0.402436 0.201218 0.100609 0.100609 0.201218 -0.905481 0.905481 0.100609 0.0 0.0 0.201218 -0.100609 0.0
0000a0 03 02 0e 05 02 00 02 00 01 03 02 00 01 01 ff 01
       0.30182698 0.201218 1.408526 0.50304496 0.201218 0.0 0.201218 0.0 0.100609 0.30182698 0.201218 0.0 0.100609 0.100609 -0.100609 0.100609
0000b0 01 02 02 ec f6 01 00 00 01 ff 0d e4 01 ec 08 ff
       0.100609 0.201218 0.201218 -2.0121799 -1.0060899 0.100609 0.0 0.0 0.100609 -0.100609 1.307917 -2.817052 0.100609 -2.0121799 0.804872 -0.100609
0000c0 00 00 01 00 02 01 00 03 02 00 01 01 ff 01 00 00
       0.0 0.0 0.100609 0.0 0.201218 0.100609 0.0 0.30182698 0.201218 0.0 0.100609 0.100609 -0.100609 0.100609 0.0 0.0
0000d0 fe 00 01 01 02 f9 01 00 ff fe 01 ff 0e 01 f8 14
       -0.201218 0.0 0.100609 0.100609 0.201218 -0.704263 0.100609 0.0 -0.100609 -0.201218 0.100609 -0.100609 1.408526 0.100609 -0.804872 2.0121799
0000e0 ff fe 01 00 00 ff fe 01 01 01 01 00 ff ff 00 e9
       -0.100609 -0.201218 0.100609 0.0 0.0 -0.100609 -0.201218 0.100609 0.100609 0.100609 0.100609 0.0 -0.100609 -0.100609 0.0 -2.314007
0000f0 00 f9 01 01 f8 02 fd 00 f7 00 01 01 ff f6 00 f0
       0.0 -0.704263 0.100609 0.100609 -0.804872 0.201218 -0.30182698 0.0 -0.905481 0.0 0.100609 0.100609 -0.100609 -1.0060899 0.0 -1.609744

sequential/dense_2/MatMul i1 [40, 50] scale=0.06464322 zero_point=0
000000 ff 14 00 ff 05 00 f5 02 02 00 d4 fe ff 02 02 c9
       -0.06464322 1.2928643 0.0 -0.06464322 0.32321608 0.0 -0.7110754 0.12928644 0.12928644 0.0 -2.8443017 -0.12928644 -0.06464322 0.12928644 0.12928644 -3.555377
000010 02 06 f6 05 02 00 02 00 ff 03 03 01 ff 00 01 fe
       0.12928644 0.3878593 -0.64643216 0.32321608 0.12928644 0.0 0.12928644 0.0 -0.06464322 0.19392966 0.19392966 0.06464322 -0.06464322 0.0 0.06464322 -0.12928644
000020 01 ff fb ff f6 ff 01 00 02 00 ef 02 cc cd fe 08
       0.06464322 -0.06464322 -0.32321608 -0.06464322 -0.64643216 -0.06464322 0.06464322 0.0 0.12928644 0.0 -1.0989348 0.12928644 -3.3614473 -3.2968042 -0.12928644 0.51714575
000030 0d 03 fd ff fe 02 02 01 00 f2 01 fe 00 03 00 00
       0.84036183 0.19392966 -0.19392966 -0.06464322 -0.12928644 0.12928644 0.12928644 0.06464322 0.0 -0.9050051 0.06464322 -0.12928644 0.0 0.19392966 0.0 0.0
000040 01 01 fd 00 03 eb 0c 03 04 f9 04 c3 02 fe ff d0
       0.06464322 0.06464322 -0.19392966 0.0 0.19392966 -1.3575076 0.7757186 0.19392966 0.25857288 -0.45250255 0.25857288 -3.9432364 0.12928644 -0.12928644 -0.06464322 -3.1028745
000050 d6 00 b6 00 04 00 fd 02 01 03 00 02 fb fd 01 01
       -2.7150152 0.0 -4.7835984 0.0 0.25857288 0.0 -0.19392966 0.12928644 0.06464322 0.19392966 0.0 0.12928644 -0.32321608 -0.19392966 0.06464322 0.06464322
000060 01 fe fe 05 02 fd d2 ff 01 00 05 bf f2 ff f7 ff
       0.06464322 -0.12928644 -0.12928644 0.32321608 0.12928644 -0.19392966 -2.973588 -0.06464322 0.06464322 0.0 0.32321608 -4.2018094 -0.9050051 -0.06464322 -0.58178896 -0.06464322
000070 fe 03 f3 05 cd 00 04 96 03 03 f6 fc 00 81 02 d8
       -0.12928644 0.19392966 -0.84036183 0.32321608 -3.2968042 0.0 0.25857288 -6.8521814 0.19392966 0.19392966 -0.64643216 -0.25857288 0.0 -8.209689 0.12928644 -2.5857286
000080 fa 00 01 01 fe ff 03 00 04 ee fe 02 ff 00 03 f4
       -0.3878593 0.0 0.06464322 0.06464322 -0.12928644 -0.06464322 0.19392966 0.0 0.25857288 -1.1635779 -0.12928644 0.12928644 -0.06464322 0.0 0.19392966 -0.7757186
000090 fd 03 01 f0 03 f8 02 00 02 00 f7 fe 02 04 f7 f9
       -0.19392966 0.19392966 0.06464322 -1.0342915 0.19392966 -0.51714575 0.12928644 0.0 0.12928644 0.0 -0.58178896 -0.12928644 0.12928644 0.25857288 -0.58178896 -0.45250255
0000a0 00 01 02 00 ff 02 01 fa fb e9 fd 01 02 02 04 eb
       0.0 0.06464322 0.12928644 0.0 -0.06464322 0.12928644 0.06464322 -0.3878593 -0.32321608 -1.486794 -0.19392966 0.06464322 0.12928644 0.12928644 0.25857288 -1.3575076
0000b0 00 00 00 f0 d0 07 ec 04 fd 05 03 04 00 00 e3 02
       0.0 0.0 0.0 -1.0342915 -3.1028745 0.45250255 -1.2928643 0.25857288 -0.19392966 0.32321608 0.19392966 0.25857288 0.0 0.0 -1.8746533 0.12928644
0000c0 07 f8 ff 01 00 f7 00 05 00 02 04 00 e6 fe 01 02
       0.45250255 -0.51714575 -0.06464322 0.06464322 0.0 -0.58178896 0.0 0.32321608 0.0 0.12928644 0.25857288 0.0 -1.6807237 -0.12928644 0.06464322 0.12928644
0000d0 00 fe fe 01 02 01 ef d2 07 fc c8 02 e9 ff fc 01
       0.0 -0.12928644 -0.12928644 0.06464322 0.12928644 0.06464322 -1.0989348 -2.973588 0.45250255 -0.25857288 -3.6200204 0.12928644 -1.486794 -0.06464322 -0.25857288 0.06464322
0000e0 ff 03 00 02 00 fc e2 04 df 01 f7 01 03 06 00 00
       -0.06464322 0.19392966 0.0 0.12928644 0.0 -0.25857288 -1.9392966 0.25857288 -2.1332262 0.06464322 -0.58178896 0.06464322 0.19392966 0.3878593 0.0 0.0
0000f0 da 00 01 06 f2 00 00 01 01 07 01 ff d9 d1 f9 00
       -2.4564424 0.0 0.06464322 0.3878593 -0.9050051 0.0 0.0 0.06464322 0.06464322 0.45250255 0.06464322 -0.06464322 -2.5210855 -3.0382314 -0.45250255 0.0

sequential/dense_3/MatMul i1 [30, 40] scale=0.04122925 zero_point=0
000000 00 00 03 00 00 a9 02 fc ff 04 00 fc f7 ef ff fe
       0.0 0.0 0.12368776 0.0 0.0 -3.5869448 0.0824585 -0.164917 -0.04122925 0.164917 0.0 -0.164917 -0.37106326 -0.7008973 -0.04122925 -0.0824585
000010 fc 06 03 fa fd e6 01 fc fc fa fb fe f6 05 01 b2
       -0.164917 0.24737552 0.12368776 -0.24737552 -0.12368776 -1.0719606 0.04122925 -0.164917 -0.164917 -0.24737552 -0.20614626 -0.0824585 -0.4122925 0.20614626 0.04122925 -3.2158816
000020 02 ee 03 01 06 f0 02 00 e9 01 ff 00 ee 09 fd 00
       0.0824585 -0.7421265 0.12368776 0.04122925 0.24737552 -0.659668 0.0824585 0.0 -0.94827276 0.04122925 -0.04122925 0.0 -0.7421265 0.37106326 -0.12368776 0.0
000030 02 0b 02 fb fe 01 00 e8 04 03 0d 05 01 02 03 fe
       0.0824585 0.45352176 0.0824585 -0.20614626 -0.0824585 0.04122925 0.0 -0.9895021 0.164917 0.12368776 0.5359803 0.20614626 0.04122925 0.0824585 0.12368776 -0.0824585
000040 ed ff ff 02 01 15 fa 09 f7 02 f2 0d 06 02 07 01
       -0.7833558 -0.04122925 -0.04122925 0.0824585 0.04122925 0.86581427 -0.24737552 0.37106326 -0.37106326 0.0824585 -0.57720953 0.5359803 0.24737552 0.0824585 0.28860477 0.04122925
000050 00 07 f7 fe f7 18 f7 00 01 fb fc 00 fb 03 01 02
       0.0 0.28860477 -0.37106326 -0.0824585 -0.37106326 0.9895021 -0.37106326 0.0 0.04122925 -0.20614626 -0.164917 0.0 -0.20614626 0.12368776 0.04122925 0.0824585
000060 f9 05 ff 01 00 02 01 03 ee 04 01 02 0a f1 00 0d
       -0.28860477 0.20614626 -0.04122925 0.04122925 0.0 0.0824585 0.04122925 0.12368776 -0.7421265 0.164917 0.04122925 0.0824585 0.4122925 -0.6184388 0.0 0.5359803
000070 f5 ff ff 04 fe 00 02 04 0a fe 01 00 02 01 00 f9
       -0.45352176 -0.04122925 -0.04122925 0.164917 -0.0824585 0.0 0.0824585 0.164917 0.4122925 -0.0824585 0.04122925 0.0 0.0824585 0.04122925 0.0 -0.28860477
000080 01 07 03 02 0a 00 01 08 f8 f1 ff ef 01 fa 02 ff
       0.04122925 0.28860477 0.12368776 0.0824585 0.4122925 0.0 0.04122925 0.329834 -0.329834 -0.6184388 -0.04122925 -0.7008973 0.04122925 -0.24737552 0.0824585 -0.04122925
000090 00 05 fe 03 07 0f ff 08 01 fe 00 fc fe 03 01 04
       0.0 0.20614626 -0.0824585 0.12368776 0.28860477 0.6184388 -0.04122925 0.329834 0.04122925 -0.0824585 0.0 -0.164917 -0.0824585 0.12368776 0.04122925 0.164917
0000a0 fc 02 09 ff f1 09 03 01 fb 07 01 03 ee 01 00 fc
       -0.164917 0.0824585 0.37106326 -0.04122925 -0.6184388 0.37106326 0.12368776 0.04122925 -0.20614626 0.28860477 0.04122925 0.12368776 -0.7421265 0.04122925 0.0 -0.164917
0000b0 fb fd fa 03 f8 01 fc 01 fb ff fd 00 fa fe ff 01
       -0.20614626 -0.12368776 -0.24737552 0.12368776 -0.329834 0.04122925 -0.164917 0.04122925 -0.20614626 -0.04122925 -0.12368776 0.0 -0.24737552 -0.0824585 -0.04122925 0.04122925
0000c0 07 fe ff fd f7 fd f4 08 e7 fd eb 02 04 fb 02 02
       0.28860477 -0.0824585 -0.04122925 -0.12368776 -0.37106326 -0.12368776 -0.49475104 0.329834 -1.0307313 -0.12368776 -0.86581427 0.0824585 0.164917 -0.20614626 0.0824585 0.0824585
0000d0 ff fe fd cd 05 ff fe fa f5 fc f0 03 00 02 f1 00
       -0.04122925 -0.0824585 -0.12368776 -2.102692 0.20614626 -0.04122925 -0.0824585 -0.24737552 -0.45352176 -0.164917 -0.659668 0.12368776 0.0 0.0824585 -0.6184388 0.0
0000e0 01 dd 01 fe 0b d9 e5 fc fd 01 de 00 ff 02 ff ee
       0.04122925 -1.4430238 0.04122925 -0.0824585 0.45352176 -1.6079408 -1.1131898 -0.164917 -0.12368776 0.04122925 -1.4017946 0.0 -0.04122925 0.0824585 -0.04122925 -0.7421265
0000f0 fc 01 02 f9 04 02 01 fd c5 01 00 00 00 f7 c0 f6
       -0.164917 0.04122925 0.0824585 -0.28860477 0.164917 0.0824585 0.04122925 -0.12368776 -2.4325259 0.04122925 0.0 0.0 0.0 -0.37106326 -2.638672 -0.4122925
