model/customModel/modelB/ASLclassifier4a.tflite (tflite, 13448 bytes, 6 tensors)

sequential_1/dense_5/BiasAdd/ReadVariableOp f4 [28]
-1.0719042 -0.2163538 -1.9838785 0.87414145 0.36697108 0.34209493 -0.4766199 -0.69643605
0.25841093 2.307985 -0.11858738 0.81333035 -0.79509133 0.8513625 -0.30830663 1.0423732
0.43260816 0.29628748 0.061441537 -0.66483235 0.32067826 0.20793337 -0.022285737 0.32648933
-0.6806682 -0.013070043 -1.8413372 -1.5474955
00000000: 2834 89bf da8b 5dbe bbef fdbf bcc7 5f3f
00000010: a2e3 bb3e 1127 af3e 8607 f4be a249 32bf
00000020: 704e 843e 07b6 1340 f1dd f2bd 6b36 503f
00000030: 1b8b 4bbf e5f2 593f 5eda 9dbe 7c6c 853f
00000040: d17e dd3e feb2 973e 1faa 7b3d 7432 2abf
00000050: f12f a43e 7cec 543e 9490 b6bc 9c29 a73e
00000060: 4540 2ebf bc23 56bc f0b0 ebbf 5514 c6bf

sequential_1/dense_4/BiasAdd/ReadVariableOp f4 [50]
0.5523847 -0.19955234 0.5787942 1.5672498 -1.009769 0.32569364 1.3679731 2.2504592
-0.15915886 -0.97044355 0.3676143 0.89992136 0.9212967 2.5158432 -0.6847107 1.3905379
-0.12381433 0.62295353 0.7150209 0.36830053 0.5856391 0.5390595 -0.9657759 0.8505846
0.2338374 -0.32974502 0.99808306 -0.18628083 0.7234949 1.4609824 1.5239817 0.17295451
-0.09297194 0.38809627 -2.0423734 0.09879384 0.57629883 0.8021709 -0.13429427 0.7712371
0.83804464 1.0249898 2.95357 -0.58466244 0.7632912 1.9696602 2.246313 0.8769443
-0.08774854 1.2354054
00000000: 1569 0d3f 7357 4cbe db2b 143f a49b c83f
00000010: 1c40 81bf 51c1 a63e be19 af3f 8607 1040
00000020: 8afa 22be fd6e 78bf f137 bc3e 3f61 663f
00000030: 1ada 6b3f 9303 2140 3349 2fbf 25fd b13f
00000040: 5e92 fdbd e279 1f3f 9c0b 373f e391 bc3e
00000050: 72ec 153f ceff 093f 173d 77bf eabf 593f
00000060: 1273 6f3e 57d4 a8be 5f82 7f3f 67c0 3ebe
00000070: f636 393f 7901 bb3f d511 c33f fd1a 313e
00000080: 1368 bebd 8eb4 c63e 3fb6 02c0 6d54 ca3d
00000090: 5288 133f 125b 4d3f 7084 09be cb6f 453f
000000a0: 188a 563f de32 833f 4a07 3d40 70ac 15bf
000000b0: 0d67 433f d31d fc3f 98c3 0f40 6c7f 603f
000000c0: 82b5 b3bd c421 9e3f

sequential_1/dense_3/BiasAdd/ReadVariableOp f4 [80]
-0.35746944 -0.41617444 -0.42240635 -0.48289907 -0.2558042 -1.1841536 -0.9978735 0.03529877
-0.42968106 -0.29288045 -1.4805489 -1.1634406 -0.08454474 0.90336543 -1.3657149 -0.26699322
-0.19908549 -0.4058929 -0.38485909 -0.39601433 -0.8833433 -0.7103494 -1.0856068 -0.2686872
-0.48182103 -1.04715 -0.44995707 -1.2404791 -0.46457088 -0.123816356 -0.8514635 -1.0872966
-0.26310274 -0.8423563 -0.17422356 -0.36973175 -0.987983 -0.45421466 -0.2789733 -1.2952685
-0.40906587 -1.3228815 -1.1474347 -1.4640291 -1.4026134 -0.8710453 -0.47873184 -0.03236666
-0.8456413 -0.6787575 -0.42713273 0.9073491 -1.018245 -1.249522 -0.40823892 -0.32761526
-0.0070914794 -0.6173918 -0.5662031 -0.9004194 -0.2078513 -0.82526773 -1.3101221 -0.8053166
-0.48457262 -0.20562106 -0.6224494 -0.55024135 -0.7566461 -1.0126983 -0.3688149 -0.26369783
-0.47382942 -0.5899347 -1.6169355 -1.5362725 -0.3420257 -0.49853024 -0.54404193 0.019602172
00000000: 3c06 b7be d114 d5be a545 d8be 8c3e f7be
00000010: c5f8 82be 5892 97bf a374 7fbf 7195 103d
00000020: 28ff dbbe 6df4 95be a082 bdbf 9feb 94bf
00000030: cb25 adbd f542 673f bfcf aebf 56b3 88be
00000040: 11dd 4bbe 32d1 cfbe 400c c5be 64c2 cabe
00000050: c922 62bf 75d9 35bf 2af5 8abf 5e91 89be
00000060: 3fb1 f6be 0309 86bf c660 e6be 05c8 9ebf
00000070: 3cdc edbe 6e93 fdbd 83f9 59bf 892c 8bbf
00000080: 67b5 86be aaa4 57bf a967 32be 7b4d bdbe
00000090: 74ec 7cbf d38e e8be 97d5 8ebe 5ccb a5bf
000000a0: 1571 d1be 2e54 a9bf 24df 92bf 4e65 bbbf
000000b0: d688 b3bf d3fc 5ebf 571c f5be e792 04bd
000000c0: f37b 58bf 0dc3 2dbf 24b1 dabe 0848 683f
000000d0: da55 82bf 56f0 9fbf b104 d1be 30bd a7be
000000e0: a45f e8bb 640d 1ebf b0f2 10bf e381 66bf
000000f0: f9d6 54be bf44 53bf 15b2 a7bf 3b29 4ebf
00000100: e719 f8be 548e 52be d858 1fbf 9edc 0cbf
00000110: 8fb3 41bf 19a0 81bf 4ed5 bcbe 6703 87be
00000120: c599 f2be f605 17bf bef7 cebf 94a4 c4bf
00000130: fe1d afbe 5b3f ffbe 5546 0bbf bc94 a03c

sequential_1/dense_3/MatMul i1 [80, 64] scale=0.24313366 zero_point=0
-0.24313366 -0.24313366 0.0 0.0 0.24313366 0.24313366 -2.6744704 0.24313366
0.0 -0.729401 -0.24313366 0.0 0.729401 -3.4038713 0.0 1.458802
0.24313366 0.0 -0.24313366 0.24313366 0.0 1.2156683 0.24313366 0.0
1.2156683 0.0 0.0 1.458802 0.24313366 0.0 4.3764057 0.729401
0.0 4.3764057 0.48626733 0.0 3.647005 0.24313366 0.0 3.8901386
-0.24313366 0.0 7.7802773 0.24313366 0.0 3.4038713 -0.48626733 0.0
1.7019356 -0.729401 0.0 0.48626733 0.0 0.0 9.482213 0.0
0.0 2.917604 0.0 0.0 0.24313366 0.24313366 0.24313366 -1.458802
-2.1882029 0.0 0.0 0.0 0.0 0.0 0.729401 0.0
0.0 1.7019356 2.917604 0.0 2.6744704 -0.48626733 0.24313366 3.1607375
-0.24313366 0.0 1.2156683 -0.24313366 0.0 1.9450693 -0.24313366 0.0
2.4313366 -0.24313366 0.0 3.1607375 0.0 0.24313366 3.1607375 -0.48626733
0.0 2.6744704 -0.24313366 0.0 3.647005 -0.48626733 -0.24313366 4.3764057
0.0 0.24313366 4.3764057 -0.24313366 0.0 4.133272 -0.24313366 0.0
5.5920744 -0.24313366 0.0 6.564609 0.0 0.24313366 4.8626733 0.0
0.0 4.8626733 0.0 0.0 5.105807 0.24313366 -0.24313366 5.5920744
0.0 0.0 0.0 0.0 0.0 0.0 8.752811 0.0
0.0 7.050876 -0.24313366 0.0 4.6195397 -0.24313366 0.0 2.4313366
0.0 0.0 5.348941 -0.24313366 0.0 0.97253466 3.8901386 0.0
0.97253466 -0.24313366 0.0 1.458802 -0.48626733 0.0 -3.1607375 -0.48626733
0.0 -2.6744704 -0.48626733 0.0 -2.4313366 -0.48626733 0.0 -1.7019356
-0.729401 0.0 -8.266544 -0.24313366 0.0 -2.6744704 0.0 0.0
-1.458802 0.0 0.0 -0.97253466 0.0 0.0 -10.454747 0.0
0.0 -3.647005 0.0 0.0 -0.48626733 0.24313366 0.0 2.6744704
0.0 0.24313366 0.24313366 0.0 0.0 0.24313366 11.427282 0.0
-2.4313366 11.670416 0.0 0.24313366 10.697882 0.0 0.0 9.725347
0.0 0.0 17.26249 0.0 0.0 10.211614 0.0 0.0
8.995946 0.0 0.0 9.482213 0.0 0.0 12.886085 0.0
0.0 7.5371437 0.0 0.0 6.564609 0.0 0.0 7.29401
0.0 0.0 5.835208 0.0 0.0 1.7019356 0.0 0.0
3.1607375 0.0 0.0 6.564609 0.0 0.0 0.24313366 0.0
0.0 0.729401 0.0 0.0 3.647005 0.0 0.0 6.8077426
00000000: ffff 0000 0101 f501 00fd ff00 03f2 0006
00000010: 0100 ff01 0005 0100 0500 0006 0100 1203
00000020: 0012 0200 0f01 0010 ff00 2001 000e fe00
00000030: 07fd 0002 0000 2700 000c 0000 0101 01fa
00000040: f700 0000 0000 0300 0007 0c00 0bfe 010d
00000050: ff00 05ff 0008 ff00 0aff 000d 0001 0dfe
00000060: 000b ff00 0ffe ff12 0001 12ff 0011 ff00
00000070: 17ff 001b 0001 1400 0014 0000 1501 ff17
00000080: 0000 0000 0000 2400 001d ff00 13ff 000a
00000090: 0000 16ff 0004 1000 04ff 0006 fe00 f3fe
000000a0: 00f5 fe00 f6fe 00f9 fd00 deff 00f5 0000
000000b0: fa00 00fc 0000 d500 00f1 0000 fe01 000b
000000c0: 0001 0100 0001 2f00 f630 0001 2c00 0028
000000d0: 0000 4700 002a 0000 2500 0027 0000 3500
000000e0: 001f 0000 1b00 001e 0000 1800 0007 0000
000000f0: 0d00 001b 0000 0100 0003 0000 0f00 001c

sequential_1/dense_4/MatMul i1 [50, 80] scale=0.058853485 zero_point=0
0.0 0.47082788 1.0005093 0.058853485 0.11770697 -0.11770697 0.058853485 0.11770697
0.0 1.2359232 -0.29426742 0.058853485 -0.29426742 0.058853485 -0.64738834 -1.0593628
-4.002037 0.35312092 0.0 -0.70624185 0.058853485 -0.29426742 0.058853485 0.23541394
0.5296814 0.11770697 0.47082788 0.058853485 -1.0005093 0.11770697 -0.11770697 0.17656046
-0.11770697 0.11770697 -0.8239488 0.17656046 0.058853485 0.0 0.11770697 -0.23541394
0.64738834 0.0 -0.17656046 0.11770697 0.17656046 -0.17656046 0.58853483 0.0
0.058853485 -0.11770697 -6.2973228 0.058853485 -0.11770697 0.8239488 -0.17656046 0.88280225
-1.1182162 -0.17656046 0.0 -0.058853485 -0.7650953 0.0 -0.17656046 0.058853485
-0.29426742 -0.058853485 -0.23541394 0.058853485 0.4119744 0.0 0.058853485 0.17656046
0.88280225 1.0005093 0.8239488 0.17656046 0.11770697 0.17656046 0.058853485 0.058853485
-0.058853485 -0.058853485 0.4119744 0.0 -0.11770697 1.1182162 -0.58853483 0.17656046
-0.47082788 0.23541394 0.4119744 -0.058853485 0.17656046 -0.35312092 0.47082788 0.11770697
0.23541394 -0.23541394 0.29426742 -0.058853485 0.11770697 0.11770697 -0.58853483 0.058853485
0.0 -0.70624185 0.058853485 -0.5296814 0.35312092 0.11770697 -0.23541394 0.29426742
-2.7072604 0.23541394 0.11770697 0.11770697 0.11770697 0.11770697 0.29426742 0.35312092
0.0 2.412993 0.8239488 0.47082788 -0.7650953 0.23541394 0.0 -0.64738834
0.17656046 0.4119744 0.4119744 -0.23541394 -0.35312092 -0.70624185 0.0 0.058853485
0.058853485 0.4119744 0.29426742 0.0 0.23541394 1.0593628 -0.23541394 1.8833115
0.17656046 -0.11770697 -0.5296814 -0.058853485 0.058853485 0.47082788 -0.058853485 0.11770697
0.11770697 -0.29426742 -0.4119744 0.4119744 -1.1770697 -0.29426742 0.0 0.47082788
-0.17656046 0.5296814 0.0 -0.29426742 0.058853485 2.7661138 0.47082788 -0.11770697
0.23541394 0.058853485 1.8833115 0.0 -3.88433 0.058853485 0.11770697 -0.11770697
-0.11770697 0.058853485 0.23541394 -0.058853485 0.64738834 -0.058853485 1.2359232 -0.058853485
-0.058853485 0.17656046 0.58853483 -0.17656046 0.0 0.11770697 0.47082788 -0.23541394
0.17656046 0.058853485 -0.058853485 0.11770697 0.058853485 0.0 0.17656046 -0.11770697
0.23541394 2.5895534 2.4718463 -0.29426742 0.35312092 -0.058853485 -0.058853485 0.4119744
-0.11770697 -0.058853485 0.0 0.23541394 0.29426742 -0.23541394 0.58853483 -0.058853485
-0.64738834 0.23541394 0.058853485 -0.058853485 0.17656046 2.3541393 0.64738834 1.5301906
-0.11770697 0.0 0.23541394 -0.058853485 0.0 0.11770697 0.0 -0.058853485
0.0 -0.5296814 -0.5296814 -0.4119744 0.11770697 0.0 0.47082788 0.0
-0.58853483 0.70624185 -0.17656046 0.058853485 0.11770697 -0.17656046 0.23541394 0.058853485
-0.47082788 -0.058853485 0.23541394 0.23541394 0.058853485 -0.17656046 -1.2947767 -0.64738834
00000000: 0008 1101 02fe 0102 0015 fb01 fb01 f5ee
00000010: bc06 00f4 01fb 0104 0902 0801 ef02 fe03
00000020: fe02 f203 0100 02fc 0b00 fd02 03fd 0a00
00000030: 01fe 9501 fe0e fd0f edfd 00ff f300 fd01
00000040: fbff fc01 0700 0103 0f11 0e03 0203 0101
00000050: ffff 0700 fe13 f603 f804 07ff 03fa 0802
00000060: 04fc 05ff 0202 f601 00f4 01f7 0602 fc05
00000070: d204 0202 0202 0506 0029 0e08 f304 00f5
00000080: 0307 07fc faf4 0001 0107 0500 0412 fc20
00000090: 03fe f7ff 0108 ff02 02fb f907 ecfb 0008
000000a0: fd09 00fb 012f 08fe 0401 2000 be01 02fe
000000b0: fe01 04ff 0bff 15ff ff03 0afd 0002 08fc
000000c0: 0301 ff02 0100 03fe 042c 2afb 06ff ff07
000000d0: feff 0004 05fc 0aff f504 01ff 0328 0b1a
000000e0: fe00 04ff 0002 00ff 00f7 f7f9 0200 0800
000000f0: f60c fd01 02fd 0401 f8ff 0404 01fd eaf5

sequential_1/dense_5/MatMul i1 [28, 50] scale=0.028168108 zero_point=0
-0.3661854 0.2816811 0.11267243 -0.3661854 -0.25351298 -0.028168108 -0.81687516 -1.3802373
-0.6196984 0.47885785 -0.25351298 -0.22534487 -0.14084055 0.6196984 -0.5633622 -0.67603457
-1.04222 -0.5633622 -0.7323708 -0.19717675 0.8732114 0.3943535 -0.14084055 -0.11267243
0.7042027 0.6478665 -1.323901 -0.92954755 -0.6196984 -0.056336217 0.14084055 -1.4365735
0.11267243 -0.028168108 0.3661854 0.3098492 1.4084054 -1.7464228 0.53519404 -0.33801728
-0.33801728 0.7042027 -0.53519404 1.4084054 0.3661854 0.81687516 -0.08450432 -0.90137947
-0.11267243 0.3943535 -0.3098492 -0.50702596 -0.7042027 0.19717675 -0.3098492 0.9577157
0.3943535 0.08450432 0.42252162 -0.25351298 -0.8732114 0.16900864 -0.08450432 0.59153026
0.9577157 0.14084055 -0.8732114 0.028168108 0.056336217 -0.67603457 -0.33801728 -0.2816811
0.50702596 0.3943535 0.3098492 0.59153026 0.3661854 0.2816811 0.08450432 1.3802373
-1.2112286 -0.47885785 -1.8872633 -3.12666 -1.6619184 -0.3943535 0.6196984 0.14084055
1.8027589 -0.3098492 -0.6478665 -0.53519404 -1.577414 0.3661854 0.028168108 -0.81687516
0.2816811 -0.14084055 -0.42252162 -0.47885785 0.67603457 -1.4365735 -2.9294832 -1.295733
0.3661854 0.67603457 0.028168108 -0.08450432 0.42252162 0.25351298 -1.4929098 -0.14084055
-0.5633622 -0.90137947 0.3661854 -0.81687516 -0.11267243 0.0 0.47885785 0.5633622
-0.08450432 -0.2816811 0.67603457 0.056336217 -0.028168108 0.3098492 0.67603457 -0.59153026
-0.3661854 -1.0703881 -0.11267243 0.33801728 0.3098492 -2.591466 -0.3661854 0.42252162
0.6196984 0.16900864 0.59153026 0.0 -0.3661854 -0.50702596 -1.577414 0.53519404
-0.25351298 -0.59153026 -1.3802373 0.5633622 0.22534487 -0.7323708 0.14084055 -0.5633622
0.11267243 -1.3802373 0.16900864 0.028168108 -0.788707 0.19717675 0.5633622 0.25351298
-0.788707 -0.81687516 0.76053894 0.7042027 0.16900864 0.59153026 -0.92954755 -0.50702596
0.42252162 0.50702596 0.2816811 -0.84504324 -0.16900864 -0.14084055 -0.76053894 -0.3661854
-0.056336217 -0.2816811 0.19717675 -0.6196984 0.3943535 -0.3943535 -0.5633622 -1.549246
0.08450432 0.47885785 -0.2816811 0.3661854 -0.056336217 -0.45068973 -0.19717675 -1.577414
-0.76053894 0.14084055 -0.90137947 0.0 0.76053894 0.53519404 0.3943535 -1.1548924
-0.3661854 -0.53519404 0.08450432 -0.3661854 -0.028168108 -0.25351298 0.47885785 -0.25351298
-0.5633622 -0.16900864 -0.7042027 0.42252162 -1.295733 0.19717675 0.8732114 0.76053894
-0.67603457 -0.08450432 0.3943535 0.16900864 -0.9858838 0.028168108 0.19717675 -1.295733
-0.84504324 0.7042027 -0.3661854 0.42252162 0.22534487 0.5633622 -0.22534487 -0.08450432
-0.67603457 0.6478665 -0.33801728 0.3943535 -0.11267243 -0.9858838 -0.056336217 0.0
0.3098492 0.76053894 -1.5210779 -0.14084055 -0.08450432 0.53519404 -0.53519404 -0.056336217
0.25351298 -1.4365735 -0.14084055 -0.028168108 0.19717675 0.5633622 0.76053894 0.16900864
00000000: f30a 04f3 f7ff e3cf ea11 f7f8 fb16 ece8
00000010: dbec e6f9 1f0e fbfc 1917 d1df eafe 05cd
00000020: 04ff 0d0b 32c2 13f4 f419 ed32 0d1d fde0
00000030: fc0e f5ee e707 f522 0e03 0ff7 e106 fd15
00000040: 2205 e101 02e8 f4f6 120e 0b15 0d0a 0331
00000050: d5ef bd91 c5f2 1605 40f5 e9ed c80d 01e3
00000060: 0afb f1ef 18cd 98d2 0d18 01fd 0f09 cbfb
00000070: ece0 0de3 fc00 1114 fdf6 1802 ff0b 18eb
00000080: f3da fc0c 0ba4 f30f 1606 1500 f3ee c813
00000090: f7eb cf14 08e6 05ec 04cf 0601 e407 1409
000000a0: e4e3 1b19 0615 dfee 0f12 0ae2 fafb e5f3
000000b0: fef6 07ea 0ef2 ecc9 0311 f60d fef0 f9c8
000000c0: e505 e000 1b13 0ed7 f3ed 03f3 fff7 11f7
000000d0: ecfa e70f d207 1f1b e8fd 0e06 dd01 07d2
000000e0: e219 f30f 0814 f8fd e817 f40e fcdd fe00
000000f0: 0b1b cafb fd13 edfe 09cd fbff 0714 1b06
