model/customModel/modelB/ASLclassifier.tflite (tflite, 7628 bytes, 6 tensors)

sequential_2/dense_8/BiasAdd/ReadVariableOp f4 [28]
000000 ba 78 c2 3d 7d d4 93 3f f1 fb 44 c0 1e 81 d2 3f
       0.09495683 1.1549221 -3.0778773 1.6445653
000010 80 c9 bd 3f a6 33 e9 bf d7 de 03 40 2d 20 9a 3f
       1.4827118 -1.8218887 2.060476 1.2041069
000020 6f 5f 6a 3f e4 45 44 3f ca 88 6d 3e 08 7b ed 3e
       0.9155187 0.76669145 0.23196712 0.46382928
000030 91 f8 26 3d e1 0c 5f bf 60 e9 9c 3f 2e 06 33 3f
       0.040764395 -0.87129027 1.225872 0.69931304
000040 39 7c 2f bf 89 54 8e be cb b6 a2 be d5 36 97 bf
       -0.68548924 -0.2779887 -0.31780085 -1.1813608
000050 c9 46 ae bd 92 05 88 3e 34 47 2c 3e 28 b1 bb bd
       -0.08509595 0.2656675 0.16824037 -0.09164649
000060 72 23 45 bf 40 a3 3e bf 1a 4f c9 bf 1d c2 10 c0
       -0.7700721 -0.7446785 -1.5727265 -2.2618477

sequential_2/dense_7/BiasAdd/ReadVariableOp f4 [10]
000000 38 e9 43 3f 0c 78 55 3f e8 d1 7c 3f 77 95 39 3f
       0.7652774 0.833863 0.9875779 0.7249369
000010 9a 09 bc 3e 1b f1 27 40 e1 fb ec 3f 0f 06 0b 3f
       0.36726075 2.624091 1.8514367 0.5430612
000020 29 b7 56 3f ae ef 1f 40
       0.8387323 2.499004

sequential_2/dense_6/BiasAdd/ReadVariableOp f4 [20]
000000 47 1b 45 be f6 36 d6 bf d9 27 c8 bf e9 a3 a1 bf
       -0.19248687 -1.6735523 -1.563716 -1.2628146
000010 91 93 e9 be 47 eb 6f 3d 18 64 27 bf 4f 96 67 bf
       -0.45620397 0.058573987 -0.65387106 -0.9046373
000020 86 5c 44 be d1 70 30 bf bd b0 95 be 59 5f 0c bf
       -0.1917592 -0.68922144 -0.29236403 -0.5483299
000030 65 b6 db 3d 09 2d 33 bf 92 94 f4 bf 6f 8c a0 bf
       0.10728148 -0.69990593 -1.910784 -1.2542857
000040 37 9c 3d bf 7f 11 4e 3f d0 26 91 bf c3 36 a4 bf
       -0.7406649 0.80495447 -1.133997 -1.2829212

sequential_2/dense_6/MatMul f4 [20, 42]
000000 e2 69 6c be 6e 9e 3d 3e fc b0 60 bf f2 7f 19 3e
       -0.23087266 0.18517467 -0.87770057 0.14990214
000010 a4 a2 92 be e2 ac 83 3e 02 22 86 be d3 ec c4 3e
       -0.2863971 0.25717837 -0.2619782 0.38461933
000020 21 59 35 be 8d f1 d4 3e 9f ff 16 be 2c 45 20 bf
       -0.17709781 0.4159054 -0.14745949 -0.6260555
000030 e0 77 52 3c 7f 6c 04 3e f4 d1 f3 bc 4c 33 ad 3e
       0.012845963 0.12932013 -0.0297632 0.338282
000040 0d ad 45 bd ca ba 15 3f 52 24 86 be 0f 83 53 bf
       -0.048260737 0.5848814 -0.26199585 -0.82621855
000050 d9 36 9d 3d 1d 95 11 3e a2 ae 7e 3c 5e 7c eb 3e
       0.07676477 0.14217038 0.015544565 0.45993322
000060 7e 9d 63 bd cf 61 22 3f 46 b7 8a be f8 85 bd bf
       -0.055570118 0.63430494 -0.27092952 -1.4806509
000070 a9 cb 93 bc 1e ba bb 3d 5d 20 f9 bd da 6f bd 3e
       -0.018041449 0.091663584 -0.12164376 0.36999398
000080 24 86 a7 be 99 60 4c 3f 5d 99 18 be a7 32 ae bf
       -0.3271953 0.79834896 -0.14902253 -1.3609208
000090 30 39 95 3a f9 b2 c4 3d 5c 7e 08 3d be b5 cd 3e
       0.0011384841 0.09604449 0.03332363 0.4017772
0000a0 1a cb cd bc 8d e5 fe 3e e0 7f 53 bc 7c a8 9c be
       -0.02512126 0.49784508 -0.012908906 -0.30597293
0000b0 7e 03 90 3e a6 56 17 3d 25 2a 6f 3e 3f bc 50 3d
       0.28127664 0.03694787 0.2335592 0.050960775
0000c0 5c 20 6d 3e 48 b3 e2 3c e6 60 47 3e c5 1b 8a 3c
       0.23156875 0.027673379 0.19470558 0.016858945
0000d0 83 4e 44 3e 1c 46 32 bd c7 57 9e 3d d0 3a 1f bc
       0.19170575 -0.043523893 0.07731586 -0.009718612
0000e0 1b 56 9c bc 0a 19 98 3b d4 83 a2 bd 1c 91 f6 bf
       -0.019084027 0.0046416568 -0.079353005 -1.9263034
0000f0 ae 08 07 3e 20 57 e5 bb b8 13 17 be fa fa 3f 3c
       0.13186905 -0.0069989115 -0.14753616 0.011717552
000100 a7 1b 90 be 5e d4 9f 3d 5a ec aa be 07 52 cf 3d
       -0.28146097 0.07804178 -0.33383447 0.10123067
000110 6c 4e ce bd a4 f5 1f 3a 98 4c f0 bc 5c d8 44 3d
       -0.100735515 0.0006101972 -0.029333398 0.0480579
000120 1e 5c 73 3e 6b 77 43 3e 75 1f bb 3e e2 bc 24 3e
       0.23765609 0.19088523 0.36547437 0.16087678
000130 95 84 44 be fc 5e 51 3d 50 92 46 be 6d ae 27 3d
       -0.19191201 0.051115975 -0.19391751 0.04093783
000140 84 11 ad bb 7b fb 12 3e 06 95 ab bb 19 66 c2 3d
       -0.005281629 0.14353745 -0.005236271 0.0949213
000150 a0 3c 52 3c ca a6 c3 bd e5 f0 3a 3f 73 4e dd 3d
       0.012831837 -0.09553297 0.73023826 0.108059786
000160 90 35 42 3f 2b b5 d9 bc 67 c4 46 3f 21 c8 7c bd
       0.7586298 -0.026575645 0.77643436 -0.061714295
000170 f3 03 71 3f 1a 7e 1d ba aa 82 35 3f 9b 8a 7c be
       0.9414665 -0.00060078653 0.709025 -0.24662249
000180 c9 4f c2 3e 03 fc 15 be c5 3e f2 3d 97 f4 d7 bb
       0.37951496 -0.14646916 0.118283786 -0.0065904367
000190 98 c0 3a bc 1a ce 54 3d 35 c9 9c 3f b3 3d 46 be
       -0.011398457 0.051954366 1.2248904 -0.19359474
0001a0 f1 74 74 3f a2 95 6d bd 7e 3a b7 bb 05 87 03 3e
       0.9549094 -0.05800403 -0.0055916896 0.12844475
0001b0 3e 0f bd be 7c b0 ae 3d 36 26 22 3f 52 5a 79 be
       -0.3692569 0.085297555 0.63339555 -0.2435086
0001c0 4d cd 75 3f 74 90 29 be e1 e3 fa 3d c9 14 e1 bc
       0.9601639 -0.1655901 0.12250496 -0.027475731
0001d0 34 d4 be be fb d3 f2 3d 3a 41 46 be f9 f1 a0 be
       -0.37271273 0.11856838 -0.1936082 -0.3143461
0001e0 73 27 eb 3d e7 c6 8a be 95 45 e9 bd 6f 37 c0 be
       0.11482134 -0.27104875 -0.11390225 -0.37542292
0001f0 e9 49 05 be dc 47 53 be 50 48 79 3d ba ef a6 bd
       -0.13016476 -0.20632881 0.06085998 -0.08151193
000200 f4 8c 8f 3e 60 a7 33 3e 6a da 10 3e 48 d3 e5 3c
       0.28037226 0.17544317 0.14145818 0.028054848
000210 42 89 ac ba bf 26 81 3d fd df 8d be 9a 7b ab 3d
       -0.0013163465 0.06306218 -0.27709952 0.083731845
000220 b9 2c e8 3d ab 5c 53 bd 56 5c ff 3d 58 80 df bc
       0.11336655 -0.051602047 0.124687836 -0.027282879
000230 c7 92 30 3e 2e ee 13 3d 55 be 4a 3e ff dd 9e 3d
       0.17243491 0.036115818 0.19799168 0.07757186
000240 83 34 83 3c 58 2c 95 bb 5d e4 7e bd f5 3c 46 bc
       0.01601625 -0.0045524053 -0.062229503 -0.012099494
000250 47 d5 a7 3d 7d 7f 90 3d fc ae ea 3d c1 8a 97 3d
       0.08194976 0.070555665 0.11459157 0.07399512
000260 31 4f 3b be 07 cc c7 3c 4a 26 1c be f5 72 82 3c
       -0.18291928 0.02438928 -0.15248981 0.015923956
000270 12 5e 89 3d 8f e3 b0 3d 2b d5 27 3e 81 10 18 3e
       0.067073956 0.08637153 0.16389911 0.14850046
000280 cc 42 49 be 17 79 8d 3d 82 96 43 be b1 a7 45 3d
       -0.19654387 0.06907862 -0.19100383 0.048255626
000290 1f 0e 64 be 84 4a bf 3d 04 95 d6 bd 68 73 f9 bf
       -0.22271012 0.093403846 -0.10477641 -1.9488344
0002a0 c6 9a 9d 3e cb 37 66 be 97 24 c6 bd 07 80 9a 3e
       0.30782145 -0.22482221 -0.09674948 0.30175802
0002b0 fe 79 b2 bd a3 5f 2b bc d4 56 2d be 42 5d d0 bd
       -0.087146744 -0.010459813 -0.16927654 -0.101740375
0002c0 fb 30 9b be fa 6e 53 be 0b ca 80 be 9d bd 0c 3e
       -0.30310807 -0.20647803 -0.25154147 0.13744207
0002d0 5a c3 22 3e 41 35 f7 3c 9f d9 ff 3e 22 81 07 bd
       0.15894833 0.03017676 0.4997072 -0.033082135
0002e0 28 c0 2a 3f 18 ab 34 be 54 f4 c0 be d1 e9 c8 3d
       0.6669946 -0.17643392 -0.37686408 0.09810222
0002f0 3c 97 ea 3b cd fa 28 3c ea 63 da 3e ba 03 c3 bd
       0.007159142 0.010313702 0.42654353 -0.09522195
000300 c6 9c 2b 3f 17 de 07 be a1 b4 29 bf b5 77 9b 3c
       0.6703609 -0.13268314 -0.6629124 0.01897798
000310 fa a1 8c 3e 76 84 1b ba 12 93 7a 3f d6 34 a3 bd
       0.27467328 -0.0005932519 0.9788066 -0.07969062
000320 a0 87 92 3f f3 3b 98 3e bd ba a3 3e 36 63 83 bb
       1.144764 0.29733238 0.31978408 -0.0040096296
000330 14 13 82 3f e6 5e 95 bd 81 8a c7 3f bc 18 b2 bd
       1.0162072 -0.07293491 1.5589143 -0.08696124
000340 27 a4 e1 3f e2 dc 9a 3c a8 b9 a7 bd f0 5f 39 bd
       1.762822 0.018904153 -0.08189708 -0.04525751
000350 d7 a0 b4 be 35 cc 4c be 26 4d af be 9e 60 24 3b
       -0.3527896 -0.19999774 -0.34238547 0.0025082002
000360 b6 a8 fc be 2f 5c 34 3d 90 f2 b9 bd 34 d0 70 3b
       -0.49347466 0.044033226 -0.09079468 0.0036745192
000370 03 e7 8b be c1 25 c0 3d 1b fd a8 3e 22 c2 87 3d
       -0.27324685 0.09382201 0.33005604 0.06628825
000380 11 94 68 3f 75 e6 08 3c 73 e6 c4 3f 12 b6 3e bc
       0.9085093 0.0083557265 1.5382828 -0.011640089
000390 f3 3b c4 be fb af e3 3d 23 b2 81 bf f5 e9 3d 3d
       -0.38326988 0.1111755 -1.0132488 0.046365697
0003a0 6b de bb bf 03 df c4 bd 6d d1 bd bf 9d 80 c0 bd
       -1.4677252 -0.096128486 -1.4829537 -0.09399531
0003b0 a7 e4 04 3e f4 bd 16 3e 80 8e a1 be 4a 36 93 3d
       0.12977849 0.14720899 -0.3155403 0.07188089
0003c0 1a 83 d9 be 9f 1c 3b bd f3 c8 af be 84 d8 3b be
       -0.42482835 -0.045681592 -0.34333 -0.18344313
0003d0 28 11 3f 3e 1e eb 4d 3e c2 38 8c bd 79 f0 1c 3e
       0.18658888 0.20109221 -0.06846763 0.15326108
0003e0 0d 03 ec bd ea a8 0d 3e 1c b7 e4 bd 25 d9 ae 3d
       -0.115240194 0.13833967 -0.11167738 0.08537511
0003f0 7e d0 99 3e 60 01 5c bc 0e 05 93 3b 60 4b 94 be
       0.3004188 -0.013428062 0.0044866866 -0.28963757

sequential_2/dense_7/MatMul f4 [10, 20]
000000 18 ff 34 be 1a 32 a0 bd c4 99 6e bd b4 b5 2f bc
       -0.17675436 -0.07822056 -0.05825211 -0.010724474
000010 da e0 16 bf 57 47 f0 bd 1b 23 5e 3e 75 e4 10 bf
       -0.58936846 -0.11732357 0.21693079 -0.565986
000020 3b 63 14 3e 53 a7 81 bc d9 39 80 3e a9 44 10 be
       0.14490978 -0.015826857 0.25044134 -0.14088692
000030 63 cd 4a 3d 5c be 0a be 14 b6 6d 3f be bb e1 3d
       0.04951228 -0.13549179 0.92855954 0.11022137
000040 50 15 bd 3f 29 7b 11 bf 98 21 fc bc 66 02 02 40
       1.4772129 -0.5682855 -0.030777737 2.0313964
000050 73 89 06 3f ad 07 21 3d 17 73 6f 3f 93 76 23 3e
       0.5255348 0.03931396 0.9353499 0.15963201
000060 31 f4 89 bd e9 08 f6 be a8 4c fa 3e f9 22 c0 be
       -0.06736029 -0.48053673 0.4888661 -0.37526682
000070 13 cf f4 be f4 e8 3f bf bf cb 9f be 46 0e d6 3e
       -0.47814235 -0.74964833 -0.31210133 0.41807765
000080 f6 25 b9 3e 11 f6 b8 bf 98 8c ed 3f d1 e9 5a be
       0.36161774 -1.4450094 1.8558531 -0.21378256
000090 5c c3 33 3c 38 80 6f bd 01 d5 27 3f af d7 03 be
       0.01097187 -0.05847189 0.65559393 -0.12875246
0000a0 d9 44 be bf a7 54 a9 3e d9 9d 74 3f 2d 33 10 40
       -1.4864761 0.33072397 0.95553356 2.2531235
0000b0 7b 62 a1 3e e0 8f 78 bf 40 aa d0 3d 89 d7 36 3f
       0.31520447 -0.97094536 0.101887226 0.7142263
0000c0 25 e8 09 3f 32 1c 29 3e a0 e4 39 3f d7 ad 36 c0
       0.5386985 0.16514662 0.7261448 -2.8543603
0000d0 d6 ad ed bd 65 e6 c9 3e 81 9e 12 3f 66 e1 c5 3d
       -0.11605422 0.3943359 0.5727311 0.09662132
0000e0 e2 3e a5 bd b8 4d ad 3e 1d 19 ab be ba 79 86 3f
       -0.080686346 0.33848357 -0.33417597 1.0505898
0000f0 fa da 27 3f f5 9b 8e bf ba 41 1c 3f 98 8b 96 3e
       0.65568507 -1.1141344 0.6103779 0.29403377
000100 1c 14 d1 bf 37 f1 c1 3e fe fe 9b 3f c0 8a 32 3f
       -1.6334262 0.37879345 1.2187192 0.69742966
000110 df fd 19 3f 31 ac a2 3e 9d 44 21 3f fb 0c 1c 3f
       0.60153 0.31771997 0.6299532 0.60957307
000120 9d a4 a9 3e eb c3 67 be 92 dd cd 3f d1 f4 28 bf
       0.33133402 -0.2263333 1.6083243 -0.6599856
000130 e3 55 c2 bd d6 5b d8 be 8e 98 82 3f 45 4f b4 3d
       -0.09489038 -0.42257565 1.0202806 0.08804182
000140 ef 7f 43 3e 70 21 49 40 a4 7f ba 3e e4 ca b3 be
       0.19091772 3.1426659 0.36425507 -0.3511573
000150 15 c1 8c bf bc 1e 92 bd 2f 19 64 3f e1 f0 9a 3f
       -1.0996424 -0.07134768 0.8910093 1.210476
000160 02 69 ca 3d 24 17 ee bb 7b 37 8a 3f be 56 48 3e
       0.0988331 -0.007265942 1.0798181 0.1956434
000170 7f d8 00 3e 4b 38 2e bc 51 29 da 3e f0 55 40 be
       0.12582587 -0.0106335385 0.42609647 -0.18782783
000180 1a d7 10 bf 2c 5e d3 3d 98 ec c8 3e f7 c3 da 3e
       -0.5657822 0.10320696 0.39243007 0.42727634
000190 6b bb 9b bf ca c3 04 40 5e a7 e4 3d 61 f7 55 c0
       -1.216657 2.07445 0.11164735 -3.3432238
0001a0 70 3f 65 be f0 29 03 bf 80 eb 8e 3d e3 dd 9b be
       -0.2238748 -0.51235867 0.06978512 -0.30442724
0001b0 a3 d3 53 bf bb ba 76 bf 69 5f 0d bc a6 7a 25 c0
       -0.82744807 -0.9637868 -0.008628705 -2.5856109
0001c0 e9 9d ab bf 88 2f ac 3d af be 62 bc f4 86 75 bf
       -1.3407565 0.08407503 -0.013839408 -0.9590905
0001d0 be 6c 4c bd 8e 06 75 3d 80 09 0e 3e 9b 40 6e be
       -0.049908392 0.059820704 0.13870811 -0.23266833
0001e0 84 98 76 bb a8 94 a2 be 3a 16 68 3f 72 65 a4 be
       -0.0037627527 -0.3175404 0.90658915 -0.32108647
0001f0 04 ad c7 ba bf 78 a2 be 4f fb 69 3e a7 54 d1 3e
       -0.0015234058 -0.31732747 0.22849773 0.40884897
000200 e5 dd 30 be 8e 9a fe be 4d 80 a6 3e 47 5f 96 3e
       -0.17272146 -0.4972729 0.3251976 0.29369566
000210 89 2a 6c bf 9d c5 1b 3f 42 a0 1c 3e 8e 67 0e 40
       -0.92252403 0.6084841 0.15295509 2.2250705
000220 4b 1c bc bd 11 be a2 3e 78 f9 4d 3e a7 45 36 3f
       -0.09185084 0.31785634 0.20114696 0.7120003
000230 ee ce 05 c0 a9 95 e5 bd de 5d 0f bf 5b c1 22 3c
       -2.090755 -0.11210186 -0.56002605 0.009933795
000240 88 12 ea 3e ce 09 4c 3f 6d 29 cb 3d 41 ab 4b 3e
       0.45717263 0.7970246 0.09920011 0.19889547
000250 04 1b ee 3c 2f 43 5e 3e 3b 18 13 bd 0f 95 46 c0
       0.029065616 0.21705316 -0.03591178 -3.1028478
000260 ed 1a 6d 3d 18 94 9d 3f a5 aa b9 3e 0c 0d 4e 3f
       0.057887007 1.231082 0.36263004 0.8048866
000270 5c 9a 84 3e ea 4a 4f 3e d4 5d b0 3e 3e 06 8b be
       0.25899017 0.20243421 0.34446585 -0.271532
000280 7b ec cc 3e d6 df c9 3f 29 49 64 bd b8 4d 4a c0
       0.4002417 1.5771434 -0.055733833 -3.1609936
000290 96 1f 3a bf 71 75 1e 3f d8 82 0f 3f e0 67 43 bf
       -0.72704446 0.6189795 0.56059027 -0.76330376
0002a0 18 a3 0e 3f d2 f8 02 3f 77 99 87 3e 33 bd b4 3e
       0.5571761 0.5116092 0.26484272 0.35300598
0002b0 e3 1b 19 3f 08 c9 82 3f ff 5f 7a bb bc 1a e4 bf
       0.59808177 1.02176 -0.003820419 -1.7820659
0002c0 06 5d 1a 3f 66 65 4c 3f 83 99 a4 3e 07 a6 70 bd
       0.6029819 0.7984222 0.3214837 -0.058752086
0002d0 23 35 df bd 68 5f 5e 3f c5 d0 ed 3c 56 2c 00 3f
       -0.10898807 0.8686433 0.029030213 0.5006765
0002e0 3a 33 9d bf 94 47 06 3e b8 26 ef bc 75 8b fc be
       -1.2281258 0.13113242 -0.029193267 -0.49325147
0002f0 7c 9a e6 3e 62 95 7c 3d 9c aa 01 bf 9b 04 0a be
       0.45039737 0.0616659 -0.50650954 -0.1347832
000300 38 34 4b 3e ae b6 e0 3f 1f c9 2a 3f 50 6b cb 3e
       0.19844139 1.755575 0.66713136 0.3973031
000310 bd a9 37 bf dc ad b4 bf fb f6 93 3e 18 ab 71 bd
       -0.71743375 -1.4115558 0.2889937 -0.05900106

sequential_2/dense_8/MatMul f4 [28, 10]
000000 5a c3 9b 3e 70 12 51 3e 5b ec f3 bd 20 60 17 3f
       0.3042248 0.2041719 -0.119103156 0.5913105
000010 fd ac a5 bd db 60 a8 3e 96 c3 d6 3c 71 31 96 be
       -0.080896355 0.32886395 0.02621631 -0.29334596
000020 f1 ec 1e bf 44 f0 95 bf b4 3e da bf d2 a4 04 bf
       -0.62080294 -1.1713948 -1.7050385 -0.51813996
000030 b5 39 f5 3c 45 69 02 bf 81 df 03 3e 98 9a 15 bf
       0.029934743 -0.5094188 0.12878229 -0.58439016
000040 44 37 34 3f 4e 11 41 bf 12 51 33 bf 3f e7 5c 3f
       0.7039683 -0.7541703 -0.7004558 0.86290354
000050 c1 81 5f be 67 ee 47 3e 8a 53 00 3f c5 f5 13 bf
       -0.21826841 0.19524537 0.5012747 -0.5779689
000060 3d e5 f6 3e df 76 51 bf 5e 71 0b 3f 8d 28 11 3f
       0.4822177 -0.8182201 0.5446986 0.567025
000070 32 f5 eb 3d da 9e ed be 1d ad e1 be f8 fe 92 bf
       0.11521377 -0.46410257 -0.44077387 -1.148406
000080 47 33 39 3f eb f8 45 bf 3a d9 8a 3e 1e ba ee 3e
       0.7234387 -0.77332944 0.27118856 0.4662637
000090 09 ae 89 3e c8 56 5b bf 51 e7 01 bf 25 1a 79 bf
       0.2689059 -0.8567929 -0.50743586 -0.9730552
0000a0 99 0b 20 3d 1b 65 c1 3e 98 b0 cf be 76 4b 5a 3e
       0.03907356 0.3777245 -0.40564418 0.21317849
0000b0 38 f3 e2 be 3f f8 94 be 56 af e8 3e 9a c5 bf be
       -0.44326186 -0.29095647 0.4544627 -0.37455446
0000c0 eb 3e 96 bf bf 65 bd bd 76 ed 96 3d 56 24 0e bf
       -1.1737951 -0.09247922 0.07369511 -0.55524194
0000d0 dc 99 05 3d 21 c3 e6 3e 55 f7 db 3d 8d b3 36 bf
       0.032617435 0.45070747 0.10740534 -0.7136772
0000e0 65 85 c9 3e 96 c3 41 3f cd 88 23 bf 47 1e fc 3d
       0.39359584 0.75689065 -0.63880616 0.123104624
0000f0 ec 2f 10 3f fd 55 35 bf 5a 2d 1e bd 46 09 17 bf
       0.5632312 -0.7083433 -0.03861747 -0.58998525
000100 2f 62 27 3f dc b9 23 bf 00 c6 a4 bf 32 b8 f0 bc
       0.6538419 -0.63955474 -1.2872925 -0.029384706
000110 95 38 d3 3e 16 0a 7a be b6 ee 88 3e 61 3a 05 bf
       0.41254106 -0.2441791 0.26744622 -0.52042204
000120 89 fe 3a be 3c 31 96 bf 80 87 44 3e f9 ee 4c bf
       -0.1826116 -1.1733775 0.19192314 -0.80052143
000130 9c 57 75 bf f5 20 90 3e 43 a0 5d 3f 08 3f 25 3e
       -0.95836806 0.28150144 0.86572665 0.16137326
000140 3d 01 75 be 41 db 39 3e 1b b6 20 3f 9e 88 b6 3e
       -0.23926254 0.18150045 0.6277787 0.35651106
000150 a8 2f 87 bf 27 f5 90 3e 88 4b 24 bf 0a 0e 5e bf
       -1.0561419 0.28312036 -0.6417775 -0.8674017
000160 24 b6 09 be 8b bf cc 3d a2 c7 5a 3f df cd f6 be
       -0.13448387 0.099974714 0.85460865 -0.48203942
000170 cf 6a 9e be 08 65 0e 3f f1 bb c4 be 9f 07 36 bf
       -0.30940863 0.5562291 -0.38424638 -0.7110538
000180 3e f3 b8 bf b4 9c 8a 3e 62 9b 35 bf 54 c1 0a 3f
       -1.4449232 0.2707268 -0.7094022 0.54201245
000190 1f b5 b6 3e 9b 96 81 bf 82 2d c8 bf 08 d6 c2 be
       0.3568506 -1.0124086 -1.5638888 -0.38053918
0001a0 37 85 bb be 52 35 7d 3f 55 f4 eb be b1 b2 67 3e
       -0.36625072 0.98909485 -0.46084848 0.22626759
0001b0 ec 86 0c 3e 7c 5a b0 3e 9d c6 90 bf 83 74 2e bd
       0.13723344 0.34444034 -1.1310612 -0.042591583
0001c0 c4 8d 25 be 2d 6d ac 3e 9d 6a da 3e 49 d1 4c 3f
       -0.1616736 0.33677045 0.42659464 0.80006844
0001d0 c5 c3 14 bd 7e 20 41 bf 66 c4 96 bd e2 1d 6b bf
       -0.036319513 -0.75440204 -0.07361679 -0.9184247
0001e0 b7 97 cc bb 9b f9 16 3f 3b 4b 76 be d5 da 8e bd
       -0.0062436718 0.5897462 -0.24052136 -0.06975333
0001f0 46 65 18 3e b1 29 87 bf 9d 38 94 3e 6b bb 04 3e
       0.14882383 -1.0559598 0.28949443 0.1296212
000200 75 01 a0 3e 48 56 49 bf f4 c8 8c 3d a6 a3 e1 3e
       0.31251112 -0.7864728 0.06874266 0.44070166
000210 fd df 70 be 46 86 60 3d 68 55 25 3e 23 c4 93 bf
       -0.23522945 0.054815553 0.16145861 -1.1544231
000220 70 a9 78 3e 0e bd 81 3d 2f dd b4 3e ae 74 40 bf
       0.24283385 0.063348874 0.35325 -0.7517804
000230 4b 98 4e bd ea 16 86 be 3c 0a da 3e e6 7a 2f bf
       -0.050438207 -0.26189357 0.42585933 -0.68546903
000240 f3 65 db 3e db ea 81 bf 70 ce f9 3e b8 77 1a be
       0.4285122 -1.0149797 0.48790312 -0.15084732
000250 46 e5 9c be f6 6c 56 bf 56 ee ae be e3 2d 7c be
       -0.30643672 -0.8376001 -0.3416621 -0.2462688
000260 99 3b 13 bf 29 ca e4 ba f4 ac 71 be a9 7d bf bf
       -0.57512814 -0.0017455268 -0.23601133 -1.4960223
000270 6a 79 2e bc 12 ed fa be 2d d6 30 3f f5 63 d1 3d
       -0.010649065 -0.49008995 0.69076806 0.102241434
000280 f4 e0 59 bf 95 9e 73 be 25 93 ce be ae 06 0d 3e
       -0.85108876 -0.23790963 -0.40346637 0.1377208
000290 7f 72 3c be 92 40 c4 bf 07 9c 49 3e 63 d9 be be
       -0.18403052 -1.5332205 0.19688426 -0.37275228
0002a0 b0 c9 25 3f ea 4d 74 3e f3 c2 47 3e c1 f4 d2 3e
       0.64760876 0.23857847 0.19507961 0.41202357
0002b0 d3 d3 fc bc 09 36 f5 bf 68 0c ba bf 99 75 44 3f
       -0.030862724 -1.9157115 -1.4535036 0.7674194
0002c0 b5 be 09 bf 34 c9 61 bf 53 75 50 3e e2 55 90 3f
       -0.5380662 -0.88197637 0.20357256 1.1276209
0002d0 68 2b ae 3e 8f 03 d0 3e 40 6e 7b be 67 88 b6 3e
       0.3401749 0.40627715 -0.24553776 0.35650942
0002e0 06 c1 e7 be fd de 81 3e 50 1f 90 3e e0 fa 81 be
       -0.45264453 0.2536544 0.2814889 -0.25386715
0002f0 23 e7 21 bf 25 9a 15 bf d6 f4 76 bd c0 e3 2a 3f
       -0.6324331 -0.5843833 -0.060292087 0.6675377
000300 b6 63 89 bd 2f 3b 9d be 61 d5 54 3f 9e a3 67 be
       -0.067084715 -0.30709216 0.8313809 -0.22621009
000310 c3 f6 0d 3e 7b a8 cf 3e d0 96 8e be 8d fe 3d bf
       0.13863663 0.40558228 -0.27849436 -0.7421654
000320 89 d3 1b 3e 65 31 5a 3d b0 b2 ca be b3 6e b1 bf
       0.15217413 0.053269763 -0.39589453 -1.3861908
000330 a4 c4 86 bf 21 74 5e 3f e5 c7 db be e8 00 77 be
       -1.052876 0.8689595 -0.42925945 -0.2412144
000340 19 ff 2a 3e e0 45 38 3f 6e b3 19 bd 2c e0 eb be
       0.16698875 0.7198162 -0.037524633 -0.46069467
000350 2e ca df bf d9 49 27 bf 76 40 21 bf 95 08 7f 3f
       -1.7483575 -0.6534706 -0.62988985 0.9962247
000360 0e 54 d2 be a8 b2 7c 3e 77 a0 af 3d 5a 26 12 3f
       -0.41079754 0.24677527 0.08575528 0.5708977
000370 b5 c6 8c bf 15 0a 06 bf d2 a4 c1 bf d0 6a a9 3d
       -1.099814 -0.52359134 -1.5128424 0.08272326
000380 7c fb 2d bf 39 72 e3 3e 82 9e 3d 3f 1c 55 d9 3e
       -0.6796186 0.44423082 0.7406999 0.42447746
000390 3f 16 5d bf 83 24 19 3f 31 8c b7 3e f6 c8 db 3e
       -0.8636207 0.5982134 0.35849145 0.4292676
0003a0 a3 85 d4 be d8 99 b9 be aa 99 c8 3d 3a 42 ef 3e
       -0.41508207 -0.36250186 0.09794934 0.46730214
0003b0 19 46 cd bd f8 1e 53 bf 94 f9 9f 3b 64 a1 a9 bd
       -0.10023136 -0.8246913 0.004882047 -0.08282736
0003c0 6e 2d 83 3d b1 b0 94 be 22 2e 03 3f 8f 11 97 3f
       0.064051494 -0.29041055 0.5124227 1.1802233
0003d0 05 0a 11 bf 1e cd d9 be be 24 80 be 10 d6 0b bd
       -0.56655914 -0.42539304 -0.25028032 -0.034139693
0003e0 64 eb ca be 03 6e 56 bf 92 bd 23 bf 74 d7 82 3f
       -0.39632714 -0.83761615 -0.63961136 1.0222001
0003f0 6e a9 29 3c 09 80 df be 20 5a 57 3e b3 0c 34 3d
       0.010355337 -0.4365237 0.21030474 0.043957423
