model/customModel/controlModel/control_classifier1a.tflite (tflite, 8360 bytes, 6 tensors)

sequential/dense_2/MatMul f4 [2, 20]
0	0xbf42811b	-0.7597825
1	0x3e3e8cda	0.18608418
2	0xbe4015ae	-0.1875827
3	0x3eb26975	0.34846082
4	0xbe02823b	-0.12744991
5	0x3e377ed7	0.1791948
6	0x3ede13e8	0.43374562
7	0x3ef8640a	0.48513824
8	0xbf380ae5	-0.71891624
9	0x3f1035a4	0.5633185
10	0xbebb4aab	-0.36580405
11	0xbf107ce9	-0.564406
12	0xbe8d8725	-0.2764217
13	0x3df3de89	0.119076796
14	0xbc3141e8	-0.010818936
15	0x3ee5e486	0.44900912
16	0xbf1d0449	-0.61334664
17	0x3f7d94fc	0.9905546
18	0xbeea68ae	-0.4578299
19	0x3eb5022c	0.3535322
20	0x3f2e8e88	0.68186235
21	0xbea0ff0b	-0.31444582
22	0x3ecd9574	0.40153086
23	0x3e9494c7	0.29019758
24	0xbe8bb7e9	-0.2728875
25	0xbd815dd3	-0.06316724
26	0x3cdd45ac	0.027010761
27	0xbec886fe	-0.3916549
28	0x3f49b74f	0.7879533
29	0xbebd4cea	-0.36972743
30	0x3eed9d0f	0.4640889
31	0x3f3177a6	0.69323194
32	0x3e9dac43	0.30795488
33	0xbedf27b9	-0.43584993
34	0x3ebb31ea	0.3656152
35	0xbe55f2e8	-0.20893443
36	0x3f42f14c	0.7614944
37	0xbf1dc589	-0.6162954
38	0x3f3d2fb7	0.7390093
39	0xbedb0396	-0.42776173

sequential/dense_1/MatMul f4 [20, 40]
0	0x3ed8496a	0.4224351
1	0x3efeae13	0.49742183
2	0x3ece404f	0.4028344
3	0x3cf34b6b	0.029699048
4	0x3d36f232	0.04466457
5	0xbb7b7c27	-0.003837356
6	0xbe0c0c9c	-0.13676685
7	0x3e88f2cc	0.2674774
8	0xbd2eea0e	-0.04270368
9	0x3e6cc960	0.23123693
10	0xbe967c31	-0.29391626
11	0xbe3f3370	-0.18671966
12	0x3ee92fef	0.45544383
13	0x3eaf957b	0.34293732
14	0xbdbfc0a7	-0.093629174
15	0x3d705167	0.05867138
16	0xbea572c0	-0.3231411
17	0x3e690da4	0.2275911
18	0x3e9e894a	0.30964118
19	0x3e8944c2	0.2681027
20	0xbea72ec7	-0.32652876
21	0x3e1afd31	0.15135647
22	0x3d148e14	0.03626831
23	0x3e26c4be	0.16285989
24	0xbdf1c038	-0.11804241
25	0xbd5ab8e8	-0.053398997
26	0xbd740ee1	-0.059584502
27	0x3d9b6c6d	0.0758904
28	0x3ea7139c	0.32632148
29	0x3e7e0ea1	0.24810268
30	0x3d7e1fc5	0.062042017
31	0xbed398d6	-0.41327542
32	0x3e56baec	0.20969743
33	0x3e5ba2ba	0.21448794
34	0x3f00569b	0.5013215
35	0x3e1e09a9	0.15433373
36	0x3f28bf96	0.65917337
37	0x3eacc749	0.33745793
38	0xbe148155	-0.14502461
39	0x3f079121	0.52955824
40	0xbdf6d37a	-0.12052055
41	0xbe40cd0b	-0.18828218
42	0xbe70df10	-0.23522592
43	0x3dece6c5	0.11567453
44	0xbebbb85b	-0.3666409
45	0x3dd335cd	0.10312996
46	0x3dc4b0fe	0.09604071
47	0xbe850074	-0.25976908
48	0x3dce7c54	0.100823075
49	0xbea694c9	-0.3253539
50	0x3db73696	0.08945958
51	0xbe3b6d53	-0.18303423
52	0xbdacd1d8	-0.08438462
53	0x3cb41f59	0.021987604
54	0xbe93a7b2	-0.2883888
55	0x3e4c5532	0.19954374
56	0xbe4252f9	-0.18976964
57	0xbe91f4a7	-0.28506967
58	0x3e20169a	0.15633622
59	0xbe9ce876	-0.30646104
60	0x3dad9efa	0.08477588
61	0xbdea0d2a	-0.11428292
62	0xbd93a21d	-0.07208655
63	0x3e55b86d	0.20871134
64	0xbecce0ae	-0.40015167
65	0xbc0c945f	-0.008580296
66	0x3e034097	0.12817608
67	0xbd937842	-0.07200672
68	0x3db0cc0d	0.086326696
69	0x3e27cff1	0.16387917
70	0xbdc70f8c	-0.09719762
71	0x3d085171	0.033280794
72	0xbd698bcc	-0.057018086
73	0xbdbf3fdd	-0.09338353
74	0xbe430c3f	-0.1904764
75	0xbe0506ac	-0.12990826
76	0xbdc078f9	-0.09398074
77	0xbdf862d1	-0.12128223
78	0xbe4a02df	-0.19727658
79	0x3bf865f6	0.007580514
80	0x3e8b7e8c	0.27244985
81	0x3eb11bc7	0.34591505
82	0x3db4dd8f	0.088313214
83	0x3f0c7833	0.5487091
84	0x3e8f7ba2	0.28024012
85	0x3ed63fa2	0.41845423
86	0xbe4123cd	-0.18861313
87	0x3e093e32	0.13402632
88	0x3edee504	0.435341
89	0x3eb7c5ab	0.35892996
90	0x3daf7e34	0.08568993
91	0xbe5bd08b	-0.21466272
92	0x3e34ea74	0.17667562
93	0x3efcfb68	0.49410558
94	0x3e069b04	0.13145071
95	0x3e3fd721	0.18734409
96	0x3e991c26	0.29904288
97	0xbda49ab2	-0.08037318
98	0x3f19d830	0.600955
99	0x3ca75f30	0.020431131
100	0x3aff86b6	0.0019495103
101	0x3e023b56	0.12717947
102	0x3d87c10b	0.06628617
103	0x3ee26747	0.4421942
104	0xbedf3ee2	-0.43602663
105	0x3e97c9b6	0.2964608
106	0x3e0d96eb	0.13827102
107	0x3ec94ac9	0.3931487
108	0x3f2ae748	0.6675916
109	0x3f3decff	0.7418975
110	0x3d84d69f	0.06486248
111	0xbd2c0d1d	-0.042004693
112	0x3efe3783	0.49651727
113	0xbc274850	-0.010210112
114	0x3f4350ce	0.76295173
115	0x3e97267b	0.29521546
116	0x3f50ece0	0.8161144
117	0x3f5591f9	0.8342586
118	0xbe4e605b	-0.20153944
119	0x3f3e009e	0.7421969
120	0xbe2f1dc7	-0.17101203
121	0xbe5d85a2	-0.21633008
122	0x3da7f36f	0.08200728
123	0xbe5170d8	-0.20453203
124	0x3ca6a469	0.020342069
125	0x3e27c269	0.16382755
126	0x3e8c6f24	0.27428544
127	0x3d0df45b	0.034656864
128	0x3de179f5	0.110095896
129	0xbc61c28d	-0.013779295
130	0xbec14022	-0.37744242
131	0xbe12583e	-0.14291474
132	0xbe088bbf	-0.13334559
133	0xbe64ce10	-0.22344232
134	0xbe160628	-0.14650786
135	0x3e19bc79	0.15013303
136	0xbdd03123	-0.10165622
137	0xbe6bfe5f	-0.23046254
138	0xbddf18c7	-0.10893398
139	0xbdbdaf31	-0.09261931
140	0xbe2999ff	-0.16562651
141	0xbdba77f9	-0.09104914
142	0xbce5e2f9	-0.02806233
143	0xbe41e242	-0.18933967
144	0xbb1bf202	-0.002379537
145	0x3e3d574e	0.18490335
146	0xbc82f8b5	-0.015987733
147	0xbe757ee5	-0.23974188
148	0xbd189a5f	-0.037256595
149	0x3de2fb7d	0.11083124
150	0x3c3913f1	0.011296258
151	0xbe1fc84a	-0.15603748
152	0xbe944c6b	-0.28964552
153	0xbe47fb6f	-0.19529508
154	0xbdf8f961	-0.1215694
155	0xbe23bb3f	-0.15989397
156	0x3d17517a	0.036942936
157	0x3e823370	0.2542987
158	0xbc92dbe0	-0.01792711
159	0x3df412e1	0.11917663
160	0xbef3c6c1	-0.47612575
161	0xbcca9a47	-0.024731768
162	0xbdacdd21	-0.084406145
163	0xbeafc0d2	-0.34326798
164	0x3de3a569	0.11115534
165	0xbea646e1	-0.3247595
166	0xbe80936c	-0.25112474
167	0xbe65049e	-0.22365043
168	0x3e8a33d1	0.26992658
169	0xbe4c4f7b	-0.19952194
170	0xbed748e4	-0.420478
171	0xbea63725	-0.32463947
172	0x3e89bbcc	0.2690109
173	0x3bd8e122	0.006618635
174	0xbe30d4bb	-0.1726865
175	0xbe0d32f0	-0.13788962
176	0xbd542008	-0.05178836
177	0x3d1915e8	0.037374407
178	0xbed4254b	-0.41434702
179	0x3e8293ba	0.2550333
180	0xbe2f47ce	-0.17117235
181	0x3e06de67	0.13170777
182	0x3e10f968	0.14157641
183	0x3d006b16	0.031352125
184	0xbe7ddce8	-0.247913
185	0xbe97dfbb	-0.2966288
186	0x3e500360	0.20313787
187	0x3e02f677	0.12789331
188	0xbe863324	-0.26210892
189	0xbd975eac	-0.07391104
190	0xbe84f492	-0.25967842
191	0x3e5d0cec	0.2158696
192	0xbe9d11b2	-0.30677563
193	0xbcd5409a	-0.026031781
194	0xbdbb55f3	-0.09147253
195	0x3e8190f1	0.25305894
196	0xbe1179c0	-0.142066
197	0x3e325d3e	0.17418382
198	0xbe1da86f	-0.15396284
199	0xbeb649d9	-0.35603216
200	0x3e2c0fd3	0.16802911
201	0xbe163da0	-0.14671946
202	0xbe669824	-0.22518975
203	0x3c85ed6b	0.016348561
204	0xbdbafa61	-0.09129787
205	0x3dac595a	0.0841548
206	0x3e59abe1	0.21256973
207	0xbe7977a4	-0.24362046
208	0xbe64dfc4	-0.22350985
209	0x3d49c732	0.049262233
210	0xbeb93524	-0.36173356
211	0xbe9530da	-0.29138833
212	0x3e87b038	0.26501632
213	0xbe261ed4	-0.16222697
214	0x3d768a3b	0.06019042
215	0xbe4eeed1	-0.20208289
216	0xbd8ff290	-0.07028687
217	0xbe84e7c7	-0.25958082
218	0x3e0e914c	0.13922614
219	0xbe177cf1	-0.14793755
220	0xbd5b5aec	-0.053553507
221	0xbe9f4060	-0.31103802
222	0xbe102a2c	-0.14078587
223	0x3d90ec77	0.07076352
224	0x3e17b52e	0.14815208
225	0xbde4f175	-0.11178867
226	0xbe37e2c0	-0.17957592
227	0xbe36c45c	-0.17848343
228	0x3e05c7d1	0.13064505
229	0x3e16495b	0.1467642
230	0xbe96f181	-0.29481128
231	0x3df7f0b3	0.121064566
232	0xbe39a51c	-0.1812939
233	0xbe28243c	-0.16420072
234	0xbea098d9	-0.31366614
235	0xbe507694	-0.20357734
236	0xbe11bd6a	-0.14232412
237	0xbe26639e	-0.16248938
238	0x3d4347e6	0.04767599
239	0x3dbae99e	0.0912659
240	0xbe1c18d1	-0.15243842
241	0x3d538b33	0.051646423
242	0x3db738f7	0.08946412
243	0xbe5d7f38	-0.21630561
244	0xbcc6723d	-0.024224395
245	0xbd9bda8d	-0.07610045
246	0x3ee8cbe0	0.45468044
247	0xbe006c13	-0.12541227
248	0xbe856475	-0.26053205
249	0xbdedbd82	-0.11608411
250	0x3dc581db	0.096439086
251	0xbd2f1337	-0.042742934
252	0x3e055038	0.13018882
253	0xbe320add	-0.17386957
254	0x3d92acf6	0.07161896
255	0x3e3a420e	0.1818926

sequential/dense/BiasAdd/ReadVariableOp f4 [40]
0	0xbd8241b8	-0.06360191
1	0xbe261a18	-0.16220891
2	0xbde06e71	-0.10958565
3	0xbe3fc64b	-0.18727987
4	0x3e057caa	0.13035837
5	0xbc1c6b6c	-0.009547096
6	0x3838c888	4.4055778e-05
7	0xbd4edd73	-0.05050416
8	0xbdf90dea	-0.12160857
9	0xbd3f9551	-0.04677326
10	0x3dfd4585	0.123667754
11	0x3dafd490	0.08585465
12	0xbdb6500f	-0.08901989
13	0xbe25ec97	-0.16203533
14	0x3db1d4ff	0.08683204
15	0xbe240ca6	-0.1602045
16	0x3e347783	0.17623715
17	0xbcb18459	-0.021669554
18	0xbdcad912	-0.09904684
19	0xbbe06da2	-0.0068490067
20	0x3cb89292	0.022530828
21	0x3da22560	0.07917285
22	0x3d490ff7	0.04908749
23	0xbca5493c	-0.020176522
24	0x3c3dacf9	0.011576884
25	0x3b62903f	0.003457084
26	0x3df38d65	0.11892203
27	0xbdfd5c6d	-0.123711444
28	0xbc5b0e59	-0.01337012
29	0xbd909cff	-0.07061195
30	0x3e1017ce	0.14071581
31	0xbd12ece9	-0.035870466
32	0xbde43601	-0.11143113
33	0x3e0a9633	0.13533859
34	0xbdaaed95	-0.083460964
35	0xbdad2fea	-0.084564045
36	0xbe855b57	-0.2604625
37	0xbdf4f7fb	-0.11961361
38	0x3d7ab34a	0.06120614
39	0xbd1ed611	-0.03877837

sequential/dense_2/BiasAdd/ReadVariableOp f4 [2]
0	0x3d79d221	0.06099141
1	0xbd79d24a	-0.060991563

sequential/dense_1/BiasAdd/ReadVariableOp f4 [20]
0	0xbd85718b	-0.06515797
1	0xbd843599	-0.064555354
2	0xbe2d62b6	-0.16932186
3	0xbcf20935	-0.029545406
4	0xbca8f645	-0.020625243
5	0xbde05238	-0.10953182
6	0x3db9e161	0.09076191
7	0x3d7a30f1	0.06108183
8	0xbd48a290	-0.048983157
9	0x3e9a1b04	0.30098736
10	0xbdc02216	-0.093815014
11	0xbded9563	-0.11600759
12	0xbd89f183	-0.06735518
13	0x3e70de21	0.23522235
14	0xbca5bf2c	-0.02023276
15	0x3e5cdd22	0.2156873
16	0xbd170749	-0.036872182
17	0x3ed1512c	0.40882242
18	0xbde509d2	-0.11183514
19	0xbd2459b0	-0.040124595

sequential/dense/MatMul i1 [40, 64] scale=0.009032501 zero_point=0
0	0xc9	-0.49678755
1	0x0d	0.11742251
2	0xf2	-0.12645501
3	0xf5	-0.09935751
4	0x17	0.20774752
5	0x06	0.054195005
6	0xb3	-0.6955026
7	0x33	0.46065754
8	0x01	0.009032501
9	0xf2	-0.12645501
10	0x2c	0.39743003
11	0x04	0.036130004
12	0xec	-0.18065003
13	0x0f	0.13548751
14	0xfb	-0.045162506
15	0xed	-0.17161752
16	0x0d	0.11742251
17	0x07	0.063227504
18	0x3f	0.5690476
19	0x0a	0.09032501
20	0x05	0.045162506
21	0x17	0.20774752
22	0xfb	-0.045162506
23	0xf6	-0.09032501
24	0x0d	0.11742251
25	0x3a	0.5238851
26	0x09	0.08129251
27	0x04	0.036130004
28	0x0c	0.10839001
29	0x0b	0.09935751
30	0x3d	0.55098253
31	0xf2	-0.12645501
32	0xf1	-0.13548751
33	0x1a	0.23484503
34	0xe6	-0.23484503
35	0x0a	0.09032501
36	0xea	-0.19871502
37	0xf6	-0.09032501
38	0xe7	-0.22581252
39	0xee	-0.16258502
40	0xe8	-0.21678002
41	0xf0	-0.14452001
42	0x23	0.31613752
43	0xf3	-0.11742251
44	0xec	-0.18065003
45	0x10	0.14452001
46	0x05	0.045162506
47	0x07	0.063227504
48	0x04	0.036130004
49	0xfa	-0.054195005
50	0x09	0.08129251
51	0x0e	0.12645501
52	0xef	-0.15355252
53	0xfe	-0.018065002
54	0x4d	0.6955026
55	0xee	-0.16258502
56	0xed	-0.17161752
57	0x10	0.14452001
58	0xdd	-0.31613752
59	0xe7	-0.22581252
60	0x18	0.21678002
61	0xf8	-0.07226001
62	0xee	-0.16258502
63	0x2a	0.37936503
64	0xff	-0.009032501
65	0x04	0.036130004
66	0xfa	-0.054195005
67	0xed	-0.17161752
68	0xe9	-0.20774752
69	0x19	0.22581252
70	0xd2	-0.41549504
71	0xd8	-0.36130005
72	0x06	0.054195005
73	0xe4	-0.25291002
74	0xd4	-0.39743003
75	0x0f	0.13548751
76	0x09	0.08129251
77	0xbf	-0.58711255
78	0x07	0.063227504
79	0x0c	0.10839001
80	0x08	0.07226001
81	0xff	-0.009032501
82	0x37	0.49678755
83	0xf2	-0.12645501
84	0x08	0.07226001
85	0x31	0.44259253
86	0xd2	-0.41549504
87	0x03	0.027097503
88	0x2b	0.38839754
89	0x1a	0.23484503
90	0xf9	-0.063227504
91	0x2f	0.42452756
92	0xed	-0.17161752
93	0xfb	-0.045162506
94	0x3f	0.5690476
95	0x11	0.15355252
96	0x07	0.063227504
97	0x2e	0.41549504
98	0xf9	-0.063227504
99	0xe1	-0.28000754
100	0x1f	0.28000754
101	0xed	-0.17161752
102	0xe4	-0.25291002
103	0x25	0.33420253
104	0x0c	0.10839001
105	0x0a	0.09032501
106	0x46	0.63227504
107	0x07	0.063227504
108	0x00	0.0
109	0x1e	0.27097502
110	0xff	-0.009032501
111	0xf6	-0.09032501
112	0x34	0.46969005
113	0x11	0.15355252
114	0xeb	-0.18968251
115	0x01	0.009032501
116	0x0b	0.09935751
117	0xdf	-0.29807252
118	0x40	0.57808006
119	0x1f	0.28000754
120	0xfa	-0.054195005
121	0x1d	0.26194254
122	0x19	0.22581252
123	0xf3	-0.11742251
124	0x35	0.47872254
125	0x02	0.018065002
126	0xd1	-0.42452756
127	0x17	0.20774752
128	0xf3	-0.11742251
129	0x16	0.19871502
130	0x0a	0.09032501
131	0xf0	-0.14452001
132	0x00	0.0
133	0x14	0.18065003
134	0xc4	-0.54195005
135	0x05	0.045162506
136	0xf4	-0.10839001
137	0xe1	-0.28000754
138	0x1f	0.28000754
139	0xf5	-0.09935751
140	0xe8	-0.21678002
141	0xee	-0.16258502
142	0xff	-0.009032501
143	0xff	-0.009032501
144	0x00	0.0
145	0xfe	-0.018065002
146	0x1b	0.24387753
147	0xea	-0.19871502
148	0x06	0.054195005
149	0x2b	0.38839754
150	0xcb	-0.47872254
151	0x03	0.027097503
152	0x2b	0.38839754
153	0x03	0.027097503
154	0xf9	-0.063227504
155	0x23	0.31613752
156	0x04	0.036130004
157	0x0f	0.13548751
158	0x40	0.57808006
159	0x14	0.18065003
160	0xec	-0.18065003
161	0x18	0.21678002
162	0xed	-0.17161752
163	0x02	0.018065002
164	0x17	0.20774752
165	0x3e	0.5600151
166	0x10	0.14452001
167	0x01	0.009032501
168	0x00	0.0
169	0xe4	-0.25291002
170	0x3f	0.5690476
171	0x00	0.0
172	0xff	-0.009032501
173	0x0f	0.13548751
174	0xfa	-0.054195005
175	0xf4	-0.10839001
176	0x10	0.14452001
177	0xe9	-0.20774752
178	0x06	0.054195005
179	0x04	0.036130004
180	0xfd	-0.027097503
181	0xe4	-0.25291002
182	0x5d	0.84002256
183	0xf6	-0.09032501
184	0xee	-0.16258502
185	0x29	0.37033254
186	0x07	0.063227504
187	0xf3	-0.11742251
188	0x1f	0.28000754
189	0x02	0.018065002
190	0xf3	-0.11742251
191	0x41	0.58711255
192	0xeb	-0.18968251
193	0x05	0.045162506
194	0xec	-0.18065003
195	0x0c	0.10839001
196	0x26	0.34323505
197	0x1a	0.23484503
198	0xab	-0.7677626
199	0x18	0.21678002
200	0x00	0.0
201	0xfb	-0.045162506
202	0xd6	-0.37936503
203	0x06	0.054195005
204	0xf5	-0.09935751
205	0xd5	-0.38839754
206	0xfe	-0.018065002
207	0x1f	0.28000754
208	0xff	-0.009032501
209	0x05	0.045162506
210	0x33	0.46065754
211	0xfb	-0.045162506
212	0xf1	-0.13548751
213	0x49	0.65937257
214	0xdc	-0.32517004
215	0x08	0.07226001
216	0x1f	0.28000754
217	0xed	-0.17161752
218	0x09	0.08129251
219	0x3a	0.5238851
220	0x02	0.018065002
221	0xf6	-0.09032501
222	0x44	0.61421007
223	0x0f	0.13548751
224	0x09	0.08129251
225	0x34	0.46969005
226	0xd9	-0.35226753
227	0xfb	-0.045162506
228	0x2c	0.39743003
229	0xdb	-0.33420253
230	0x22	0.30710503
231	0x17	0.20774752
232	0x0f	0.13548751
233	0xea	-0.19871502
234	0x48	0.6503401
235	0x08	0.07226001
236	0xef	-0.15355252
237	0x29	0.37033254
238	0xfb	-0.045162506
239	0xe9	-0.20774752
240	0x2f	0.42452756
241	0x0b	0.09935751
242	0xf0	-0.14452001
243	0x11	0.15355252
244	0x05	0.045162506
245	0xe3	-0.26194254
246	0x5c	0.8309901
247	0x03	0.027097503
248	0xca	-0.48775506
249	0x4f	0.71356755
250	0x0c	0.10839001
251	0xb3	-0.6955026
252	0x2d	0.40646255
253	0x20	0.28904003
254	0xd4	-0.39743003
255	0x36	0.48775506
